ckpt/causalcnn_pretrain_epoch20.pt (torch, 197250 bytes, 10 tensors)

network.0.weight f4 [64, 18, 3]
00000000: 1516 adbd 5253 bebd 5605 82bd d0b0 b1be
00000010: a298 6c3c db8b bebd b631 12be f2d5 653d
00000020: 9734 10bd 6e50 91be e9b4 1fbe 4225 83bd
00000030: 294f 2b3e 30d3 16be f7b4 76bd 3f7e babd
00000040: 0d90 1abe d1ea 62bc d308 033e 4de0 b4bd
00000050: ab8e 043e 5133 93bd 5f21 7cbe c5d3 8ebc
00000060: 6340 5abe fba7 e93c 78e6 c73d bb32 dc3c
00000070: 642a 31be 13d4 0ebe 93bd 103d bf69 42bc
00000080: bdad 353b b55b 0b3b 6fd6 83bd d49c b6bc
00000090: 784b e63d aff8 27bd 8d31 ba3d 96eb 49be
000000a0: 24d8 16be 9271 ddbd 4426 953d df28 1a3e
000000b0: 64d2 31bd ed30 4a3d fefd f3bc 4ec9 1abe
000000c0: d608 013d 7639 e33d 0c88 fe3c 6546 283d
000000d0: dc1e 9cbd d5d1 b3bd 3553 afbe 464a 343c
000000e0: 64f2 09be 59d6 45bc ef9c c53d e6f8 15bd
000000f0: 5615 803c f6bd 643d 9d20 35bb 1667 56be
00000100: 37de 10be b3aa 63bd 44b5 85be e066 15be
00000110: 49dc f6bc 7a7a ba3b c5f5 29be 853b 01bd
00000120: 514e 0abe 7173 b73b ae9e ae3d 41e2 9bbd
00000130: 066c 73be 0082 8abe 204e a1be 9d5e 19be
00000140: e743 64be 53c9 ab3d 6f57 02bd 6aa9 2fbe
00000150: 67cb b43b 0927 34be 5d9b 6fbd 9869 4cbe
00000160: b995 543d 0238 243d af1b d33d 93dd a6bd
00000170: 991e 0cbe dd38 9dbe fefa 86be 6086 27be
00000180: 57f5 4a3e 1e38 403c 3f33 d33d 99c7 96bd
00000190: fb83 1abe f3af c0bd 1779 b1bd 6691 1bbe
000001a0: d8f2 cf3d 0b06 853d cbfb 553d 37f6 00be
000001b0: db06 2ebe 12ed 59bd 5101 94bd 0184 3e3d
000001c0: 9f96 11be 9792 20be 100c 1f3d e89e 24be
000001d0: a0b1 543d 4ed1 c3bd 86f7 a7bd 00b7 a9b9
000001e0: dae0 50be e9b8 9c3d 73ae 7f3d 88c7 fdbd
000001f0: 5a0c 02be 9818 07bd 3340 0ebe ba33 cd3c
00000200: 2f7a 9a3d d9f9 bcbd ef4a 623d 536b 03bd
00000210: 7079 fb3b 5001 223c ea61 5c3d 4b55 99bd
00000220: 616b 703d 783b 00bd 9fa0 10be b9d3 723d
00000230: ea46 dfbd 0341 053d 43f0 9fbd 1e84 8b3d
00000240: 3d57 92bc d4bc 903d b3ed 83bd 1e1c 2abe
00000250: 138d 173d 77bb 17bd c3fb fdbd 96d2 073e
00000260: 78e9 51bd 8fa1 73bd 0848 cc3d 3c48 043e
00000270: 0064 19bd b769 343d 7a1a 04bd be7f 7d3d
00000280: 7f76 68bd 6efd 3f3d 37fe 2fbe 6d7f dc3c
00000290: 5100 b33c a8c1 a2bd ef21 2ebd 8cc8 98bd
000002a0: 879a d83c 810d 49bd faae 0abe d88b 11be
000002b0: 178b 1d3d f91e ac3d 3ed1 c8bd b511 243d
000002c0: 2c0b 1a3c 8e88 e1bd fcff 8dbc 20d6 bdbd
000002d0: 96fb 953d b2e9 b83d 683b 7a3d bb8a 753c
000002e0: 1ac2 d4bd be57 90bd 37c4 bebd cc42 ceba
000002f0: 975e ebbd 3fb4 643d 5791 433d c958 353c
00000300: b524 0fbe e958 e3bd d395 dcbd 692a 36be
00000310: 89ef 323d e173 21bd 45c8 803c 7ceb e0bd
00000320: f430 b6bd 60a7 693d fc4e 12be 6af5 c4bd
00000330: b8b0 e23d 069d df3d 6667 ab3d 681f a3bd
00000340: e44e 46bd 9c04 edbc 57aa e7bc d049 013c
00000350: 54cc 853d acf8 843d d0b8 053d 20ca d63b
00000360: 102f aabe 5ba0 c4bd ee69 d3be 22b9 80be
00000370: b943 5c3e 12fc a83e 6cc9 46be 99f2 b1bd
00000380: 73fd bcbd 5ef0 85be 83de 8bbd 9861 debd
00000390: 1ea8 5f3d 00b5 42bd 8f4b 2bbe ae0b dabc
000003a0: 2c9d 02bc 9718 a83c 98a5 45bd 7de5 98bd
000003b0: 86ef ffbd 39e9 b4be 9f66 b5be 8769 fdbd
000003c0: ee30 e5bd bfa7 15be 8bb6 e53c c624 6e3c
000003d0: f9f9 fcbc 4b0b 3ebe fda7 12be 9a0f 9fbb
000003e0: 49fb 19be 7ae4 6e3d 7350 a1bd 7955 19bd
000003f0: 291c b43d 9f35 c73d b03e 183e a432 25be
-0.084514774 -0.09293236 -0.06348674 -0.3470521 0.014440687 -0.09304019 -0.14276776 0.056112237
-0.035206404 -0.28381675 -0.15596355 -0.06403591 0.16729416 -0.14728999 -0.060231175 -0.09106111
-0.15094014 -0.01384993 0.12796335 -0.088318445 0.12945049 -0.07187522 -0.24622105 -0.017434964
-0.21313624 0.028522482 0.09760755 0.026879659 -0.17301327 -0.13948087 0.035337042 -0.011866032
0.0027721964 0.0021264378 -0.06437384 -0.022291578 0.11244863 -0.041008648 0.09091482 -0.19718775
-0.14730889 -0.108126774 0.07282689 0.15054654 -0.043413535 0.049363066 -0.029784199 -0.15115854
0.031502567 0.11094944 0.031070732 0.04108276 -0.076230735 -0.08780257 -0.3424317 0.011004036
-0.13471371 -0.01207503 0.09649073 -0.03661432 0.015635174 0.055845223 -0.0027637847 -0.20937762
-0.14147268 -0.055582713 -0.26114857 -0.14590025 -0.030134337 0.00569087 -0.1659766 -0.031550903
-0.13506438 0.0055984785 0.085263595 -0.07611514 -0.23771676 -0.27052307 -0.31504917 -0.14977498
-0.22291528 0.08388009 -0.031821664 -0.1715447 0.0055174115 -0.17593016 -0.058497775 -0.19962156
0.0519006 0.040092476 0.103080146 -0.08147731 -0.13683547 -0.30707446 -0.26363367 -0.16359854
0.19820152 0.011732129 0.10312509 -0.07362289 -0.15089409 -0.0940856 -0.08665674 -0.15192184
0.10153741 0.06495293 0.05224208 -0.12593924 -0.16994803 -0.053204603 -0.072268136 0.046512607
-0.14217614 -0.1568092 0.038829863 -0.16076243 0.05192721 -0.09561406 -0.08201508 -0.00032370538
-0.20398274 0.07652456 0.062422227 -0.12391573 -0.12700024 -0.03298244 -0.13891678 0.02504908
0.07542836 -0.09227342 0.055247243 -0.032084774 0.0076743886 0.009888008 0.053804316 -0.074869715
0.058696155 -0.031306714 -0.14123772 0.059283946 -0.10902198 0.032532703 -0.07809498 0.06812309
-0.017863864 0.07067266 -0.06441822 -0.16612288 0.036999773 -0.037044015 -0.12401535 0.13263926
-0.051248044 -0.059480246 0.09974676 0.1291818 -0.037448883 0.04404613 -0.032251813 0.061889403
-0.05675363 0.04687255 -0.17186819 0.02691623 0.021850737 -0.07947093 -0.04251283 -0.07460126
0.026440872 -0.049085144 -0.13543311 -0.14213502 0.038462725 0.08404345 -0.09805535 0.04005595
0.009402078 -0.11012374 -0.017333977 -0.09269357 0.07323377 0.09028949 0.06109181 0.014986689
-0.103885844 -0.070479855 -0.09314769 -0.001573646 -0.11492651 0.05583596 0.04774603 0.011068531
-0.13978846 -0.11100943 -0.10770764 -0.17789616 0.04368547 -0.03941715 0.015720496 -0.10982415
-0.08896056 0.057044387 -0.14287943 -0.096171215 0.11068863 0.10918622 0.08369331 -0.07964975
-0.04841508 -0.028932862 -0.028279467 0.007891133 0.06533113 0.06492743 0.032646954 0.006554857
-0.3323903 -0.09600898 -0.41291755 -0.25141245 0.21510209 0.33004814 -0.19412774 -0.0868885
-0.09228029 -0.26159948 -0.0682955 -0.10858458 0.05460369 -0.047535896 -0.16728042 -0.026616897
-0.007972043 0.020519538 -0.048253626 -0.074656464 -0.12496857 -0.35334185 -0.35429856 -0.12373643
-0.11190973 -0.14614771 0.028041145 0.014535135 -0.030880915 -0.18558995 -0.14321895 -0.004854155
-0.15037264 0.05832336 -0.078766726 -0.03743503 0.087944336 0.09727024 0.14867663 -0.16132599

network.0.bias f4 [64]
00000000: 4d68 373c 4e8b 62be 16f2 8e3d 281c 713d
00000010: af64 bcbd 17d9 f43c daf1 8fbd 829d 8fbd
00000020: 93e2 193e 04cb 70be 7f3d f5bd ef2c 5fbe
00000030: f10c 6d3d 849a 10bd 22ef ae3d f2d2 633e
00000040: 0b49 593f 9e71 8a3b 1249 1c3d a190 29be
00000050: 7a3d 73bd 670b b73c 4982 90bd c1a6 c43c
00000060: 7655 bdbd a6d3 bd3d 0267 bebb 5410 e1bd
00000070: 1b32 2fbe f928 023d 281c 703d 8514 a8bd
00000080: e473 403c 9858 b4bd 20ff 273d 66c2 993c
00000090: ec94 07be f1fd 81bb 239d 143d 8f58 ebbd
000000a0: 76fa 8c3d 079f 79bd 4c11 d1bd ec99 873d
000000b0: 671b b53d a1fd 8ebd eea1 33be 6cc3 83bc
000000c0: 58d5 283f 5177 77bd 9d7f f83e 7e86 03be
000000d0: 0146 dbbd f4e6 a03d fc7f 103e b438 753d
000000e0: 540c b8bb c137 7a3f 6e5b a33d 00d5 f23e
000000f0: d908 e7bd 3aae 643c dd0e 42be 98a8 19be
0.011194301 -0.22123453 0.06979768 0.058864743 -0.09198891 0.029888673 -0.070285514 -0.07012464
0.15027837 -0.23514944 -0.1197462 -0.21794485 0.05787367 -0.035303608 0.08541705 0.22248438
0.8487708 0.00422497 0.038155623 -0.16559078 -0.0593848 0.022344304 -0.070561 0.024005296
-0.09244816 0.09268884 -0.0058106193 -0.109894425 -0.17108957 0.031777356 0.058620602 -0.08207039
0.0117463805 -0.088059604 0.04101479 0.018769454 -0.13240403 -0.0039670398 0.03628267 -0.114915006
0.06883709 -0.060942676 -0.10208377 0.06621155 0.08843117 -0.069819696 -0.1754224 -0.016084395
0.65950537 -0.060416523 0.4853486 -0.12844273 -0.107067116 0.07856551 0.14111322 0.05986853
-0.005616704 0.97741324 0.07976423 0.4742813 -0.112809844 0.0139575545 -0.18950982 -0.1500572

network.2.weight f4 [64, 64, 3]
00000000: 0f98 6c3d e981 a73b 8de0 9abc 2021 a3bc
00000010: 5238 0fbd 2a89 96bd d37d 05bd 015b 98bd
00000020: c7a9 1b3d f4f7 5f3d ac45 883d a00d 593c
00000030: 4bd4 07bd 37f0 9c3a 3e9a b83b 171d 79bd
00000040: a482 aa3c aff3 87bd 5812 57bd 6232 383b
00000050: 1de0 2a3d 82af 0c3d 85d9 3b3d d07a f4bc
00000060: dea5 be3c 765f dcbc 0544 32bc c79f b9bd
00000070: df48 ccbd b598 14bd f081 bc3c 048e 37bc
00000080: 3098 15bd 204c 18bd 1c90 7ebd f697 643d
00000090: 2849 0d3d 3a30 8b3d 2178 97bd f2d6 b6bc
000000a0: 65ef 59bd 086e 91bc fc1c 5bbd fe10 85bd
000000b0: 4120 e0bc ca30 5d3c 50fa 61bd 4c19 cebd
000000c0: 0c09 8fbd 189f 95bd 42e3 ed3c db01 fe3c
000000d0: daee 013b 3f20 8fbd 577c 103d 3529 2ebd
000000e0: 8ce9 193d 7bb5 4b3b 942e 4bbd 69b5 0e3d
000000f0: d27b fbbc 4398 603b 7260 fabc 4f01 133d
00000100: 087b 6e3d c665 253d 3339 7cbd 42bd c039
00000110: 7a15 793d e160 c3bc d075 04bd 3de8 35bd
00000120: 172f 99bd 3b9f 593d eb7c cf3c d98e bfbd
00000130: 7d11 fd3c d8f2 82bd 8ef7 35bd 1442 573d
00000140: 49bc 45bd e001 24bb 185b 3e3d f6bb ce3c
00000150: 9b5e 523d f843 58bd 81b9 81bd af97 86bd
00000160: 16c0 a0bc 0bf0 43bd cc67 fe3c 542e 003d
00000170: 4c53 673d ede6 78bc f481 0b3d fc51 adbd
00000180: 38eb 0fbc 4a91 33bd ecd8 5a3d 1aef bb3c
00000190: 88ac 523c 470b 50bd 3072 88bd ff8d fdbc
000001a0: 4293 37bc 4dfc 18bc 2b41 22bd 6212 18bb
000001b0: 29f3 80bd 4dff 8f3b a611 8bbd afb9 4dbd
000001c0: e3d7 58bd df85 9dbc 907a 69bd ce03 96bd
000001d0: 4665 c5bc 2c39 edbd df58 4ebd c93d f4bc
000001e0: 44be 743d d1b8 7ebd 399c 69bd 0228 6fbc
000001f0: 914b 87bd c502 93bd 8b8f 883b 6b50 95bd
00000200: 31d8 acbd 38c6 fbba 118b f33c 87dd 0ebd
00000210: 1657 11bd 82a0 0c3d 18f2 c0bb 3ada a639
00000220: 7524 2c3c 411e 96bd a1e5 6cbd f0c7 13bd
00000230: 3c1f 2abd d840 10bc 8c95 67bd 6450 f0bc
00000240: 3359 d7bd 6bdf 20bc a76d 9abb c46d 5f3c
00000250: 905d b7bd 2c2e ebbb cc0b d7bc e052 d6bd
00000260: 6307 abbd 8f16 e43c 0723 0eba ad25 113d
00000270: 1b9b 74bd a3b4 2ebd f168 35bd 1852 883c
00000280: 6f64 0bbd ee2e dfbc 03f0 c43b f5c8 673d
00000290: ef28 883d cb24 13bd 9d6c 49bd a0f0 643d
000002a0: 4865 1dbd e71a 9ebd 22e4 15bc a25d ffbc
000002b0: 4108 d9bb e181 58bc 5afc 91bc 680a 073d
000002c0: 0b61 593d 0804 01be 709e a83c 31b9 efbc
000002d0: fe24 b8bc 08b0 2ebd baab e3bc eee7 ab3c
000002e0: ea05 153d 2e1c 42bb bfdd f8bd 9fbd 81bc
000002f0: f927 a6bb e35b 993a 8c38 2dbc 9b01 bb3c
00000300: 3441 2c3e d6bb 12be 4f94 78bd 535d 52bd
00000310: b3f3 5e3d df19 643c fe24 20bd 25e5 eb3c
00000320: 4dbb 32ba 2ec5 863b 909f debc 753d be3c
00000330: 75af 97bc 6548 0bbb 2be1 ad3d 06a5 e0bd
00000340: 30a5 a13d 481b c3bd 8917 14be 91f5 0e3c
00000350: 556c bfbd 6fc9 1a3e 84d4 93bd 4e28 bfbc
00000360: 57fc a43a 1254 553d a4fa 633d 41e5 5b3c
00000370: 8594 17bd 9a4c 88bd 21c7 50bd 8412 873c
00000380: ad1d 92bd d7d9 a0bd 8dd6 953d da3f c4bd
00000390: 66d1 573d 526e d13b 7970 aa3d d3c4 183d
000003a0: ceae 1f3d c33a 6c3c 340e a4bc 5f2f e03c
000003b0: f743 88bd ce0d f7bd 3939 e83d 556c b8bd
000003c0: 79bd 07be 9813 85bd 3e7e 25be 5aea 2dbd
000003d0: b490 6b3d 9501 4d3c 3b1a 3cbd 0fc8 1c3e
000003e0: 5ef1 613d c682 ed3c 02a1 033d 95fb b93c
000003f0: 6dba f13c 2840 3dbd 24be 71bc 46d2 04be
0.057762202 0.005111922 -0.018905902 -0.019913256 -0.03496582 -0.07350381 -0.0325907 -0.074392326
0.03800371 0.054679826 0.06653914 0.013247877 -0.033161443 0.0011973445 0.0056336215 -0.060818758
0.020814247 -0.06638276 -0.05250773 0.0028106202 0.041717637 0.034347065 0.04586174 -0.029843718
0.023272451 -0.026900988 -0.010880475 -0.09063678 -0.099748366 -0.036278445 0.023011178 -0.011203293
-0.03652209 -0.037181973 -0.062149152 0.055808984 0.034493595 0.06796308 -0.0739596 -0.02231929
-0.05320682 -0.017752662 -0.05349444 -0.06497382 -0.02735913 0.013500402 -0.055170357 -0.10063419
-0.069841474 -0.07305735 0.029039029 0.031006744 0.0019826205 -0.06988572 0.03527483 -0.042519767
0.037576243 0.0031083513 -0.049604967 0.034840975 -0.03069869 0.0034270443 -0.030563567 0.03588992
0.0582228 0.04038026 -0.061577987 0.00036762102 0.060811497 -0.023849906 -0.032338917 -0.044410933
-0.07479685 0.05313037 0.02532812 -0.09353418 0.030892128 -0.06393975 -0.04442554 0.05255325
-0.048275266 -0.0025025532 0.046473593 0.025236111 0.051359754 -0.052799195 -0.0633421 -0.065719
-0.019622844 -0.047836345 0.031055354 0.031294182 0.056475922 -0.015191776 0.03405948 -0.08462903
-0.008784108 -0.04383973 0.05342953 0.022941161 0.0128585175 -0.050792005 -0.066624045 -0.030951498
-0.011204543 -0.009337497 -0.03961293 -0.0023204316 -0.06296379 0.004394448 -0.067904755 -0.05022591
-0.05294026 -0.019228874 -0.05700165 -0.073249444 -0.024096143 -0.1158317 -0.050377723 -0.029814618
0.059751764 -0.062187973 -0.05703375 -0.014596941 -0.0660621 -0.071782626 0.0041675023 -0.07290729
-0.08439673 -0.0019208854 0.029729398 -0.034879234 -0.035483442 0.03433276 -0.005888235 0.0003182458
0.010506739 -0.07329989 -0.05783618 -0.036079347 -0.041533694 -0.008804522 -0.056539103 -0.029335208
-0.1051506 -0.009818892 -0.0047127786 0.01363701 -0.089533925 -0.007177135 -0.026250742 -0.10465026
-0.08351018 0.027842788 -0.00054220896 0.03543632 -0.059718233 -0.042652737 -0.044289533 0.016640708
-0.034031328 -0.027244058 0.006010057 0.056588132 0.066484325 -0.03592376 -0.049175847 0.05589354
-0.038426667 -0.07719975 -0.009148629 -0.031172577 -0.0066232984 -0.013214559 -0.017820526 0.03296891
0.053071063 -0.12599194 0.020583361 -0.02926311 -0.022478577 -0.042648345 -0.027791847 0.020984616
0.036382593 -0.0029618847 -0.1215167 -0.015837489 -0.005070683 0.0011700358 -0.010572564 0.022827914
0.16821748 -0.14329466 -0.060688313 -0.051358532 0.05443163 0.013922184 -0.03909778 0.028795788
-0.0006818071 0.004112861 -0.027175695 0.023222664 -0.018516282 -0.0021252867 0.08490213 -0.10968976
0.07892835 -0.09526688 -0.14462103 0.00872554 -0.093468346 0.15115903 -0.072182685 -0.023334648
0.001258741 0.05208213 0.05565895 0.013421358 -0.037006874 -0.066552356 -0.050971154 0.016488321
-0.071345665 -0.0785405 0.07316313 -0.09582491 0.052689932 0.006391325 0.08322234 0.03729708
0.038985066 0.014418307 -0.020026304 0.027366338 -0.06653588 -0.1206318 0.11339039 -0.09005038
-0.13255872 -0.06497878 -0.16161439 -0.042459823 0.057511047 0.012512584 -0.045923453 0.15310691
0.055161826 0.028993022 0.03213597 0.022702971 0.02950784 -0.046203762 -0.014754806 -0.12970838

network.2.bias f4 [64]
00000000: 9288 37be 28f9 cabb 7de5 89bd 4c2e 1ebe
00000010: b925 95be 3683 babd a07e 793d bdac c5bd
00000020: b8a4 e13d 3dd4 8f3e 687b 13bd 33ab 00bd
00000030: fdd5 df3e f4d1 1fbe 1b64 c13e 5069 85bd
00000040: f916 3abc fd26 393d b05a 80bd c4de b8bd
00000050: 1af2 473d a9c3 173e d3e5 183e 17ab 10be
00000060: 4f0c 643d d65d 013e 2851 54bc 93e6 283d
00000070: 19ca b33e 4b65 96bd 7eb9 153c fb15 eabc
00000080: 1e8b 893d 86b5 813f 7b7b 9bbd fc63 563e
00000090: 7fea 103d fcb6 09bd 5bcc 16bd 4be5 0abe
000000a0: a315 28be 4632 c13e d0a9 5b3e c996 d43e
000000b0: 23a4 c83e 4a88 89bd daaf e23d fb2f 16be
000000c0: 6bc0 c9bc 7d71 babd cdd4 adbd 0464 84bd
000000d0: 112c d0bc 7cd4 3e3f 8716 bd3f 8828 0ebe
000000e0: 213f f8bb 19d5 4ebd 15bb 17be f226 35be
000000f0: 6599 acbd 79a2 70bd 5f9e febc f55a 20be
-0.17923191 -0.0061942525 -0.067332245 -0.15447348 -0.29130343 -0.09107058 0.060911775 -0.09652088
0.11017746 0.28091612 -0.03600636 -0.03141327 0.43717948 -0.15607435 0.37771687 -0.065142274
-0.011358016 0.045203198 -0.06267297 -0.09026864 0.04881487 0.14820732 0.14931421 -0.14127766
0.0556758 0.12633452 -0.012958802 0.041235518 0.35115126 -0.07343539 0.009138463 -0.028574934
0.067159876 1.0133522 -0.075919114 0.20936579 0.035379883 -0.033621773 -0.036815982 -0.13564031
-0.16414504 0.37733668 0.21451497 0.4152129 0.39187726 -0.06715448 0.11068697 -0.1466674
-0.024627885 -0.091036774 -0.08487854 -0.06464389 -0.025411637 0.74542975 1.47725 -0.13882649
-0.007575885 -0.050496195 -0.1481746 -0.17690638 -0.08427695 -0.058748696 -0.031081377 -0.15659697

network.4.weight f4 [64, 64, 3]
00000000: fbf1 873c 0805 183d 70e3 553d 8dbb ca3c
00000010: b8ed df3c 4071 00be ec36 0abe 0cab 9cbb
00000020: c523 df3c 127d 07be 7d11 e83c ea0e 9a3d
00000030: 773e d1be 46b8 303e e34a 223f b725 23be
00000040: 5817 41bd dd2f d2bd 382e 9ebd 4c56 363d
00000050: efbc 8ebd fa26 eabd f3a5 7abb bfd1 57bd
00000060: 7757 afbd 15e9 e8bd f3c3 023e fd3a 4a3e
00000070: 55b7 223f 9930 5dbf 8f3b 45bc b867 38bd
00000080: 1b72 673d 1d62 4d3c e1f8 cabb 3519 923c
00000090: 3b70 f23e 7679 7d3f b703 1a3f 7ddf dc3c
000000a0: 6f27 a63a bc65 ec3c 3b66 c03e 4876 973d
000000b0: dfc3 433c f55b 51bd 48d1 45bc 2eb7 4abc
000000c0: f4b2 c13d cd63 053e 3e9a 92bd 6f4c 19be
000000d0: 9862 e4bb 3615 a8bd a639 133e 81cd 24bd
000000e0: 47fd 0ebd 6949 9cbd 263b ab3c 102e 0a3b
000000f0: ede4 4b3c ee15 a53d 8842 3d3d d5cf 823e
00000100: 6c80 95bb 8129 09be f426 8a3e 3fa4 48bf
00000110: d3a2 30bd 3f68 64be 6923 6abc bc6e ccb9
00000120: 4980 c4be 44d9 4bbc 1c2a 473e 21bc a13c
00000130: 07be b9bb 2676 c53c 9805 57bd f668 d63c
00000140: 00a7 68bd ea23 8f3d c1a4 4a3d cbe8 4c3c
00000150: 8d71 243d 9f34 483e bff1 4fbe 70c0 2f3d
00000160: c6f1 92bd f571 513d e70b bebd 8e2d 09bd
00000170: 8ddf c63c b66f 843d bf77 a13d 247d 933d
00000180: 2b9e 073d 0e63 e9bc e8dc 3abe f3d9 a8be
00000190: b463 b5bc 0570 f4bd 21c1 453d 0494 90bc
000001a0: 8c38 8abd 1363 273e ddee 823e a140 23bd
000001b0: de11 7abd 2a3d 643c 1809 0dbd 2522 9dbc
000001c0: 04ce 603e fcb4 553e 655a e83b f35b 72bd
000001d0: ea70 81bd 9e0d 93bc fb23 a8bc ba87 92bd
000001e0: dd24 e6bd d9c4 553c 449d 073d 691c ba3d
000001f0: e778 953e 8e8c afbe 02c6 a63e f4c0 db3e
00000200: 0a24 073b 2402 53be 72d1 dcbd e3d4 d5bd
00000210: f759 923d b843 883e 2511 1ebd bf11 46bd
00000220: 9d79 6b3d 1e2a c6bd e88e e83c 5c79 d83a
00000230: c720 813d 75df 1abc a217 0f3d 4a27 99bd
00000240: 2114 5fbd 1abd 4abd 7665 78bd 15f2 393d
00000250: 7d34 8bbd 7073 29bd da9a be3c 7c8f 79bd
00000260: 9888 6ebb 0f6e 0abd 427e ad3d 5f79 00bd
00000270: 3120 7f3e 7a16 703e 9067 2fbe bcd3 ecbe
00000280: 27b0 133e 1162 5fbe 1ea7 f9bd 20d4 2ebe
00000290: 2a54 bfbd 1317 67bc cb65 82bd 3945 afbc
000002a0: c5f0 a3bd 7894 ffb9 ca01 873d aacc 1dbc
000002b0: 23f6 dabc 1b51 bc3d be21 b6be fb7f afbd
000002c0: fc33 e33e 4c9c 60bb 8213 ffbc 407c 6abd
000002d0: 6204 40bd 738f 79bd 4f0f 85bd c247 35bd
000002e0: 586a 0fbe f124 1c3d 9064 de3d 7b1f a13d
000002f0: e2dc 6cbb 9aa3 8bbd 0ebd 90bc 8da2 09bd
00000300: 8ad5 573d 49bf 823d d80e 643b 32b2 c83d
00000310: 7eb5 153e 94d3 43bd 909b 8e3d f2c6 813d
00000320: c489 8a3d 53d6 633d b33d 153d 9ead b4bc
00000330: a32b a03c a508 51be 79cb 15be d145 143e
00000340: 6f7c ae3d a170 9a3d 4dfa ea3b c07c 183e
00000350: 8ff0 5e3d fab9 d6bd 0758 babd 2053 11be
00000360: 9176 2e3d f285 103d b00e 9abd 0c6b 233d
00000370: a8ca 583d ac6b 20bd 612e 0d3d 0fee 30be
00000380: 0821 e3bd 5b13 07be 320d 103e 4df5 a2bd
00000390: 6dd8 823d 4046 1abd ee1d 79bd 4f26 ad3b
000003a0: 0540 1a3e 2029 78bc 7939 78bd 257c 1abd
000003b0: af53 1bbd ce80 193d ab88 3bbd efba a43c
000003c0: dfce f5bd eb30 22be bbf0 043e b855 783d
000003d0: e80d ea3d 7d0e bcbc c9ab 53bd ab15 05be
000003e0: 6187 dfbb bc2a b4bd 38ed 6ebd 5335 2a3d
000003f0: bc8f 7d3e 3e3b cf3d 350d a23b 4a7a 0dbe
0.016594877 0.037114173 0.052218854 0.024747634 0.027335033 -0.12543201 -0.13497514 -0.0047811326
0.027238736 -0.13231304 0.028328652 0.07522376 -0.4086797 0.17257795 0.6339552 -0.15932356
-0.047141403 -0.102630354 -0.07723659 0.044515893 -0.0696963 -0.114332154 -0.0038245886 -0.052690264
-0.085616045 -0.11372582 0.12770061 0.19749065 0.6356099 -0.8640228 -0.012038126 -0.04502079
0.056505304 0.012535599 -0.0061942195 0.017834285 0.4735125 0.9901346 0.6016192 0.026962036
0.0012676547 0.028857104 0.37577996 0.07395607 0.011948555 -0.051113088 -0.012073822 -0.012372775
0.09457961 0.13026352 -0.071583256 -0.14970563 -0.006969761 -0.08207171 0.1437746 -0.040235046
-0.034909513 -0.076311894 0.020902228 0.0021084584 0.012444717 0.080608234 0.046206027 0.25549188
-0.004562428 -0.13394739 0.26982844 -0.7837562 -0.04312403 -0.22305392 -0.014290669 -0.00038992416
-0.38379124 -0.012441937 0.19449657 0.019743027 -0.005668405 0.02410419 -0.05249557 0.026173096
-0.05679989 0.06989272 0.049473528 0.012506674 0.040147353 0.19551323 -0.20307063 0.042908132
-0.07175021 0.05113407 -0.09279614 -0.03349071 0.02427652 0.0646662 0.07884168 0.07201603
0.033109825 -0.028489616 -0.18248332 -0.32978782 -0.022142269 -0.119354285 0.048279885 -0.017648704
-0.06749067 0.16346388 0.25572863 -0.039856557 -0.061052196 0.013930598 -0.0344325 -0.01918132
0.21953589 0.20869821 0.007090854 -0.05916972 -0.06320365 -0.01795083 -0.02052497 -0.07154794
-0.112375 0.01304742 0.033108965 0.0908745 0.29193804 -0.34286922 0.32572943 0.4292065
0.0020620846 -0.20606285 -0.10782136 -0.104409955 0.07146066 0.26614165 -0.03859057 -0.048356768
0.057489026 -0.09676002 0.028388456 0.001651566 0.0630508 -0.00945269 0.034934647 -0.07478197
-0.054462556 -0.049496748 -0.060643636 0.045396883 -0.06797121 -0.041369855 0.023267198 -0.060927853
-0.0036397334 -0.033796366 0.084713474 -0.03136575 0.24914624 0.23446074 -0.1712935 -0.4625529
0.14422666 -0.21814753 -0.12190078 -0.17073107 -0.09342225 -0.014104622 -0.06367072 -0.021395313
-0.080049075 -0.00048748008 0.06592138 -0.009631315 -0.026728695 0.09195157 -0.35572618 -0.08569332
0.44375598 -0.0034272848 -0.031137232 -0.0572474 -0.04687918 -0.06092782 -0.064970605 -0.044257887
-0.1400541 0.038121168 0.108590245 0.078673325 -0.0036142399 -0.06818314 -0.017668273 -0.033602286
0.05269388 0.06384141 0.0034798887 0.09799613 0.14620015 -0.0478092 0.06963265 0.06336774
0.06764558 0.055624317 0.036435794 -0.022055443 0.019552058 -0.20413454 -0.146284 0.14479758
0.085198276 0.075410135 0.0071709515 0.14891338 0.054428633 -0.10484691 -0.09098821 -0.14191866
0.042593542 0.03528399 -0.07522333 0.03989701 0.052927643 -0.039165184 0.03446806 -0.17278312
-0.110902846 -0.13190977 0.14067534 -0.07956944 0.06388936 -0.037664652 -0.06081956 0.0052841078
0.15063484 -0.015146524 -0.060601685 -0.03771605 -0.037921604 0.037476353 -0.045784634 0.020108668
-0.12002348 -0.15838973 0.12982456 0.060628623 0.11428434 -0.022956127 -0.0516775 -0.12996547
-0.0068215583 -0.087972134 -0.0583317 0.04155476 0.24761862 0.101187214 0.004945422 -0.13816181

network.4.bias f4 [64]
00000000: eb61 553e 890a 2a3e d349 5dbd 58e0 a33d
00000010: 3786 893e a339 2f3e 3647 1e3e a628 67be
00000020: 693e 47bd 0392 813d e073 c7bd d5b0 683f
00000030: ea50 50be 70a9 ca3e 101f 25be fca9 37be
00000040: baba 90bd 5227 ec3e 3f91 4c3f 582e 9c3e
00000050: 5350 37bd 205b 9bbd a90d ecbc 8b69 063d
00000060: 2b67 363e 686c 673d a198 73bb ba3f 1ebb
00000070: 5c7a 1a3f 9128 833f d9c4 20bd db93 9fbd
00000080: 1ccb d93d 3a68 03be 7fa7 e33e 9009 f7bd
00000090: fc51 293f c96c 8ebd 9f70 163f c7a9 813e
000000a0: bf1e 84bd 9679 8dbe 28d1 23be d704 773d
000000b0: 36d8 863d 14c4 983e 8fb7 b03d 8752 67bd
000000c0: 80fa df3e a840 803d 6aa0 8f3f 7f9c 14be
000000d0: b43a 05bd 656c 963e fe05 383f 89ab dfbd
000000e0: d797 f63e 223b a2bd fffa 5c3f 2ef2 8fbd
000000f0: 09e7 20bd d15c f1bc ff7d 1b3d c112 54bd
0.20838134 0.16605581 -0.054025482 0.080017745 0.2686021 0.1711183 0.15456852 -0.225741
-0.048643503 0.06326678 -0.09738898 0.90894824 -0.20343366 0.39582396 -0.1612513 -0.17935938
-0.07066865 0.4612375 0.7990913 0.30504107 -0.044754338 -0.0758574 -0.028815107 0.032815497
0.17812793 0.05649987 -0.0037169831 -0.002414687 0.60342956 1.0246755 -0.03925023 -0.07791873
0.10634443 -0.12832728 0.44463727 -0.12062371 0.66140723 -0.06954343 0.58765596 0.25324842
-0.06451177 -0.27631825 -0.15997756 0.06030735 0.06584208 0.29837096 0.08628761 -0.05647519
0.43745804 0.06262332 1.122083 -0.14512824 -0.032526687 0.29379573 0.71884143 -0.109213896
0.4816272 -0.07921435 0.8632049 -0.07028614 -0.039282832 -0.029463204 0.037961956 -0.051775698

network.6.weight f4 [64, 64, 3]
00000000: e64e 6bbc 86e3 1a3d 94bd a83c 0d28 133d
00000010: 78cb 85bd 9866 2bbd 8799 e0bc 8f54 273c
00000020: e0d6 133b 6af7 8abd b003 8abc 5cbf a13c
00000030: d68d 3abd 6695 32be 744e 41bc 24cd 1a3e
00000040: e25e b8bd fad2 4dbd 8cea c5bc 8450 1f3c
00000050: a3a3 87bd 3c67 2cbe af1e 29bc 66a2 febc
00000060: 40db 53bd def8 11bc 3477 f13c 1bbb d83b
00000070: c638 ab3c d4ec 363d 5df8 87bd e6d8 fdbd
00000080: f86c 973c d997 0ebb b2b7 fb3d 1cfd 7e3d
00000090: 1728 973c 0e74 8abd 56e8 89bd d066 70bc
000000a0: be4a 2d3e 5ebb 39bd bbb8 143d 603f 393d
000000b0: 263a 303d a632 873d 4b44 91ba 80b6 673a
000000c0: ed17 4e3d 7a05 babd 60d4 8f3c 5902 403d
000000d0: 5f91 a6bc 9a0b 94bc 6147 f7bd 85aa c13e
000000e0: e089 2b3b 7128 3fbd 618f 5fbd ece8 42bc
000000f0: 417a bdbd a9f5 373e 50d0 4a3d 8468 80be
00000100: f789 28be 7c4d 763d 7bd8 9c3b 9b30 2cbd
00000110: 7019 e1bc f8d5 79bd 8da8 b13d 2cd9 ea3c
00000120: f65b dfbd bae7 83bd 32f9 1ebd ce04 8dbe
00000130: 6c33 87bd 8029 6b3a 1caf 47bc 4ff7 d73d
00000140: 0282 1a3d ea3d b1bc d531 f7bc 70ed 4e3d
00000150: af57 e23c 72f8 003c b26d 573d c3ce d9bd
00000160: 523a 3b3d 989c 2e3c fa05 90bd e22f 4a3e
00000170: a6c0 39bd e815 4dbe cf17 e53d 78fc f23c
00000180: fc73 5abe d1f5 b6bd 9c26 5b3d 4a99 e73b
00000190: 71d9 41bd 0883 7e3c e6eb f93b fb6d 833c
000001a0: 042d 623d cfe2 9e3c 29a4 33be c707 1abd
000001b0: ea9e 28bd 9645 b6bd 78af 1a3c 142b 23be
000001c0: 44c1 783d 88c8 82bd 7c11 f5bd 6bcc cebc
000001d0: 00e8 b0b8 5974 b03d 770c 393c 0eca 253d
000001e0: cdc2 333d 9a00 e03d f406 363d fa58 3b3e
000001f0: d44f ad3d 0c17 4f3d 5163 afbc 77ea e4bd
00000200: b01d 703d 16ea a23d 1380 9c3e cc28 55bc
00000210: 101d 82bd 659e 623d f03f 773d bfb5 40bb
00000220: 4e92 9139 0625 853d 9323 943b f205 babb
00000230: 2cd5 3f3d ba97 fa3d 594b 853c 282f bebc
00000240: 91b0 323d 8639 c83b 0b85 09bd 039f 853e
00000250: 1229 323e 7459 54bd 99ca 09be 7dcb f4bd
00000260: 7d8c 4fbd a05c 753d f16e 403d b4eb 6b3d
00000270: 46be b8bc 8b00 4d3c e81a 5a3c efb2 c5bd
00000280: 6da2 da3c 2c49 d5bc 2062 9dbd 831a 04be
00000290: e8db 123c 8f5c b4bd a0d7 1dbd 7513 79bd
000002a0: 990e 95bd 5b46 9e3d d4a3 233d ace8 80bd
000002b0: 793d 91bd 0982 2cbd 814c a7bd f136 b7bd
000002c0: d27b 433d 3e4d 9cbc 80be 7fba 2672 53bd
000002d0: 9f7c 633d 61f2 803d c06f 8a3c 5777 103e
000002e0: 2262 1a3e 9816 213d a7de a2bd 2fb2 a63c
000002f0: 0d82 81bd 16de 143d 7024 3cbd c8b3 793d
00000300: d360 bdbd 1634 5e3c 726f 803d dd72 813c
00000310: e7c2 8d3c 6492 913d e5b4 1a3d a0ea d8bb
00000320: 6802 36bc 4ff5 a1bb 413a 2839 ea81 33bd
00000330: 7863 c7bd 2904 86bd caa1 20bd 5966 1d3e
00000340: 3f10 da3c 6a44 febc 4379 4b3d 687d cf3d
00000350: e49f 3d3d df32 56bd 5dbe 573e e405 7cbd
00000360: b518 99bd 4965 d2bd 467f 38bd 1a92 09be
00000370: cc1b 5e3d 8093 f13a ae39 27be 5d58 2fbd
00000380: 02a9 6bbd dc79 3dbd eea8 3ebd d01a 6a3c
00000390: dd6e 843c eb66 cabd 50d5 f93c f0ba f3bc
000003a0: ac57 443d 9a9c 28bd b185 05bd 4479 ab3d
000003b0: 426f 56bd 6b45 4dbc 243d 8d3d 44d1 653d
000003c0: a157 ba3b 86e2 063c 9cbe 7fbd 8237 cc3c
000003d0: 476f 783d c0df 373c 83c2 d0bd 1448 b5bd
000003e0: 10ac 2d3c 41b7 29bd e574 173d 8804 603c
000003f0: c046 233e b1ab e7bc 4835 5a3d 224e f8bd
-0.014362073 0.03781464 0.02059821 0.035926867 -0.06532949 -0.041845888 -0.027416958 0.010213031
0.0022558495 -0.06785472 -0.016847461 0.019744568 -0.04554542 -0.17439803 -0.01179849 0.15117317
-0.090024725 -0.05025003 -0.024159692 0.009723786 -0.06623008 -0.16836256 -0.010322257 -0.031083297
-0.051722765 -0.008909432 0.029475786 0.0066141016 0.020901095 0.04465945 -0.066391684 -0.12394886
0.018484578 -0.0021757989 0.122908965 0.062253103 0.018451734 -0.06760417 -0.06733768 -0.01467295
0.16923043 -0.045344703 0.036308985 0.045226455 0.043024205 0.06601457 -0.0011082975 0.00088391453
0.050315786 -0.09083076 0.017557323 0.04687724 -0.02033299 -0.018071938 -0.12074161 0.3782541
0.002617471 -0.046669427 -0.054580096 -0.011896353 -0.09251834 0.17964806 0.04951507 -0.2507974
-0.1645888 0.06013249 0.0047865487 -0.04203854 -0.02747795 -0.060995072 0.08674727 0.028668009
-0.10906212 -0.06440683 -0.03881187 -0.27542728 -0.06601605 0.00089707226 -0.012187745 0.10545217
0.03772164 -0.021635968 -0.030175129 0.050519407 0.027629701 0.007871734 0.052594848 -0.1063514
0.045709915 0.010657452 -0.0703239 0.19744828 -0.04534974 -0.20027888 0.11186182 0.029661402
-0.21333307 -0.089336045 0.053503618 0.007067834 -0.04732651 0.01553417 0.0076269982 0.016043654
0.05521871 0.01939526 -0.17543091 -0.037605073 -0.041167177 -0.08899991 0.009441249 -0.15934402
0.060731187 -0.063859046 -0.119662255 -0.025243958 -8.435547e-05 0.086159416 0.011294476 0.040475897
0.04388695 0.10937615 0.044440225 0.1829566 0.08462492 0.05055909 -0.021409662 -0.11177533
0.058622062 0.079548046 0.30566463 -0.013010215 -0.063531995 0.055326838 0.06036371 -0.0029405204
0.0002776556 0.06501202 0.0045208423 -0.0056769783 0.046834156 0.12235971 0.01627128 -0.023215845
0.043625418 0.006110373 -0.033574145 0.2609788 0.1739848 -0.05184312 -0.13456191 -0.11952875
-0.05067109 0.059902787 0.046980802 0.05759783 -0.022551667 0.0125123365 0.013312079 -0.096532695
0.026688779 -0.026035868 -0.076847315 -0.12900738 0.008963563 -0.08806717 -0.038535714 -0.06080957
-0.07278175 0.07728263 0.03995116 -0.06294379 -0.07091803 -0.0421162 -0.08168889 -0.08946026
0.047725506 -0.0190798 -0.0009755865 -0.051622532 0.05553877 0.0629623 0.01689899 0.14108025
0.15076497 0.039328188 -0.07952624 0.020348636 -0.06323633 0.03634461 -0.045933187 0.06096247
-0.092469834 0.013562223 0.062712565 0.015801841 0.01730485 0.07108 0.03777017 -0.0066197664
-0.011108972 -0.004942573 0.0001604343 -0.043825068 -0.09735769 -0.06543762 -0.039216794 0.15371074
0.026619075 -0.031038482 0.04967619 0.10131341 0.04629506 -0.05229461 0.21068712 -0.061529055
-0.074754156 -0.10273225 -0.045043252 -0.1343464 0.054225728 0.0018430799 -0.16330597 -0.04280888
-0.057534225 -0.046258792 -0.046547823 0.014288619 0.016166145 -0.09882911 0.030497223 -0.029752225
0.047935173 -0.041164972 -0.0325982 0.08372739 -0.052352197 -0.012528758 0.06896427 0.056107774
0.0056867157 0.008232718 -0.06243764 0.024928812 0.060652997 0.01122278 -0.1019335 -0.088516384
0.010600105 -0.04143453 0.036976714 0.013672955 0.15944958 -0.028280111 0.05327347 -0.12124278

network.6.bias f4 [64]
00000000: 33df 203d 13ee a53d 049a c33e d05f adbd
00000010: 7811 a23e d4a7 2b3d 0b3e f83d 15f0 8a3e
00000020: 5667 07bc 54dd cbbc 21a2 b8bc 7dca 97bd
00000030: 892e 033f df63 9d3d adb8 1a3e fb52 443f
00000040: e55d 883e f74e c93d fe9c 443e 6bc1 abbd
00000050: c126 583f 615f 6b3c 4e94 f43e 68fd 473f
00000060: 15b5 7b3e e5f5 013e 77da 1e3f 8b58 33bd
00000070: 561b babd 93a9 cabc 7e74 3f3f bcc8 8e3e
00000080: b9df 783f 632b cb3e 862f 843e dd88 943e
00000090: 0293 6d3e 32d0 463e b512 ed3d b1eb 96bd
000000a0: 3526 083f 1471 6c3e 98e3 423f 833f 263e
000000b0: 4198 4b3e c691 64bd fd25 07be 237e c7bd
000000c0: 207f f83d eecb ec3d 9b14 38be 53f6 3b3e
000000d0: 0b36 4dbd d50f 013e 7375 0e3f 23c6 9f3f
000000e0: 9cdf a03f 4d07 a83e 5436 093e ee4d ef3e
000000f0: fddc 063e cbc2 dabc 7d4e 883d 7309 8c3f
0.03927536 0.0810205 0.38203442 -0.084655404 0.31653953 0.0419081 0.12121209 0.27136293
-0.008264383 -0.02488581 -0.022538247 -0.074116684 0.5124288 0.076850645 0.1510951 0.7668912
0.26634136 0.098295145 0.19200513 -0.08386501 0.84434134 0.014366002 0.47769397 0.7812104
0.24580796 0.12691458 0.620521 -0.043785613 -0.09087245 -0.024739062 0.7478713 0.27887523
0.97216374 0.3968154 0.25817508 0.29010668 0.2320061 0.19415358 0.11575834 -0.07369173
0.531833 0.23090011 0.7612853 0.16235165 0.19882299 -0.055803083 -0.13198085 -0.097408555
0.12133622 0.11562334 -0.1797661 0.18355684 -0.050100368 0.12603696 0.55647963 1.2482342
1.256824 0.3281807 0.13399631 0.46739143 0.13170238 -0.026704213 0.066555955 1.0940384

final.weight f4 [10, 768]
00000000: 9135 5fbd 8ef9 023e b2c1 583d a368 76bd
00000010: 4842 2cbc 0538 ddbc c267 4d3c 75fa d03b
00000020: f564 20bd c908 bfbc cc9d 88bd 0a6d 293d
00000030: fde9 56bd b68d 4a3d 0e06 b5bd 2652 1cbd
00000040: 487e 78bd c0c6 2dbe 3cf7 d9bd 0828 e7bd
00000050: d309 083d dc57 07bc 1ce3 44be 23f3 20be
00000060: 856d 853e 6702 01bd 669c 81be bc16 22bd
00000070: 3952 123c 6260 b13d a1d3 313e 282d 03be
00000080: 535c f9bd 0d40 d9bc 6b99 613e f39b 3d3d
00000090: 913c b8bc f2d0 3f3c b4da b4bc c861 fbbb
000000a0: 092d 12bd e9d5 02bd 51d4 35bd 0129 d7bc
000000b0: 9e31 d63c 220c f3bc 1e20 2b3d ed63 dd3c
000000c0: 5f52 da3d dad8 1a3e 6b7f b0bd ed9d ae3c
000000d0: 3c82 313e 3533 dc3d df5a 6c3e 6b43 643c
000000e0: c140 d9be 1899 48bd eec8 833f 61fc 7c3e
000000f0: 6a6c 70be 0e23 97be db80 cbbe 50fa 48bd
00000100: 026f c8bd 2797 b6bd 6311 47be e27a e9bd
00000110: d1c0 62bd 2c28 183e 63de 993d eca9 a7be
00000120: 7017 153c d2b7 95bc 1f40 b23a 7414 07be
00000130: 4dcd a83c 8dcc 9e3c bb23 ca3c 6025 b3bc
00000140: 6c38 57bd 0036 a2bd 888b 033d bd31 bbbd
00000150: 490d a33e e2bb 713e 2b3c dc3d 36a7 673c
00000160: 2180 403e ae70 813e 4fb5 96bd b305 84be
00000170: 7511 b1be 119a 64be 3dc3 71be 7a6f b43b
00000180: 6011 93bb e6b8 c43d 6878 ddbc 9819 51bc
00000190: 660e 2bbc 207a 213c c44d 1f3d f1fe c43c
000001a0: 60c1 f63c 99b9 ff3d c1c1 8b3d 06d5 053d
000001b0: 51d0 d8bc e491 aebd b762 36be da35 13be
000001c0: 9ce9 25be bb79 20be 18b8 303e d0e6 dc3d
000001d0: cbe6 4ebd 9b39 5cbe 6807 11be 3f9c a3bd
000001e0: 90c3 4bbe 83d6 a4bd ce30 82be ea69 06bf
000001f0: 8a9b a0bd 0bbb 29bb 4981 063e 344f ee3b
00000200: 6444 973d f706 a13d fd8c 533d 1ce3 a1be
00000210: 7719 64be 2378 6bbe 54df 663f b65b 993e
00000220: d0db d23e 71a1 403d 71d8 323e eeb0 f53e
00000230: 011c 463e 8305 8abe 1e5b 25bd 028c 053e
00000240: d188 953d db44 673e b7cc 9bbd c77d 76bc
00000250: 04d7 f73b 7096 303e 2fb8 d6bd 3fc2 30bc
00000260: cdeb ebbd fbba 28be f348 75bd eb77 183e
00000270: a63c 403e 0040 56be eb52 533e dea4 c83d
00000280: ba27 1e3e bff7 00be e90f b8bd 34eb 6d3d
00000290: 2ac6 82be 9aec d23e fa31 5c3e 9272 933d
000002a0: f88e 243e 8d5d 803d 116e 7abd 1d76 103d
000002b0: 8b32 0bbe 7ed9 213d dc86 163e c1a0 30be
000002c0: 2429 a9be dadc f9bd 31b2 633b 9d75 c73d
000002d0: fcaf 87be 71d3 fb3e ab89 fc3d 25d2 4bbe
000002e0: a9f7 24be b922 71be 3f71 9c3d 7ff6 d43e
000002f0: fc2a 91be 3054 cebe 2d43 18bf d6e7 2ebe
00000300: 73e2 5e3c 7cfd 5e3d 2356 22be 405a 95bc
00000310: a0e6 bf3b 2a5e 0dbd 602c 373d 4504 133e
00000320: 4455 d2be ae72 8bbd 9cdf b43e 5edc c1be
00000330: 3a08 5ebd 6335 eabd 4f3d 9abd cd1a 1b3d
00000340: 1fb7 043e 26ef ce3d a782 63bc 4124 4f3e
00000350: 696c dcbd 35d0 393e 4765 143e 1b7a 05be
00000360: 9224 693e b110 803e a82c f4bd 1b81 39bc
00000370: ec11 0f3e 6054 843d 9f06 c53d 4878 0abe
00000380: 1aca bbbe d8e9 25be 158e fa3c b50f 973e
00000390: 4153 1e3e 4809 8b3c 355b 5abd e33b 05be
000003a0: 9ee2 a439 ab6d 97bd 3570 bc3d ecda a13c
000003b0: 72b8 113b 994a 143d ee71 033e 2005 113e
000003c0: 4a11 71be d622 edbd 74cf 70bd 3757 973d
000003d0: 2961 703e d4bd 773e a3e7 b9bd 6df3 563e
000003e0: 8e17 253f 6dd1 9e3e 834a 903d e180 a2bc
000003f0: 2b4b 29bd 0b2d b3bd cf36 173d 7e0a 813e
-0.054494444 0.1279051 0.052919097 -0.060158383 -0.01051385 -0.027004251 0.012536945 0.006377513
-0.03915878 -0.023319619 -0.06670722 0.041363753 -0.052469242 0.049451552 -0.088390455 -0.03816428
-0.060667306 -0.16970348 -0.10642859 -0.11286932 0.033212494 -0.008260693 -0.1922726 -0.1571775
0.2606012 -0.03149643 -0.25314635 -0.039572462 0.008930736 0.08660962 0.17365886 -0.12810194
-0.121758126 -0.0265198 0.2203118 0.046291303 -0.022489818 0.011707531 -0.022076942 -0.0076715685
-0.03568748 -0.031942282 -0.044391934 -0.02626467 0.026146706 -0.029668871 0.041778676 0.027025187
0.10660242 0.15121785 -0.08618053 0.02131554 0.17334837 0.107519545 0.2308154 0.013932089
-0.42432216 -0.048974127 1.0295694 0.2470565 -0.23478857 -0.29518932 -0.39746746 -0.04906684
-0.09786798 -0.08915549 -0.19440226 -0.11400391 -0.055359665 0.14859074 0.0751312 -0.32746828
0.009099826 -0.018276129 0.0013599432 -0.13191396 0.020605708 0.019384647 0.02467524 -0.021868408
-0.052544042 -0.07920456 0.03211549 -0.09140346 0.31846073 0.23606828 0.10753664 0.014138987
0.18798877 0.2528128 -0.073588006 -0.25785598 -0.3458363 -0.22324397 -0.23609634 0.005506453
-0.0044881552 0.09605579 -0.027034953 -0.01276245 -0.010440445 0.009855777 0.038892522 0.024047347
0.030121505 0.12486572 0.06824065 0.032673858 -0.02646652 -0.0852392 -0.17811094 -0.14376011
-0.16202396 -0.15671436 0.17257726 0.107862115 -0.05051307 -0.2150635 -0.14162982 -0.07988786
-0.1989882 -0.08048727 -0.2542786 -0.5250536 -0.07842167 -0.002589884 0.13135256 0.0072726253
0.07386091 0.078626566 0.05164813 -0.31618583 -0.22275339 -0.22995047 0.9018452 0.29952782
0.4118333 0.047028963 0.17465378 0.4798655 0.1934662 -0.2695733 -0.0403701 0.1304169
0.07301486 0.2258486 -0.07607406 -0.015044636 0.0075634737 0.17244887 -0.10484349 -0.010788499
-0.11519585 -0.16477577 -0.059884023 0.14889495 0.18773136 -0.20922852 0.206371 0.09797071
0.15444842 -0.12594508 -0.089874096 0.058085635 -0.25541812 0.41196138 0.2150344 0.07199587
0.16070163 0.062678434 -0.061140124 0.03526889 -0.135935 0.039514057 0.14699882 -0.17248823
-0.330392 -0.12200327 0.0034743662 0.0973923 -0.26501453 0.49184754 0.123309456 -0.19904383
-0.161101 -0.23548402 0.076387875 0.41594312 -0.28353107 -0.40298605 -0.594775 -0.17080626
0.013603794 0.05444096 -0.15853171 -0.018231511 0.00585635 -0.03451363 0.044720054 0.14357097
-0.41080678 -0.06808983 0.3532685 -0.3786344 -0.054207064 -0.11435964 -0.07531225 0.037867356
0.1296048 0.10104208 -0.01388613 0.20228674 -0.10762865 0.18145831 0.14491759 -0.13034861
0.22767857 0.25012735 -0.1192258 -0.011322285 0.1397168 0.06461406 0.096204035 -0.13522446
-0.3667763 -0.16202486 0.030585328 0.2950417 0.15461446 0.0169722 -0.053309638 -0.13011126
0.0003144936 -0.073939644 0.09201089 0.01975771 0.0022235182 0.036203954 0.1283643 0.14162111
-0.23541752 -0.1157891 -0.058791593 0.07389682 0.23474564 0.24193507 -0.09077384 0.20991297
0.64489067 0.31019154 0.07045462 -0.019836845 -0.04133145 -0.08748826 0.036917504 0.25203317

final.bias f4 [10]
00000000: 3816 e73c ed36 adbc d82f 253c eedf c9bc
00000010: f408 04bd 4ec8 9d3c 2403 4abc b070 a93b
00000020: 4041 59bb 0c23 893c
0.028208837 -0.021144355 0.010082208 -0.02464291 -0.0322351 0.019260552 -0.01232985 0.005170904
-0.0033150464 0.016740344
