ckpt/causalcnn_pretrain_epoch10.pt (torch, 363394 bytes, 10 tensors)

network.0.weight f4 [64, 18, 3]
-0.13212736 0.04810486 -0.14715652 0.0803375 -0.024177004 0.07198962 -0.08655123 0.049328003
-0.12626205 -0.14397301 -0.14604884 0.034976456 -0.026718426 -0.07451298 0.111148484 -0.13472031
-0.060957953 0.04442706 0.076849386 -0.029945761 -0.1176376 0.0032250541 0.0033401232 -0.06110117
-0.091250606 -0.11417473 -0.09040503 -0.021337429 0.057853427 -0.0066537256 4.785252e-05 -0.04483682
-0.08438973 0.032147076 0.024355158 -0.017791688 -0.011162458 -0.032177072 -0.06905257 0.022036657
-0.12866977 0.0038041621 -0.032240808 0.024512663 -0.057409428 -0.020415172 0.01773581 0.12925622
0.10233806 -0.07161881 0.06882176 -0.03070105 0.07546312 0.0042739874 -0.05209613 0.036557868
0.028490558 -0.07543064 0.029527664 -0.020988546 -0.06951901 0.056374386 0.07247093 -0.0509066
-0.09865783 0.009595886 0.048507795 0.048355535 0.1293813 -0.13551691 -0.06818641 0.067288175
0.12018958 0.068229586 0.036391616 -0.051578753 -0.09288958 0.08278781 0.06141253 0.11715475
0.12677705 -0.0128157735 0.103716135 -0.0029325932 -0.089057505 -0.03583063 0.07233128 0.00661771
-0.030899614 -0.07938715 -0.11929574 -0.07733123 -0.1359291 -0.10898385 0.05030778 -0.08854704
-0.090847254 -0.10770604 -0.079735026 -0.0004194826 0.025660872 0.12785885 -0.037034042 -0.006263703
0.08143678 -0.05901087 0.021245688 -0.047152087 -0.11193851 -0.008643704 -0.17965773 0.04462247
0.056769766 -0.0070956326 -0.15689398 0.020871386 0.046971958 -0.047025826 -0.01833016 0.008861095
-0.04803504 -0.11015295 0.107383676 -0.042869892 -0.14521573 0.003032547 0.087616116 -0.12868464
-0.05389367 0.021774294 0.07924678 0.09394062 0.021923881 -0.11641787 -0.03155484 0.095832735
-0.0029210907 -0.10802861 -0.18818983 -0.09410603 -0.14002007 -0.19492571 -0.011123793 -0.10799471
-0.06993235 0.02487053 0.09436956 -0.10450599 -0.124324486 -0.0687042 0.16331667 0.06874113
0.003599414 -0.17549367 -0.16805167 -0.12332981 -0.062276274 -0.007813485 0.016741477 -0.106370755
0.024165783 -0.008629957 0.062349785 -0.07384613 0.09881135 0.038715355 -0.10212647 0.111752786
-0.14869191 -0.0135849845 -0.005030055 -0.0606727 0.042147048 -0.15875186 -0.18561497 0.07415048
-0.085929625 -0.20558418 -0.118807 0.024633095 0.051427588 0.034317836 -0.1027408 -0.11171952
-0.08854714 -0.10991507 0.015450134 0.011128133 0.04570043 -0.1986875 -0.049987268 -0.061124485
-0.058527257 0.020732492 0.02183341 -0.08962404 -0.14462677 0.0731591 0.0558045 0.050586008
-0.08895588 -0.17176826 -0.006197153 0.010767903 -0.11441517 -0.015739938 0.04242492 -0.13148731
-0.09154975 -0.11128313 -0.12716281 0.05749453 0.09573022 -0.04042846 -0.011890679 -0.04724423
0.015942974 -0.10745907 0.07520722 -0.08740111 -0.0446931 0.014948015 0.051183335 0.09414239
-0.11568252 -0.14522539 -0.11028479 0.087804124 -0.07794788 -0.13261223 -0.08822427 -0.08085735
0.050930582 -0.00825418 0.12306236 0.056220565 0.1965894 0.05279715 0.008061598 0.03674604
0.09895692 0.10082357 -0.1510065 0.043777317 0.07523679 0.00061156414 -0.12936273 0.051413532
0.07133569 0.050424885 -0.08456099 -0.19319232 -0.035532255 -0.051899977 -0.1609483 0.10143244
00000000: 654c 07be 9a09 453d 33b0 16be fd87 a43d
00000010: da0e c6bc 4b6f 933d c541 b1bd 290c 4a3d
00000020: d74a 01be a96d 13be d48d 15be 7943 0f3d
00000030: 9ae0 dabc 439a 98bd d1a1 e33d 1ff4 09be
00000040: 0caf 79bd 26f9 353d 3663 9d3d d050 f5bc
00000050: fbeb f0bd 6e5b 533b f8e5 5a3b 3845 7abd
00000060: 99e1 babd 71d4 e9bd 4626 b9bd d5cb aebc
00000070: b7f7 6c3d 7f07 dabb 41b5 4838 d0a6 37bd
00000080: 86d4 acbd a7ac 033d 7884 c73c e0bf 91bc
00000090: bee2 36bc 1bcc 03bd 6f6b 8dbd 3886 b43c
000000a0: 02c2 03be 404f 793b f00e 04bd c8ce c83c
000000b0: 2626 6bbd b83d a7bc b04a 913c be5b 043e
000000c0: 9e96 d13d e2ac 92bd 6cf2 8c3d c580 fbbc
000000d0: 698c 9a3d ce0c 8c3b c062 55bd b4bd 153d
000000e0: 0865 e93c 617b 9abd 00e4 f13c 2cf0 abbc
000000f0: fc5f 8ebd d4e8 663d a46b 943d 7083 50bd
00000100: 1e0d cabd 1038 1d3c 1cb0 463d 7410 463d
00000110: 887c 043e f2c4 0abe 51a5 8bbd 62ce 893d
00000120: f425 f63d f4bb 8b3d 600f 153d 3e44 53bd
00000130: e43c bebd a88c a93d b48b 7b3d d4ee ef3d
00000140: d8d1 013e 40f9 51bc 2069 d43d c030 40bb
00000150: c863 b6bd 24c3 12bd 6c22 943d 60d9 d83b
00000160: 3021 fdbc bb95 a2bd 5351 f4bd d65f 9ebd
00000170: ff30 0bbe ed32 dfbd 880f 4e3d 2758 b5bd
00000180: 200e babd fc94 dcbd 1e4c a3bd 00ee dbb9
00000190: c036 d23c 6eed 023e 02b1 17bd c03f cdbb
000001a0: 54c8 a63d 62b5 71bd 700b ae3c 8c22 41bd
000001b0: 0440 e5bd 529e 0dbc 32f8 37be 0dc6 363d
000001c0: 6a87 683d 7b82 e8bb d1a8 20be 78fa aa3c
000001d0: ab65 403d 279e 40bd 2229 96bc 202e 113c
000001e0: 64c0 44bd df97 e1bd f9eb db3d 5798 2fbd
000001f0: 6fb3 14be b2bd 463b 1470 b33d e8c5 03be
00000200: 9cbf 5cbd 0160 b23c 234c a23d f163 c03d
00000210: b699 b33c 7e6c eebd a63f 01bd f443 c43d
00000220: c56f 3fbb 1b3e ddbd d6b4 40be aaba c0bd
00000230: 6c61 0fbe 9b9a 47be 9240 36bc 552c ddbd
00000240: b138 8fbd 48bd cb3c d444 c13d 3d07 d6bd
00000250: d69d febd cab4 8cbd 7c3c 273e 26c8 8c3d
00000260: 25e4 6b3b 9db4 33be bd15 2cbe 5794 fcbd
00000270: 6815 7fbd 2204 00bc 6c25 893c e9d8 d9bd
00000280: 52f7 c53c aa64 0dbc 7d62 7f3d a43c 97bd
00000290: 9b5d ca3d fe93 1e3d af27 d1bd a5de e43d
000002a0: b142 18be 8e93 5ebc 29d3 a4bb f083 78bd
000002b0: 62a2 2c3d d98f 22be da11 3ebe 35dc 973d
000002c0: dffb afbd a984 52be 1651 f3bd 58cb c93c
000002d0: bca5 523d dc90 0c3d c569 d2bd 34cd e4bd
000002e0: 3458 b5bd 271b e1bd 8f22 7d3c c652 363c
000002f0: 6030 3b3d bc74 4bbe 73bf 4cbd ab5d 7abd
00000300: 47ba 6fbd 30d7 a93c fbdb b23c cf8c b7bd
00000310: 0a19 14be 70d4 953d 4293 643d 4633 4f3d
00000320: 802e b6bd 05e4 2fbe 7d11 cbbb dc6b 303c
00000330: 8052 eabd 0bf1 80bc c1c5 2d3d 9ca4 06be
00000340: 6f7e bbbd 69e8 e3bd f836 02be 627f 6b3d
00000350: 350e c43d 5098 25bd 1fd1 42bc 2a83 41bd
00000360: d79a 823c 8013 dcbd 3e06 9a3d 5aff b2bd
00000370: 1d10 37bd 85e8 743c 9ea5 513d bacd c03d
00000380: f5ea ecbd f7b5 14be fedc e1bd a6d2 b33d
00000390: 23a3 9fbd 80cb 07be edae b4bd 8a98 a5bd
000003a0: 969c 503d 8a3c 07bc 1e08 fc3d 8947 663d
000003b0: bb4e 493e d341 583d cb14 043c 0483 163d
000003c0: eda9 ca3d 967c ce3d 73a1 1abe d84f 333d
000003d0: bf15 9a3d 6051 203a aa77 04be ff96 523d
000003e0: 7218 923d 538a 4e3d 502e adbd 35d4 45be
000003f0: 458a 11bd 1295 54bd a2cf 24be d0bb cf3d

network.0.bias f4 [64]
-0.103971764 -0.073159546 -0.081474595 -0.05295029 0.0132497065 0.009411623 -0.11321432 -0.04766671
-0.03379104 -0.04585856 0.071383744 -0.15457566 0.08336089 -0.08225976 -0.029724851 0.03440133
-0.08855882 0.22752132 0.047745448 -0.19087088 0.07393573 -0.17192636 0.053078145 -0.00806318
-0.19959337 -0.042132508 -0.19840798 -0.023947306 0.13983369 0.019347042 -0.13605279 -0.1246799
0.076211505 -0.15893587 0.06953455 -0.07939309 0.16165733 0.05296556 1.0600291 0.0879338
-0.12003686 0.0431135 -0.15990746 -0.0316769 -0.06431698 0.06803215 0.05189477 -0.04700431
-0.10402164 -0.054197982 0.2392308 -0.02867454 0.07533949 0.28185412 -0.044415906 -0.011728176
-0.15146273 -0.062334068 -0.17555638 0.24996157 -0.088634685 0.28433657 0.06101374 -0.122340426
00000000: 26ef d4bd acd4 95bd 27dc a6bd 67e2 58bd
00000010: 4c15 593c 3533 1a3c e9dc e7bd 2b3e 43bd
00000020: 7968 0abd 2fd6 3bbd a431 923d 1549 1ebe
00000030: 1db9 aa3d ce77 a8bd 8881 f3bc 69e8 0c3d
00000040: 545e b5bd 59fb 683e bb90 433d a873 43be
00000050: 9e6b 973d 770d 30be 7868 593d 6e1b 04bc
00000060: 3462 4cbe 2393 2cbd 762b 4bbe 242d c4bc
00000070: 9030 0f3e b07d 9e3c 6c51 0bbe 2d58 ffbd
00000080: c714 9c3d 16c0 22be 2168 8e3d d898 a2bd
00000090: 8089 253e 6af2 583d 09af 873f a316 b43d
000000a0: e3d5 f5bd c897 303d c8be 23be a3bf 01bd
000000b0: 9fb8 83bd 7154 8b3d 9c8f 543d 9787 40bd
000000c0: 4c09 d5bd b4fe 5dbd ebf8 743e dee6 eabc
000000d0: 974b 9a3d 2f4f 903e 74ed 35bd 8927 40bc
000000e0: 0c19 1bbe 0252 7fbd 0dc5 33be edf5 7f3e
000000f0: 1a86 b5bd 9094 913e 8be9 793d 9e8d fabd

network.2.weight f4 [64, 64, 3]
0.067094654 0.07078317 -0.031332746 -0.0031923428 -0.05201371 -0.06697851 -0.04623094 -0.055845343
0.031238206 -0.0011756493 -0.048599686 -0.04678287 0.049553208 0.06033097 0.021565521 0.006462775
0.04463565 -0.02068925 -0.06336997 -0.07729388 -0.06759936 0.0467347 -0.06542972 -0.03754138
-0.035392873 -0.02706452 0.0663444 -0.09231502 -0.028121643 -0.10974825 0.02712367 -0.19116946
0.0046625403 0.10927828 -0.10241367 -0.031559426 0.059889723 0.00045315054 -0.067249596 -0.053377762
-0.039955836 0.06833441 -0.14748572 -0.034391996 -0.007466925 -0.00097134826 0.009244629 -0.007035585
0.12738559 -0.13466954 0.019385165 0.06949394 0.0036228846 -0.049083035 0.0071625854 -0.04709527
-0.22373423 -0.03346666 0.07979153 -0.009796542 -0.039872114 -0.034993093 0.027480261 0.022874912
-0.028355252 0.033479534 -0.037861034 -0.09304666 0.042041283 -0.28542808 -0.14537841 -0.043997217
0.045906592 0.028993659 -0.040681254 -0.14189516 0.017939905 0.06611469 0.12836494 -0.024437202
-0.073801234 -0.052466147 0.016282767 -0.06646516 0.09716533 -0.049467877 0.06632905 0.019946001
-0.015421864 -0.040339056 -0.0830378 0.046914596 -0.04534999 0.27410105 0.12942046 0.1569631
-0.043604385 0.006819549 -0.018184867 -0.048578072 -0.026286533 -0.059223745 -0.26597843 -0.0062341997
0.036136452 0.15823638 -0.14247288 -0.109193265 -0.4942047 0.3133812 -0.010106013 0.15065664
0.022076882 0.048804983 -0.22246397 -0.20251577 -0.05329993 -0.054043055 0.0008173095 0.017974528
0.0023688842 0.031123053 0.20310083 0.14324604 -0.034544464 -0.06731777 -0.062003095 -0.022216504
-0.023667695 -0.0016291786 -0.008569897 -0.06386259 0.32490066 -0.15644981 0.030388752 0.12448735
-0.14733012 -0.04477584 0.00490947 -0.04167872 -0.056773156 0.048947364 0.018276647 -0.04291853
0.013456339 -0.01732912 0.062040642 -0.050374124 -0.05997614 0.06428975 -0.021964164 -0.075514086
-0.12047811 0.07294867 0.07215023 -0.02066126 0.17647493 -0.20841989 0.09886791 -0.2050982
-0.13335404 -0.08213658 -0.013999662 0.024395768 0.030021157 0.18089078 -0.0055348515 -0.014563864
0.026523137 0.06421676 -0.0077538714 0.10189611 -0.005586138 -0.03329548 0.024267761 -0.054077122
-0.11553358 -0.0037016463 -0.07049151 -0.05716655 -0.08752793 -0.041420393 0.013512098 0.076646134
-0.14940858 -0.04297188 0.23280197 0.14950058 0.103311114 0.038984396 -0.019966913 -0.07240482
0.07005216 0.026410922 -0.06350907 0.064738855 -0.0015848055 -0.039985586 0.045469526 -0.048085906
-0.066444464 0.04323157 -0.011025423 -0.047828384 -0.033978682 0.05218332 0.06423095 -0.06062879
-0.06660282 -0.1319068 0.02671481 -0.088870026 -0.013992316 -0.063429445 -0.028229544 -0.13033594
-0.021647735 -0.046842474 0.00084234535 -0.06935845 -0.065492585 0.029683765 0.00113507 -0.025694856
-0.08548017 -0.100625694 0.008837736 0.01789316 -0.02272603 -0.107649684 0.029653527 -0.08361775
-0.057958398 -0.036890928 0.0065004816 0.32902047 -0.2406264 -0.0065609836 0.0026711025 -0.0045323917
0.5921685 0.3821473 0.023500046 0.0325784 -0.0319919 -0.13996375 -0.029276514 -0.034869526
0.047377292 -0.0024827563 0.017545773 0.007130175 0.0042279293 0.014540833 0.07568505 -0.021562971
00000000: ec68 893d c4f6 903d c456 00bd a036 51bb
00000010: 540c 55bd 072c 89bd a75c 3dbd 16be 64bd
00000020: 44e7 ff3c 3f18 9aba 7710 47bd 659f 3fbd
00000030: 4ef8 4a3d 9b1d 773d 2daa b03c b0c5 d33b
00000040: dfd3 363d 817c a9bc 1dc8 81bd 414c 9ebd
00000050: 8971 8abd e36c 3f3d 0400 86bd fdc4 19bd
00000060: 1ef8 10bd 6ab6 ddbc 93df 873d a80f bdbd
00000070: 5c5f e6bc b1c3 e0bd 7532 de3c edc1 43be
00000080: 39c8 983b 4acd df3d 42be d1bd 7544 01bd
00000090: ed4e 753d d694 ed39 28ba 89bd a4a2 5abd
000000a0: bba8 23bd e9f2 8b3d 7f06 17be 9fde 0cbd
000000b0: 1bad f4bb 14a2 7eba c976 173c c48a e6bb
000000c0: 5e71 023e d0e6 09be a3cd 9e3c d752 8e3d
000000d0: eb6d 6d3b 4b0b 49bd 1fb4 ea3b f8e6 40bd
000000e0: 961a 65be 5614 09bd be69 a33d ad81 20bc
000000f0: f150 23bd eb54 0fbd 491e e13c 2b64 bb3c
00000100: 4649 e8bc d621 093d 2c14 1bbd 3f8f bebd
00000110: 7b33 2c3d a123 92be 14de 14be 6d36 34bd
00000120: 8d08 3c3d 1c84 ed3c 63a1 26bd f74c 11be
00000130: b5f6 923c 2367 873d 1972 033e 8730 c8bc
00000140: 1a25 97bd bee6 56bd 7063 853c e31e 88bd
00000150: 9efe c63d d49e 4abd 86d7 873d cc65 a33c
00000160: fcab 7cbc 913a 25bd b90f aabd 8529 403d
00000170: e9c0 39bd f956 8c3e cc86 043e efba 203e
00000180: 839a 32bd 8676 df3b 6ef8 94bc cdf9 46bd
00000190: db56 d7bc 9994 72bd 532e 88be 4248 ccbb
000001a0: d103 143d b808 223e 69e4 11be b8a0 dfbd
000001b0: 6608 fdbe 8073 a03e b193 25bc bc45 1a3e
000001c0: 94da b43c bce7 473d 98cd 63be 4b60 4fbe
000001d0: 0751 5abd 405c 5dbd b640 563a 513f 933c
000001e0: 483f 1b3b c6f5 fe3c aaf9 4f3e 17af 123e
000001f0: 7f7e 0dbd e6dd 89bd f5f6 7dbd 63ff b5bc
00000200: c1e2 c1bc 2a8a d5ba c168 0cbc 64ca 82bd
00000210: 6159 a63e 6134 20be d5f1 f83c 39f3 fe3d
00000220: b5dd 16be df66 37bd 9fdf a03b 4eb7 2abd
00000230: f88a 68bd 087d 483d e8b8 953c 57cb 2fbd
00000240: fa77 5c3c ccf5 8dbc 541e 7e3d 1955 4ebd
00000250: 8aa9 75bd 58aa 833d 31ee b3bc 21a7 9abd
00000260: 3abd f6bd 1d66 953d 80c3 933d cd41 a9bc
00000270: d8b5 343e 066c 55be 427b ca3d 4305 52be
00000280: f68d 08be 3937 a8bd d75e 65bc a2d9 c73c
00000290: eeee f53c 6f3b 393e b35d b5bb 469d 6ebc
000002a0: 0d47 d93c 1484 833d 3014 febb e8ae d03d
000002b0: ec0b b7bb d760 08bd 2fcd c63c f97f 5dbd
000002c0: df9c ecbd 5297 72bb da5d 90bd 7927 6abd
000002d0: d841 b3bd 6ea8 29bd d961 5d3c a6f8 9c3d
000002e0: 90fe 18be 4803 30bd a463 6e3e ae16 193e
000002f0: c794 d33d 1aae 1f3d a791 a3bc fa48 94bd
00000300: 8277 8f3d b85b d83c 0b11 82bd ce95 843d
00000310: 40b9 cfba edc7 23bd 413e 3a3d baf5 44bd
00000320: 0914 88bd 9613 313d faa3 34bc b2e7 43bd
00000330: 3b2d 0bbd 2dbe 553d 848b 833d e555 78bd
00000340: 0f67 88bd 9412 07be 04d9 da3c 7d01 b6bd
00000350: 0740 65bc 4ce7 81bd a541 e7bc c976 05be
00000360: 9756 b1bc e5dd 3fbd d7d0 5c3a ce0b 8ebd
00000370: fa20 86bd 5e2b f33c a1c6 943a 057e d2bc
00000380: 3a10 afbd d814 cebd 27cc 103c ad94 923c
00000390: f02b babc 7077 dcbd f4eb f23c c83f abbd
000003a0: c965 6dbd f11a 17bd fe01 d53b 5f75 a83e
000003b0: c466 76be 85fd d6bb aa0d 2f3b 7584 94bb
000003c0: 5b98 173f d0a8 c33e 2b83 c03c ee70 053d
000003d0: f009 03bd a852 0fbe 4dd5 efbc 59d3 0ebd
000003e0: b10e 423d bdb5 22bb 27bc 8f3c 3ea4 e93b
000003f0: 718a 8a3b ad3c 6e3c c300 9b3d d4a4 b0bc

network.2.bias f4 [64]
0.0021142687 0.09924448 0.5050577 -0.10989006 -0.09508724 0.005645992 -0.06252646 -0.019722834
-0.05771077 -0.097847104 -0.16109021 -0.111689284 0.3943601 0.17448078 0.08241393 0.40589875
0.24020961 -0.015731934 -0.06987444 -0.062176686 -0.14298455 -0.21857084 0.122314766 -0.019462839
-0.15401675 -0.25016952 -0.3586249 -0.029184693 -0.062872976 -2.4870213e-05 0.13378291 -0.19062127
0.07484067 0.18765214 0.3580195 -0.09773689 0.16614924 -0.057246704 -0.12414948 0.22102244
-0.05830324 -0.08623575 0.19058058 0.055658787 -0.08807172 -0.09188237 -0.05607043 -0.13647977
0.5212701 -0.04690214 0.12888353 -0.082542315 0.1091958 0.41909033 0.22271317 -0.09623665
-0.010038368 -0.20011687 -0.1909952 -0.015587305 -0.04839721 -0.03217933 0.42241004 -0.14131029
00000000: 8b8f 0a3b b140 cb3d 764b 013f 0a0e e1bd
00000010: 19bd c2bd 0302 b93b df0d 80bd c891 a1bc
00000020: 2162 6cbd 1064 c8bd d5f4 24be 5abd e4bd
00000030: 91e9 c93e 17ab 323e a2c8 a83d f6d1 cf3e
00000040: 82f9 753e 42e0 80bc 551a 8fbd fbac 7ebd
00000050: 8b6a 12be 09d1 5fbe 2a80 fa3d 8870 9fbc
00000060: 91b6 1dbe 3816 80be af9d b7be bd14 efbc
00000070: 8cc3 80bd 60a0 d0b7 63fe 083e 3932 43be
00000080: 1146 993d e227 403e 554e b73e 472a c8bd
00000090: 0723 2a3e 857b 6abd 1542 febd b553 623e
000000a0: 61cf 6ebd 5e9c b0bd 8e27 433e 78fa 633d
000000b0: f25e b4bd d32c bcbd 1baa 65bd 5ac1 0bbe
000000c0: f571 053f 751c 40bd 0bfa 033e f20b a9bd
000000d0: 0ca2 df3d 0293 d63e ec0e 643e b917 c5bd
000000e0: f877 24bc 70eb 4cbe 3f94 43be e561 7fbc
000000f0: 273c 46bd 79ce 03bd 2146 d83e a5b3 10be

network.4.weight f4 [64, 64, 3]
0.11113959 -0.045702428 0.17915578 0.07573056 0.20232281 0.004649808 -0.12984827 -0.21477634
-0.06621069 -0.0291724 0.01308072 -0.15131158 -0.056938335 -0.084357776 -0.09064798 0.14569029
0.10986397 0.0012186364 -0.09169522 -0.035328142 0.06072699 0.052975077 0.047549404 -0.08933966
0.018718978 0.028959187 -0.21221337 0.010561031 -0.024751171 0.0052880147 -0.0037046198 0.099370494
-0.0027052313 0.012600137 0.0032157307 -0.010991556 0.3467171 0.107662834 0.01918818 -0.035273667
0.12923504 0.09863178 0.02694663 -0.021490043 0.013323033 -0.16196352 -0.017046714 -0.062496092
-0.25668293 0.047448568 -0.14355591 -0.015548222 -0.04528303 0.12119438 0.041429304 0.012672206
0.0012988127 -0.0019992494 0.024629088 -0.08036344 -0.059562065 -0.025490455 0.049576562 -0.061177447
-0.055776056 0.06543601 -0.11189267 -0.07337275 0.07695862 -0.3586931 0.057098716 -0.1707162
-0.0050843097 -0.2545018 0.19961123 -0.37332734 -0.19335166 -0.009651172 -0.047532853 0.08642735
0.019313956 -0.03979118 0.106540345 -0.06504835 0.010787094 0.020421905 -0.011977619 -0.2763719
0.009968651 0.38274437 0.08138345 0.17666839 0.10935748 0.18909144 0.052185677 -0.12290977
-0.07500133 0.16904311 -0.17543621 0.07786835 0.1490326 0.21654591 -0.11885375 -0.03195159
-0.09624252 -0.12609027 0.0376469 -0.29071587 -0.21439369 -0.0015150623 0.003590947 -0.12907855
0.08005646 0.004735419 -0.010533711 0.019966846 0.0754066 0.13734305 -0.015688993 0.19036348
-0.046450473 0.32538298 -0.27032694 0.11288147 0.13503993 -0.11029667 -0.010322545 -0.11715432
-0.015830578 0.032447636 0.033191975 -0.16863202 0.013477824 0.021801587 0.078070104 -0.062320963
0.052544102 0.13154645 -0.17308222 -0.007048895 0.20398284 0.09327319 -0.017454838 0.050528333
-0.07568125 -0.22725911 0.058818005 -0.00037844526 0.10477575 -0.0349108 -0.23786141 -0.06488479
-0.2612762 0.09429751 0.10421225 0.019561972 0.13493986 0.082917966 -0.09009477 0.07192976
-0.12814936 -0.18805507 0.03718573 0.03517913 -0.22368105 0.06526925 0.024472207 0.0018804569
0.22421327 0.08111488 0.066900976 0.13039364 -0.19183394 -0.121661566 -0.0016101741 -0.003860455
-0.05634084 0.10374881 0.25024912 -0.18979047 -0.2719618 0.041531432 0.03670044 0.036332894
0.0014277247 0.0021766827 0.07220311 0.08663217 0.014272535 0.033094015 0.032004923 0.027409043
0.15690257 -0.3007732 0.12845895 -0.1062447 0.16821624 -0.010058401 -0.18501739 -0.4436913
-0.09285468 -0.030748194 0.07964048 -0.06822174 0.14769115 0.060926855 0.062407676 0.04914974
-0.0906632 -0.008613828 -0.014036151 0.08315722 -0.014918413 0.20791277 -0.035437927 0.010619694
-0.007678559 0.019930115 0.031720452 0.010291248 -0.019423267 -0.058609676 0.03327179 0.05536372
0.07228619 0.01889563 0.21650095 0.08668788 0.0074836416 0.08401929 0.050874546 0.19265892
0.44677138 -0.101065755 -0.028719245 -0.04976068 -0.010887049 -0.05577424 -0.16586703 -0.06391409
0.06891965 -0.26690564 0.109280735 0.078898594 0.23285028 0.120657675 -0.024019776 -0.056668617
-0.060745507 -0.035344735 0.0026763107 0.0070444937 -0.041165993 -0.018434234 -0.048614033 0.039706334
00000000: 279d e33d 7832 3bbd 9d74 373e a018 9b3d
00000010: b62d 4f3e 6b5d 983b f2f6 04be 54ee 5bbe
00000020: 7899 87bd f5fa eebc 8450 563c 6cf1 1abe
00000030: 2c38 69bd c5c3 acbd a6a5 b9bd d62f 153e
00000040: 5c00 e13d a7ba 9f3a b4ca bbbd 3eb4 10bd
00000050: ddbc 783d 65fc 583d 2ac3 423d b6f7 b6bd
00000060: 8b58 993c d13b ed3c 764e 59be 2d08 2d3c
00000070: f8c2 cabc 1547 ad3b 35c9 72bb c282 cb3d
00000080: 404a 31bb ce70 4e3c 02bf 523b ed15 34bc
00000090: e784 b13e 557e dc3d 8830 9d3c 1f7b 10bd
000000a0: 3156 043e 75ff c93d 2ebf dc3c e30b b0bc
000000b0: da48 5a3c c4d9 25be 8da5 8bbc e7fb 7fbd
000000c0: f26b 83be 6e59 423d 5200 13be f8bd 7ebc
000000d0: b37a 39bd c234 f83d c6b1 293d 169f 4f3c
000000e0: ec3c aa3a d705 03bb f1c2 c93c 9695 a4bd
000000f0: 5af7 73bd 5cd1 d0bc cb10 4b3d 3495 7abd
00000100: 6f75 64bd 5103 863d fc27 e5bd 7444 96bd
00000110: 7b9c 9d3d 9fa6 b7be 58e0 693d 3ad0 2ebe
00000120: 489a a6bb 0f4e 82be e366 4c3e c324 bfbe
00000130: fafd 45be f31f 1ebc cfb1 42bd d300 b13d
00000140: 4d38 9e3c 14fc 22bd d331 da3d 1238 85bd
00000150: 5abc 303c d74b a73c c63d 44bc 9e80 8dbe
00000160: 8e53 233c 12f7 c33e 5eac a63d 8fe8 343e
00000170: d1f6 df3d 30a1 413e a6c0 553d 1eb8 fbbd
00000180: 4c9a 99bd a319 2d3e 8da5 33be 7179 9f3d
00000190: 009c 183e 36be 5d3e 9869 f3bd acdf 02bd
000001a0: cc1a c5bd cf1d 01be a333 1a3d b6d8 94be
000001b0: 058a 5bbe 0e95 c6ba 1856 6b3b 2b2d 04be
000001c0: a4f4 a33d 932b 9b3b 9695 2cbc 8391 a33c
000001d0: c76e 9a3d a8a3 0c3e 3486 80bc a5ee 423e
000001e0: da42 3ebd 9998 a63e 4b68 8abe 662e e73d
000001f0: e847 0a3e 38e3 e1bd e41f 29bc 9bee efbd
00000200: 21af 81bc d0e7 043d 4ff4 073d dfad 2cbe
00000210: 17d2 5c3c 3e99 b23c 38e3 9f3d 4444 7fbd
00000220: 7c38 573d 1db4 063e 773c 31be 6bfa e6bb
00000230: e1e0 503e 0406 bf3d 73fd 8ebc ccf6 4e3d
00000240: c5fe 9abd 9db6 68be 26eb 703d 106a c6b9
00000250: ab94 d63d a1fe 0ebd f191 73be 51e2 84bd
00000260: fec5 85be 0e1f c13d 3b6d d53d 6e40 a03c
00000270: ad2d 0a3e e5d0 a93d 9b83 b8bd e94f 933d
00000280: 9639 03be 8291 40be 1050 183d fe17 103d
00000290: a50c 65be e2ab 853d f079 c83c aa79 f63a
000002a0: 2a98 653e 8f1f a63d 6103 893d e985 053e
000002b0: 1e70 44be b329 f9bd 7a0c d3ba b0ff 7cbb
000002c0: a7c5 66bd 427a d43d a720 803e 6f58 42be
000002d0: 943e 8bbe dd1c 2a3d 3353 163d cdd1 143d
000002e0: 7e22 bb3a ada6 0e3b 39df 933d 356c b13d
000002f0: 5ad7 693c 978d 073d 9817 033d ee88 e03c
00000300: 11ab 203e f2fe 99be be8a 033e d296 d9bd
00000310: e140 2c3e fecb 24bc 3375 3dbe 822b e3be
00000320: 982a bebd a3e3 fbbc 8c1a a33d d7b7 8bbd
00000330: 593c 173e 708e 793d 319f 7f3d 3d51 493d
00000340: a1ad b9bd 0321 0dbc e2f7 65bc 554e aa3d
00000350: 5c6c 74bc 16e7 543e 5c27 11bd 3afe 2d3c
00000360: 6c9c fbbb 7b44 a33c 4eed 013d 9f9c 283c
00000370: 8b1d 9fbc b310 70bd 0048 083d 11c5 623d
00000380: c80a 943d 02cb 9a3c 6db2 5d3e 6a89 b13d
00000390: 5639 f53b 4e12 ac3d d461 503d 6148 453e
000003a0: 38bf e43e 90fb cebd 9f44 ebbc dbd1 4bbd
000003b0: 985f 32bc 8873 64bd 0cd9 29be 64e5 82bd
000003c0: bf25 8d3d dba7 88be 94ce df3d 9695 a13d
000003d0: 4e70 6e3e 5f1b f73d 1fc5 c4bc 5a1d 68bd
000003e0: 48d0 78bd a4c5 10bd 0b65 2f3b 7fd5 e63b
000003f0: ac9d 28bd 6403 97bc 821f 47bd 1ca3 223d

network.4.bias f4 [64]
-0.1569751 0.45841166 0.5330561 -0.047843516 -0.058256943 -0.12708502 -0.20645443 0.5200794
-0.07139977 0.012086834 0.10630875 -0.09971583 -0.08160632 0.26840097 -0.08549433 0.015065347
-0.011312607 -0.22949263 -0.16315152 -0.06971041 0.016976036 -0.05063973 -0.12320085 0.067470014
-0.10275183 -0.23831171 0.22578442 -0.22651276 -0.08447954 -0.19308718 -0.26327902 -0.12598027
0.33351737 0.65713453 -0.041922055 -0.06596108 0.13516477 -0.026461128 0.35650918 0.5102649
-0.11868166 0.18270372 0.15274231 -0.17983122 -0.118620396 0.2522502 -0.26239163 0.13081838
-0.10599814 -0.29262167 0.1667026 -0.111571565 0.023798602 -0.17889966 0.047338307 0.32065243
0.0055463943 0.16329649 0.45128143 0.010226965 0.47208646 -0.03393762 -0.13049372 -0.06327467
00000000: 15be 20be efb4 ea3e 5d76 083f 90f7 43bd
00000010: d59e 6ebd 9322 02be ca68 53be ec23 053f
00000020: 0b3a 92bd db07 463c 67b8 d93d d037 ccbd
00000030: 3721 a7bd da6b 893e a717 afbd a5d4 763c
00000040: 8358 39bc 1e00 6bbe 3111 27be 55c4 8ebd
00000050: 5411 8b3c 9b6b 4fbd ba50 fcbd b82d 8a3d
00000060: 8d6f d2bd fc07 74be 0834 673e f6f2 67be
00000070: 9c03 adbd a5b8 45be 82cc 86be f900 01be
00000080: cac2 aa3e f839 283f 76b6 2bbd 9a16 87bd
00000090: a268 0a3e 02c5 d8bc 5f88 b63e b8a0 023f
000000a0: 5f0f f3bd af16 3b3e 7b68 1c3e ad25 38be
000000b0: 40ef f2bd f026 813e 3258 86be 41f5 053e
000000c0: 8e15 d9bd 82d2 95be 16b4 2a3e a27f e4bd
000000d0: 49f5 c23c 7931 37be d0e5 413d 8e2c a43e
000000e0: 87be b53b 3237 273e 5c0e e73e 008f 273c
000000f0: 51b5 f13e 2d02 0bbd 25a0 05be 2696 81bd

network.6.weight f4 [64, 64, 3]
0.083143055 -0.17724043 -0.04278236 0.1783284 0.04450206 0.027100332 -0.21840356 0.025038604
-0.0143792145 -0.12568578 -0.0077564646 0.070554465 0.014425052 0.05371093 0.01250124 -0.042756096
0.09626736 -0.013785861 0.061033577 -0.027814826 0.01891312 -0.13861947 -0.3379057 -0.062843546
-0.059564475 -0.034374584 0.06125617 0.04854213 0.28766733 0.062051013 -0.07895682 0.13342026
-0.007823743 0.13709162 0.07570893 -0.031822473 0.23241769 0.063798085 0.047481716 -0.30569082
0.1385271 0.02276963 -0.30419993 0.20763683 -0.030548617 -0.20027879 -0.04123093 -0.060009215
-0.0018201354 -0.081260465 0.042825393 0.18746386 -0.3163718 -0.00033093244 -0.07307813 -0.06688955
-0.04409688 -0.020888366 0.10047756 0.00052404404 -0.05181672 -0.16006745 -0.03583223 0.07586313
0.24737027 0.047064498 0.043102 0.038239185 0.063171655 -0.11925796 0.3023602 0.005090326
-0.2033817 -0.004387772 0.06055467 -0.19579554 0.15846252 -0.070098914 -0.26991785 0.056676324
-0.029307917 0.03420002 0.2871986 -0.015118409 -0.095488794 0.20616853 -0.01090543 0.20153883
-0.070497274 0.0587164 -0.294361 0.13388014 -0.063290216 -0.0517776 -0.07661361 -0.054961525
0.09269917 0.47522986 -0.008183673 -0.2900349 -0.041539017 -0.049884476 -0.045067135 0.08797162
-0.0076043755 -0.036663633 -0.2123753 0.032488436 0.11912871 0.07529182 0.049790926 -0.12852451
0.28847614 -0.045503363 -0.10440389 0.0018868422 -0.0058017746 -0.4917636 0.38495204 -0.04656835
0.2670273 0.13759868 0.009262919 -0.38161704 0.29858363 -0.028886698 -0.14669777 -0.2648217
-0.064106226 -0.02333938 0.21620893 -0.023120504 -0.1399472 0.26937187 0.056684807 -0.08779655
0.37615103 -0.02247117 0.066525675 -0.04703281 -0.03524538 -0.081292376 -0.21715447 0.009323001
0.09343248 0.4181864 0.038236856 0.09832679 0.04830293 -0.06549696 0.2361741 0.13687877
-0.06430877 0.4775371 0.015938422 0.06416668 0.4016031 -0.19164027 -0.024503492 0.07221037
0.4352001 0.040248647 0.008032854 0.29895025 0.023272261 -0.16808793 0.36339188 -0.0061073676
-0.055515524 -0.025960887 0.022916332 0.03545488 0.20952342 0.050921634 -0.07000632 0.17607248
0.06804961 0.45320868 -0.27692786 0.040232696 -0.19140151 0.14574137 -0.03581962 0.373356
-0.03616735 -0.024992943 -0.02398457 0.025340319 -0.0129304305 -0.27833483 0.07033708 0.003680639
-0.116895415 0.37970617 0.07047665 -0.09277559 0.1746779 0.068839386 -0.053098664 0.03970806
0.003450051 -0.19681722 0.120215796 0.027083531 0.05658752 -0.06625699 -0.010871671 -0.030858012
-0.069330476 0.050525054 -0.12530348 0.005583607 0.061046273 0.3735226 0.08964044 0.023430087
0.0829231 -0.008305016 3.0986965e-05 -0.17606017 0.111824304 0.028744802 0.14866503 0.24958761
0.04615751 -0.08749576 0.16656789 -0.011936493 0.012995304 -0.22698425 -0.014866166 -0.4052424
0.41498858 0.023340106 -0.19198163 -0.06864193 -0.02201261 0.08345256 0.08084024 0.05295697
-0.03305332 -0.02387619 -0.06509938 0.02175378 -0.12564595 0.0072370097 -0.12890303 0.07669709
0.01736673 0.06721095 0.0039228355 0.05910702 -0.13548982 -0.094243206 -0.04110732 0.022288796
00000000: e846 aa3d 847e 35be 8e3c 2fbd b89b 363e
00000010: cb47 363d 8401 de3c 2fa5 5fbe c21d cd3c
00000020: cc96 6bbc c6b3 00be f129 febb dc7e 903d
00000030: 0e57 6c3c feff 5b3d 00d2 4c3c 0421 2fbd
00000040: d227 c53d 18de 61bc 58fe 793d ebdb e3bc
00000050: b0ef 9a3c 43f2 0dbe fa01 adbe 1eb4 80bd
00000060: e1f9 73bd 5dcc 0cbd c0e7 7a3d 1dd4 463d
00000070: 2249 933e 3429 7e3d 1db4 a1bd 529f 083e
00000080: 282f 00bc bf61 0c3e 490d 9b3d 4858 02bd
00000090: e7fe 6d3e 92a8 823d 307c 423d 8283 9cbe
000000a0: 0cda 0d3e 6087 ba3c 18c0 9bbe c09e 543e
000000b0: 1841 fabc e215 4dbe c3e1 28bd 39cc 75bd
000000c0: 9c91 eeba e36b a6bd ae69 2f3d 87f6 3f3e
000000d0: 7cfb a1be 0081 adb9 fda9 95bd 63fd 88bd
000000e0: ee9e 34bd 141e abbc 2ec7 cd3d 0060 093a
000000f0: c53d 54bd b9e8 23be d1c4 12bd 215e 9b3d
00000100: a24e 7d3e b4c6 403d b98b 303d b1a0 1c3d
00000110: 2460 813d 843d f4bd f5ce 9a3e c0cc a63b
00000120: 4b43 50be 4dc7 8fbb 2c08 783d a07e 48be
00000130: 0044 223e 0590 8fbd ac32 8abe 6f25 683d
00000140: 2817 f0bc 5215 0c3d b20b 933e 34b3 77bc
00000150: a18f c3bd d81d 533e b0ac 32bc 3260 4e3e
00000160: e060 90bd 9c80 703d 7cb6 96be e017 093e
00000170: 4d9e 81bd c014 54bd 99e7 9cbd 561f 61bd
00000180: 10d9 bd3d 5451 f33e d014 06bc 747f 94be
00000190: d124 2abd aa53 4cbd 5198 38bd 772a b43d
000001a0: 202e f9bb 9b2c 16bd e978 59be 9812 053d
000001b0: c1f9 f33d 9932 9a3d 92f1 4b3d ee9b 03be
000001c0: 25b3 933e bc61 3abd b5d1 d5bd eb4f f73a
000001d0: d01c bebb 70c8 fbbe 6f18 c53e 74be 3ebd
000001e0: cdb7 883e abe6 0c3e 80c3 173c 4f63 c3be
000001f0: f4df 983e cca3 ecbc f137 16be b696 87be
00000200: 204a 83bd 3a32 bfbc e065 5d3e 3667 bdbc
00000210: 524e 0fbe 1ceb 893e 542e 683d adce b3bd
00000220: de96 c03e 7615 b8bc 9d3e 883d 7aa5 40bd
00000230: 765d 10bd 9e7c a6bd be5d 5ebe 80bf 183c
00000240: 8759 bf3d 871c d63e 409e 1c3d 8e5f c93d
00000250: 4bd9 453d 4523 86bd a0d7 713e f329 0c3e
00000260: 51b4 83bd be7f f43e 4b91 823c d269 833d
00000270: ec9e cd3e 593d 44be 8cbb c8bc 08e3 933d
00000280: 8cd2 de3e c4db 243d 3b9c 033c 0210 993e
00000290: 78a5 be3c 3e1f 2cbe 800e ba3e 5020 c8bb
000002a0: 3f64 63bd edab d4bc 08bb bb3c 2339 113d
000002b0: 4f8d 563e 3493 503d 795f 8fbd 584c 343e
000002c0: 985d 8b3d f80a e83e 7dc9 8dbe 0acb 243d
000002d0: c2fe 43be 3a3d 153e 98b7 12bd 8528 bf3e
000002e0: 3724 14bd 00be ccbc 4a7b c4bc 8096 cf3c
000002f0: 28da 53bc e781 8ebe e30c 903d e036 713b
00000300: dd66 efbd d968 c23e 1056 903d 2101 bebd
00000310: c3de 323e aafb 8c3d fc7d 59bd eba4 223d
00000320: 401a 623b 748a 49be b333 f63d 48de dd3c
00000330: 51c8 673d bfb1 87bd 181f 32bc f1c9 fcbc
00000340: 23fd 8dbd 5cf3 4e3d 8e4f 00be b1f6 b63b
00000350: a80b 7a3d 5b3e bf3e 6895 b73d 74f0 bf3c
00000360: 96d3 a93d c311 08bc 00f8 0138 1e49 34be
00000370: 2404 e53d 387a eb3c a53b 183e e593 7f3e
00000380: a80f 3d3d fa30 b3bd c690 2a3e 4891 43bc
00000390: 41ea 543c 8f6e 68be 3891 73bc ef7b cfbe
000003a0: 6279 d43e c033 bf3c d596 44be 2494 8cbd
000003b0: ca53 b4bc 2de9 aa3d 918f a53d 68e9 583d
000003c0: eb62 07bd 0098 c3bc d352 85bd fc34 b23c
000003d0: 55a9 00be 7024 ed3b 28ff 03be 5d13 9d3d
000003e0: ac44 8e3c e5a5 893d 218b 803b 341a 723d
000003f0: d8bd 0abe 9502 c1bd 2660 28bd fe96 b63c

network.6.bias f4 [64]
0.33281818 0.5184836 1.4630718 0.6030269 0.2752688 -0.15644987 0.17914212 0.59505767
-0.033671703 0.682553 0.270263 1.6254826 0.53543854 0.60294247 0.038059786 1.7281138
0.06666461 1.4316375 0.41321564 0.5814395 0.17745759 1.2550989 0.55322134 -0.059371103
-0.21652827 0.46219864 -0.020970821 0.22393152 0.3944237 1.1762769 -0.15207586 -0.10227625
0.54923916 0.5586051 0.40710077 0.6241561 0.39285034 0.37255436 0.51730955 0.3662189
1.4598571 0.12427525 0.37948117 0.14500806 0.081119664 1.3558791 0.47605473 0.031377725
1.5867983 -0.09465995 0.37357184 0.12596926 -0.039832372 1.2225182 1.3827202 0.18575159
-0.093384296 0.32373595 0.7268543 0.98236555 0.8198011 0.58907586 1.6463978 -0.034698114
00000000: 2567 aa3e 57bb 043f f045 bb3f f95f 1a3f
00000010: 08f0 8c3e 6534 20be 0871 373e b355 183f
00000020: 57eb 09bd cbbb 2e3f e95f 8a3e d00f d03f
00000030: 8012 093f 705a 1a3f 94e4 1b3d d532 dd3f
00000040: 7487 883d e63f b73f 0091 d33e 38d9 143f
00000050: 71b7 353e 15a7 a03f ea9f 0d3f 1d2f 73bd
00000060: 96b9 5dbe 4da5 ec3e 00cb abbc 4e4e 653e
00000070: e7f1 c93e 3e90 963f c6b9 1bbe 3676 d1bd
00000080: f09a 0c3f be00 0f3f 836f d03e b2c8 1f3f
00000090: ae23 c93e 72bf be3e 666e 043f 0b81 bb3e
000000a0: 99dc ba3f 0684 fe3d 5b4b c23e fe7c 143e
000000b0: 1122 a63d 728d ad3f 72bd f33e ee85 003d
000000c0: 351c cb3f 13dd c1bd cf44 bf3e 16fe 003e
000000d0: 4527 23bd 7a7b 9c3f fafc b03f aa35 3e3e
000000e0: 4440 bfbd b8c0 a53e 2013 3a3f 4f7c 7b3f
000000f0: 7cde 513f adcd 163f 2abd d23f 9c1f 0ebd

final.weight f4 [64, 768]
-0.06370292 0.113843694 -0.07992865 0.015588644 -0.16687836 -0.056513842 -0.024380704 -0.21107753
-0.6519892 -0.22100748 0.30663276 -0.3370933 -0.048384596 -0.16326362 -0.24629162 -0.16104408
-0.24521372 -0.4172248 -0.3511726 0.3767557 0.37118566 -0.007358882 -0.26005644 0.28121668
-0.1800617 0.046819676 0.10504423 0.052866805 0.6881101 0.33235598 -0.3975712 0.3832398
-0.10926538 -0.36155194 -1.3742431 0.08616268 0.13464457 -0.31172282 0.20082888 0.44763902
0.07972428 -0.17420731 0.16527729 0.61115557 0.2675923 0.115581475 -1.6186372 -0.3571585
0.11055089 -0.008762949 0.08622971 0.6663398 -0.15174204 -0.08780018 -0.2615282 0.61510926
-0.04136474 -0.29232883 0.035547547 -0.06441522 0.11483526 -0.007955281 -0.03168213 -0.10737357
-0.077755004 -0.078171134 0.10029918 -0.10731979 0.03875986 0.009397268 0.015565239 0.034597248
0.04368872 -0.3372263 -0.21027792 -0.4455277 -0.10825718 -0.27285966 -0.12492239 0.06037797
0.21145284 -0.07015723 0.1384829 -0.15329494 -0.10126983 0.069066346 -0.10690894 -0.12081511
0.5994736 0.26613158 0.29857498 0.39332595 0.18380502 0.36966687 -0.61303264 -0.09093279
-0.06797015 0.069902755 -0.033645168 0.1139369 -0.25688824 0.14818285 0.12503368 0.12798709
-0.054840352 -0.14662863 -0.2100875 -0.09639131 0.31159097 0.2018585 0.12154496 -0.1147824
-0.06357694 0.011703565 -0.04213918 -0.33172253 -0.77251226 -0.26415685 -0.90246576 0.42647845
-0.020704338 -0.19436504 -0.28111154 0.021726672 -0.019295448 0.1901786 -0.07786914 -0.023557993
-0.10717758 0.015334714 -0.14376499 0.011541676 0.20358409 -0.29447174 0.054120973 -0.35633156
0.21382886 -0.12936048 -0.42585546 0.80195427 -1.0275755 -1.112136 -1.0120443 -0.25827256
0.088896565 -0.09131293 -0.2149989 -0.22051921 0.022142671 -0.17968379 -0.44905022 0.10986088
-0.279582 -0.04783754 0.05191268 0.51574445 -0.040262025 0.02419653 0.034235407 -0.0077357334
0.060496997 0.038963787 0.040526513 0.1337678 -0.17377435 0.2399756 -0.5729834 -0.076449655
-0.034690917 -0.023654826 0.0029490609 0.041558262 -0.06386798 0.07232236 0.118766144 -0.09459652
-0.122661084 -0.121839486 0.032791372 0.028862847 -0.311243 -0.010285871 0.12085867 0.33130947
-0.5102679 -0.11613472 -0.19203512 0.07516452 0.4115429 -0.27575642 -0.71048903 -0.06973575
0.0048861587 -0.10254975 -0.06153239 -0.008777664 -0.18775111 -0.05194827 0.089055315 0.29157865
0.0074579264 -0.044843823 0.090947226 0.062493056 0.0027753462 -0.02296592 -0.3306254 -0.08191905
-0.08196994 0.22694746 -0.03213801 0.7778401 0.34993204 -0.21864788 -1.381884 0.121109314
0.27313262 0.22267304 -0.032957938 -0.043697067 -0.19143769 -0.0024253551 -0.012274918 -0.035011273
-0.23293738 -0.21025348 0.015234951 -0.1832776 -0.04653636 -0.15214545 0.17166238 0.3532588
-0.30592874 0.030168587 0.25797504 1.2134068 -0.20489822 0.046035312 -0.4070657 -0.14565626
0.11045557 0.030834569 0.36285806 -0.027509704 0.12227672 0.12417307 0.16507077 0.22185677
-0.027769785 -0.18300197 0.14186814 0.15149482 0.24308157 0.10092804 0.45584798 0.30832162
00000000: ad76 82bd e226 e93d a2b1 a3bd 8367 7f3c
00000010: 29e2 2abe 0f7b 67bd 0bba c7bc b524 58be
00000020: c4e8 26bf c94f 62be f8fe 9c3e 7e97 acbe
00000030: ed2e 46bd 942e 27be df33 7cbe bde8 24be
00000040: 4e19 7bbe 7d9e d5be e5cc b3be 20e6 c03e
00000050: 0c0c be3e c722 f1bb 1e26 85be a2fb 8f3e
00000060: 1862 38be fdc5 3f3d 6e21 d73d dd8a 583d
00000070: fc27 303f 902a aa3e 748e cbbe 0238 c43e
00000080: 87c6 dfbd 561d b9be 33e7 afbf 0f76 b03d
00000090: 44e0 093e 229a 9fbe 16a6 4d3e f130 e53e
000000a0: 7c46 a33d 6763 32be 733e 293e b174 1c3f
000000b0: dc01 893e fbb5 ec3d 812f cfbf 7bdd b6be
000000c0: 8168 e23d 7992 0fbc 3499 b03d 3f95 2a3f
000000d0: 4462 1bbe 95d0 b3bd 06e7 85be cd77 1d3f
000000e0: 136e 29bd 20ac 95be 4e9a 113d 20ec 83bd
000000f0: c02e eb3d de56 02bc 1fc5 01bd ade6 dbbd
00000100: 043e 9fbd 3018 a0bd a869 cd3d 7aca dbbd
00000110: a9c2 1e3d 00f7 193c 5805 7f3c d8b5 0d3d
00000120: f1f2 323d eda8 acbe 1853 57be 351c e4be
00000130: f1b5 ddbd 43b4 8bbe 4fd7 ffbd e44e 773d
00000140: 1887 583e 98ae 8fbd 76ce 0d3e 59f9 1cbe
00000150: 8e66 cfbd a872 8d3d 13f3 dabd ea6d f7bd
00000160: 1a77 193f 6642 883e d2de 983e 0562 c93e
00000170: 6237 3c3e fa44 bd3e b5ef 1cbf f83a babd
00000180: ef33 8bbd 2d29 8f3d 84cf 09bd c057 e93d
00000190: db86 83be 3fbd 173e d408 003e 0c0f 033e
000001a0: 47a0 60bd d125 16be 2d21 57be cf68 c5bd
000001b0: da88 9f3e ffb3 4e3e 90ec f83d 0913 ebbd
000001c0: a034 82bd 4fc0 3f3c 229a 2cbd 89d7 a9be
000001d0: 5dc3 45bf 913f 87be ff07 67bf 625b da3e
000001e0: 259c a9bc a107 47be daed 8fbe 22fc b13c
000001f0: 7d11 9ebc 2ebe 423e db79 9fbd b1fc c0bc
00000200: eb7f dbbd 743e 7b3c 2137 13be 4c19 3d3c
00000210: 5978 503e 00c5 96be f4ad 5d3d 1771 b6be
00000220: f4f5 5a3e 1377 04be ba09 dabe e04c 4d3f
00000230: 9887 83bf 795a 8ebf ab8a 81bf 4d3c 84be
00000240: 670f b63d 4602 bbbd ac28 5cbe cacf 61be
00000250: 8c64 b53c 07ff 37be e9e9 e5be befe e03d
00000260: 5f25 8fbe 4cf1 43bd 64a2 543d d407 043f
00000270: cbe9 24bd cd37 c63c 6d3a 0c3d 097c fdbb
00000280: b3cb 773d 7e98 1f3d 21ff 253d 6dfa 083e
00000290: e7f1 31be 2abc 753e 0aaf 12bf a391 9cbd
000002a0: 1018 0ebd c4c7 c1bc 0845 413b ff38 2a3d
000002b0: 37cd 82bd bf1d 943d aa3b f33d d2bb c1bd
000002c0: bc35 fbbd fb86 f9bd 3f50 063d c771 ec3c
000002d0: 3e5b 9fbe 1286 28bc c084 f73d 65a1 a93e
000002e0: eba0 02bf 0ad8 edbd dba4 44be dbef 993d
000002f0: c0b5 d23e f22f 8dbe 9ce2 35bf 9ed1 8ebd
00000300: 121c a03b 9a05 d2bd 6309 7cbd 31d0 0fbc
00000310: d441 40be b6c7 54bd a262 b63d cc49 953e
00000320: 9f61 f43b 28ae 37bd 8a42 ba3d b8f8 7f3d
00000330: 95e2 353b 0623 bcbc bc47 a9be 2dc5 a7bd
00000340: dbdf a7bd ea64 683e 25a3 03bd 8720 473f
00000350: 4b2a b33e 3be5 5fbe 93e1 b0bf 2908 f83d
00000360: 0ad8 8b3e 6704 643e e7fe 06bd b2fb 32bd
00000370: 3e08 44be b5f2 1ebb bd1c 49bc fb67 0fbd
00000380: 2387 6ebe b04c 57be 049c 793c 20ad 3bbe
00000390: e99c 3ebd 04cc 1bbe 43c8 2f3e 56de b43e
000003a0: b1a2 9cbe 1d24 f73c 4e15 843e ea50 9b3f
000003b0: d7d0 51be 868f 3c3d ea6a d0be ea26 15be
000003c0: 8836 e23d c798 fc3c 88c8 b93e 085c e1bc
000003d0: 386c fa3d 734e fe3d 5008 293e 6c2e 633e
000003e0: 767d e3bc de64 3bbe e245 113e 7521 1b3e
000003f0: 60ea 783e 5cb3 ce3d e864 e93e 55dc 9d3e

final.bias f4 [64]
0.008384861 -0.016493501 -0.030916516 0.011788949 0.019045599 -0.019071985 0.027898215 -0.033194583
-0.009862034 -0.023607 0.012053121 -0.010528807 -0.032777864 0.024310995 0.02374629 0.030421488
0.020518016 0.029950283 -0.008731028 0.009060975 -0.015974935 -0.0039249808 -0.026086058 -0.010083148
0.027253397 -0.028537221 -0.013939222 0.008473676 0.009093437 0.020175848 -0.0043819584 0.03278958
0.010920975 0.014917497 0.012484685 -0.028864814 0.017085388 -0.015775887 0.0302312 -0.009894757
-0.019335767 -0.0150869265 -0.027264303 -0.018541474 -0.004986061 -0.012658173 -0.03141498 0.006803222
0.0047049224 -0.031075507 -0.034399606 -0.008359628 -0.034379248 -0.030918766 -0.0098684 -0.032865502
-0.0027748272 -0.022081811 -0.022191372 0.033844933 0.014640357 -0.02753333 0.016897898 -0.033195134
00000000: a860 093c 611d 87bc a244 fdbc 7026 413c
00000010: 8405 9c3c da3c 9cbc cc8a e43c 0bf7 07bd
00000020: 5e94 21bc 7863 c1bc 747a 453c 0481 2cbc
00000030: 1542 06bd da27 c73c 9487 c23c 7c36 f93c
00000040: 6615 a83c 4c5a f53c 960c 0fbc 7c74 143c
00000050: dedd 82bc 209d 80bb 6eb2 d5bc ca33 25bc
00000060: 8442 df3c e4c6 e9bc 5661 64bc 2cd5 0a3c
00000070: a4fc 143c d247 a53c 8896 8fbb 5e4e 063d
00000080: e4ed 323c 8468 743c 908c 4c3c e775 ecbc
00000090: a8f6 8b3c 6f3c 81bc 6ca7 f73c 9e1d 22bc
000000a0: 0b66 9ebc 282f 77bc 6359 dfbc 4ae4 97bc
000000b0: 1c62 a3bb 3a64 4fbc feac 00bd 90ed de3b
000000c0: c02b 9a3b 1092 febc 9ae6 0cbd d2f6 08bc
000000d0: 41d1 0cbd 5a49 fdbc 12af 21bc fa9d 06bd
000000e0: e0d9 35bb eae4 b4bc aeca b5bc fca0 0a3d
000000f0: 1cde 6f3c 948d e1bc 766d 8a3c 9ff7 07bd
