ckpt/causalcnn_pretrain_epoch30.pt (torch, 363394 bytes, 10 tensors)

network.0.weight f4 [64, 18, 3]
0	0xbe074c65	-0.13212736
1	0x3d45099a	0.04810486
2	0xbe16b033	-0.14715652
3	0x3da487fd	0.0803375
4	0xbcc60eda	-0.024177004
5	0x3d936f4b	0.07198962
6	0xbdb141c5	-0.08655123
7	0x3d4a0c29	0.049328003
8	0xbe014ad7	-0.12626205
9	0xbe136da9	-0.14397301
10	0xbe158dd4	-0.14604884
11	0x3d0f4379	0.034976456
12	0xbcdae09a	-0.026718426
13	0xbd989a43	-0.07451298
14	0x3de3a1d1	0.111148484
15	0xbe09f41f	-0.13472031
16	0xbd79af0c	-0.060957953
17	0x3d35f926	0.04442706
18	0x3d9d6336	0.076849386
19	0xbcf550d0	-0.029945761
20	0xbdf0ebfb	-0.1176376
21	0x3b535b6e	0.0032250541
22	0x3b5ae5f8	0.0033401232
23	0xbd7a4538	-0.06110117
24	0xbdbae199	-0.091250606
25	0xbde9d471	-0.11417473
26	0xbdb92646	-0.09040503
27	0xbcaecbd5	-0.021337429
28	0x3d6cf7b7	0.057853427
29	0xbbda077f	-0.0066537256
30	0x3848b541	4.785252e-05
31	0xbd37a6d0	-0.04483682
32	0xbdacd486	-0.08438973
33	0x3d03aca7	0.032147076
34	0x3cc78478	0.024355158
35	0xbc91bfe0	-0.017791688
36	0xbc36e2be	-0.011162458
37	0xbd03cc1b	-0.032177072
38	0xbd8d6b6f	-0.06905257
39	0x3cb48638	0.022036657
40	0xbe03c202	-0.12866977
41	0x3b794f40	0.0038041621
42	0xbd040ef0	-0.032240808
43	0x3cc8cec8	0.024512663
44	0xbd6b2626	-0.057409428
45	0xbca73db8	-0.020415172
46	0x3c914ab0	0.01773581
47	0x3e045bbe	0.12925622
48	0x3dd1969e	0.10233806
49	0xbd92ace2	-0.07161881
50	0x3d8cf26c	0.06882176
51	0xbcfb80c5	-0.03070105
52	0x3d9a8c69	0.07546312
53	0x3b8c0cce	0.0042739874
54	0xbd5562c0	-0.05209613
55	0x3d15bdb4	0.036557868
56	0x3ce96508	0.028490558
57	0xbd9a7b61	-0.07543064
58	0x3cf1e400	0.029527664
59	0xbcabf02c	-0.020988546
60	0xbd8e5ffc	-0.06951901
61	0x3d66e8d4	0.056374386
62	0x3d946ba4	0.07247093
63	0xbd508370	-0.0509066
64	0xbdca0d1e	-0.09865783
65	0x3c1d3810	0.009595886
66	0x3d46b01c	0.048507795
67	0x3d461074	0.048355535
68	0x3e047c88	0.1293813
69	0xbe0ac4f2	-0.13551691
70	0xbd8ba551	-0.06818641
71	0x3d89ce62	0.067288175
72	0x3df625f4	0.12018958
73	0x3d8bbbf4	0.068229586
74	0x3d150f60	0.036391616
75	0xbd53443e	-0.051578753
76	0xbdbe3ce4	-0.09288958
77	0x3da98ca8	0.08278781
78	0x3d7b8bb4	0.06141253
79	0x3defeed4	0.11715475
80	0x3e01d1d8	0.12677705
81	0xbc51f940	-0.0128157735
82	0x3dd46920	0.103716135
83	0xbb4030c0	-0.0029325932
84	0xbdb663c8	-0.089057505
85	0xbd12c324	-0.03583063
86	0x3d94226c	0.07233128
87	0x3bd8d960	0.00661771
88	0xbcfd2130	-0.030899614
89	0xbda295bb	-0.07938715
90	0xbdf45153	-0.11929574
91	0xbd9e5fd6	-0.07733123
92	0xbe0b30ff	-0.1359291
93	0xbddf32ed	-0.10898385
94	0x3d4e0f88	0.05030778
95	0xbdb55827	-0.08854704
96	0xbdba0e20	-0.090847254
97	0xbddc94fc	-0.10770604
98	0xbda34c1e	-0.079735026
99	0xb9dbee00	-0.0004194826
100	0x3cd236c0	0.025660872
101	0x3e02ed6e	0.12785885
102	0xbd17b102	-0.037034042
103	0xbbcd3fc0	-0.006263703
104	0x3da6c854	0.08143678
105	0xbd71b562	-0.05901087
106	0x3cae0b70	0.021245688
107	0xbd41228c	-0.047152087
108	0xbde54004	-0.11193851
109	0xbc0d9e52	-0.008643704
110	0xbe37f832	-0.17965773
111	0x3d36c60d	0.04462247
112	0x3d68876a	0.056769766
113	0xbbe8827b	-0.0070956326
114	0xbe20a8d1	-0.15689398
115	0x3caafa78	0.020871386
116	0x3d4065ab	0.046971958
117	0xbd409e27	-0.047025826
118	0xbc962922	-0.01833016
119	0x3c112e20	0.008861095
120	0xbd44c064	-0.04803504
121	0xbde197df	-0.11015295
122	0x3ddbebf9	0.107383676
123	0xbd2f9857	-0.042869892
124	0xbe14b36f	-0.14521573
125	0x3b46bdb2	0.003032547
126	0x3db37014	0.087616116
127	0xbe03c5e8	-0.12868464
128	0xbd5cbf9c	-0.05389367
129	0x3cb26001	0.021774294
130	0x3da24c23	0.07924678
131	0x3dc063f1	0.09394062
132	0x3cb399b6	0.021923881
133	0xbdee6c7e	-0.11641787
134	0xbd013fa6	-0.03155484
135	0x3dc443f4	0.095832735
136	0xbb3f6fc5	-0.0029210907
137	0xbddd3e1b	-0.10802861
138	0xbe40b4d6	-0.18818983
139	0xbdc0baaa	-0.09410603
140	0xbe0f616c	-0.14002007
141	0xbe479a9b	-0.19492571
142	0xbc364092	-0.011123793
143	0xbddd2c55	-0.10799471
144	0xbd8f38b1	-0.06993235
145	0x3ccbbd48	0.02487053
146	0x3dc144d4	0.09436956
147	0xbdd6073d	-0.10450599
148	0xbdfe9dd6	-0.124324486
149	0xbd8cb4ca	-0.0687042
150	0x3e273c7c	0.16331667
151	0x3d8cc826	0.06874113
152	0x3b6be425	0.003599414
153	0xbe33b49d	-0.17549367
154	0xbe2c15bd	-0.16805167
155	0xbdfc9457	-0.12332981
156	0xbd7f1568	-0.062276274
157	0xbc000422	-0.007813485
158	0x3c89256c	0.016741477
159	0xbdd9d8e9	-0.106370755
160	0x3cc5f752	0.024165783
161	0xbc0d64aa	-0.008629957
162	0x3d7f627d	0.062349785
163	0xbd973ca4	-0.07384613
164	0x3dca5d9b	0.09881135
165	0x3d1e93fe	0.038715355
166	0xbdd127af	-0.10212647
167	0x3de4dea5	0.111752786
168	0xbe1842b1	-0.14869191
169	0xbc5e938e	-0.0135849845
170	0xbba4d329	-0.005030055
171	0xbd7883f0	-0.0606727
172	0x3d2ca262	0.042147048
173	0xbe228fd9	-0.15875186
174	0xbe3e11da	-0.18561497
175	0x3d97dc35	0.07415048
176	0xbdaffbdf	-0.085929625
177	0xbe5284a9	-0.20558418
178	0xbdf35116	-0.118807
179	0x3cc9cb58	0.024633095
180	0x3d52a5bc	0.051427588
181	0x3d0c90dc	0.034317836
182	0xbdd269c5	-0.1027408
183	0xbde4cd34	-0.11171952
184	0xbdb55834	-0.08854714
185	0xbde11b27	-0.10991507
186	0x3c7d228f	0.015450134
187	0x3c3652c6	0.011128133
188	0x3d3b3060	0.04570043
189	0xbe4b74bc	-0.1986875
190	0xbd4cbf73	-0.049987268
191	0xbd7a5dab	-0.061124485
192	0xbd6fba47	-0.058527257
193	0x3ca9d730	0.020732492
194	0x3cb2dbfb	0.02183341
195	0xbdb78ccf	-0.08962404
196	0xbe14190a	-0.14462677
197	0x3d95d470	0.0731591
198	0x3d649342	0.0558045
199	0x3d4f3346	0.050586008
200	0xbdb62e80	-0.08895588
201	0xbe2fe405	-0.17176826
202	0xbbcb117d	-0.006197153
203	0x3c306bdc	0.010767903
204	0xbdea5280	-0.11441517
205	0xbc80f10b	-0.015739938
206	0x3d2dc5c1	0.04242492
207	0xbe06a49c	-0.13148731
208	0xbdbb7e6f	-0.09154975
209	0xbde3e869	-0.11128313
210	0xbe0236f8	-0.12716281
211	0x3d6b7f62	0.05749453
212	0x3dc40e35	0.09573022
213	0xbd259850	-0.04042846
214	0xbc42d11f	-0.011890679
215	0xbd41832a	-0.04724423
216	0x3c829ad7	0.015942974
217	0xbddc1380	-0.10745907
218	0x3d9a063e	0.07520722
219	0xbdb2ff5a	-0.08740111
220	0xbd37101d	-0.0446931
221	0x3c74e885	0.014948015
222	0x3d51a59e	0.051183335
223	0x3dc0cdba	0.09414239
224	0xbdeceaf5	-0.11568252
225	0xbe14b5f7	-0.14522539
226	0xbde1dcfe	-0.11028479
227	0x3db3d2a6	0.087804124
228	0xbd9fa323	-0.07794788
229	0xbe07cb80	-0.13261223
230	0xbdb4aeed	-0.08822427
231	0xbda5988a	-0.08085735
232	0x3d509c96	0.050930582
233	0xbc073c8a	-0.00825418
234	0x3dfc081e	0.12306236
235	0x3d664789	0.056220565
236	0x3e494ebb	0.1965894
237	0x3d5841d3	0.05279715
238	0x3c0414cb	0.008061598
239	0x3d168304	0.03674604
240	0x3dcaa9ed	0.09895692
241	0x3dce7c96	0.10082357
242	0xbe1aa173	-0.1510065
243	0x3d334fd8	0.043777317
244	0x3d9a15bf	0.07523679
245	0x3a205160	0.00061156414
246	0xbe0477aa	-0.12936273
247	0x3d5296ff	0.051413532
248	0x3d921872	0.07133569
249	0x3d4e8a53	0.050424885
250	0xbdad2e50	-0.08456099
251	0xbe45d435	-0.19319232
252	0xbd118a45	-0.035532255
253	0xbd549512	-0.051899977
254	0xbe24cfa2	-0.1609483
255	0x3dcfbbd0	0.10143244

network.0.bias f4 [64]
0	0xbdd4ef26	-0.103971764
1	0xbd95d4ac	-0.073159546
2	0xbda6dc27	-0.081474595
3	0xbd58e267	-0.05295029
4	0x3c59154c	0.0132497065
5	0x3c1a3335	0.009411623
6	0xbde7dce9	-0.11321432
7	0xbd433e2b	-0.04766671
8	0xbd0a6879	-0.03379104
9	0xbd3bd62f	-0.04585856
10	0x3d9231a4	0.071383744
11	0xbe1e4915	-0.15457566
12	0x3daab91d	0.08336089
13	0xbda877ce	-0.08225976
14	0xbcf38188	-0.029724851
15	0x3d0ce869	0.03440133
16	0xbdb55e54	-0.08855882
17	0x3e8d6b92	0.27621132
18	0x3d4390bb	0.047745448
19	0xbe4373a8	-0.19087088
20	0x3d976b9e	0.07393573
21	0xbe300d77	-0.17192636
22	0x3d596878	0.053078145
23	0xbc041b6e	-0.00806318
24	0xbe4c6234	-0.19959337
25	0xbd97189b	-0.0737774
26	0xbe4b2b76	-0.19840798
27	0xbd1e959c	-0.038716897
28	0x3e0f3090	0.13983369
29	0x3c9e7db0	0.019347042
30	0xbe0b516c	-0.13605279
31	0xbe3f2b04	-0.18668753
32	0x3d9c14c7	0.076211505
33	0xbe22c016	-0.15893587
34	0x3d1ae3f1	0.037815038
35	0xbda298d8	-0.07939309
36	0x3e052882	0.13003734
37	0x3d58f26a	0.05296556
38	0x3fe4bb33	1.7869629
39	0x3db416a3	0.0879338
40	0xbdf5d5e3	-0.12003686
41	0x3d3097c8	0.0431135
42	0xbe23bec8	-0.15990746
43	0xbd01bfa3	-0.0316769
44	0xbd35e2df	-0.044405814
45	0x3d8b5471	0.06803215
46	0x3d548f9c	0.05189477
47	0xbd408797	-0.04700431
48	0xbdd5094c	-0.10402164
49	0xbd5dfeb4	-0.054197982
50	0x3e74f8eb	0.2392308
51	0xbceae6de	-0.02867454
52	0x3d9a4b97	0.07533949
53	0x3e904f2f	0.28185412
54	0xbd35ed74	-0.044415906
55	0xbc402789	-0.011728176
56	0xbe1b190c	-0.15146273
57	0xbd7f5202	-0.062334068
58	0xbe33c50d	-0.17555638
59	0x3e5f83a6	0.21827564
60	0xbdb5861a	-0.088634685
61	0x3ebcddb7	0.36887905
62	0x3d79e98b	0.06101374
63	0xbdfa8d9e	-0.122340426

network.2.weight f4 [64, 64, 3]
0	0x3d8968ec	0.067094654
1	0x3d90f6c4	0.07078317
2	0xbd0056c4	-0.031332746
3	0xbb5136a0	-0.0031923428
4	0xbd550c54	-0.05201371
5	0xbd892c07	-0.06697851
6	0xbd3d5ca7	-0.04623094
7	0xbd64be16	-0.055845343
8	0x3cffe744	0.031238206
9	0xba9a183f	-0.0011756493
10	0xbd471077	-0.048599686
11	0xbd3f9f65	-0.04678287
12	0x3d4af84e	0.049553208
13	0x3d771d9b	0.06033097
14	0x3cb0aa2d	0.021565521
15	0x3bd3c5b0	0.006462775
16	0x3d36d3df	0.04463565
17	0xbca97c81	-0.02068925
18	0xbd81c81d	-0.06336997
19	0xbd9e4c41	-0.07729388
20	0xbd8a7189	-0.06759936
21	0x3d3f6ce3	0.0467347
22	0xbd860004	-0.06542972
23	0xbd19c4fd	-0.03754138
24	0xbd10f81e	-0.035392873
25	0xbcddb66a	-0.02706452
26	0x3d87df93	0.0663444
27	0xbdbd0fa8	-0.09231502
28	0xbce65f5c	-0.028121643
29	0xbde0c3b1	-0.10974825
30	0x3cde3275	0.02712367
31	0xbe43c1ed	-0.19116946
32	0x3b98c839	0.0046625403
33	0x3ddfcd4a	0.10927828
34	0xbdd1be42	-0.10241367
35	0xbd014475	-0.031559426
36	0x3d754eed	0.059889723
37	0x39ed94d6	0.00045315054
38	0xbd89ba28	-0.067249596
39	0xbd5aa2a4	-0.053377762
40	0xbd23a8bb	-0.039955836
41	0x3d8bf2e9	0.06833441
42	0xbe17067f	-0.14748572
43	0xbd0cde9f	-0.034391996
44	0xbbf4ad1b	-0.007466925
45	0xba7ea214	-0.00097134826
46	0x3c1776c9	0.009244629
47	0xbbe68ac4	-0.007035585
48	0x3e02715e	0.12738559
49	0xbe09e6d0	-0.13466954
50	0x3c9ecda3	0.019385165
51	0x3d5b0f7f	0.053481575
52	0x3b6d6deb	0.0036228846
53	0xbd490b4b	-0.049083035
54	0x3beab41f	0.0071625854
55	0xbd40e6f8	-0.04709527
56	0xbe651a96	-0.22373423
57	0xbd091456	-0.03346666
58	0x3da369be	0.07979153
59	0xbc2081ad	-0.009796542
60	0xbd2350f1	-0.039872114
61	0xbd0f54eb	-0.034993093
62	0x3ce11e49	0.027480261
63	0x3cbb642b	0.022874912
64	0xbce84946	-0.028355252
65	0x3d0921d6	0.033479534
66	0xbd1b142c	-0.037861034
67	0xbdbe8f3f	-0.09304666
68	0x3d2c337b	0.042041283
69	0xbe9223a1	-0.28542808
70	0xbe14de14	-0.14537841
71	0xbd34366d	-0.043997217
72	0x3d3c088d	0.045906592
73	0x3ced841c	0.028993659
74	0xbd26a163	-0.040681254
75	0xbe114cf7	-0.14189516
76	0x3c92f6b5	0.017939905
77	0x3d876723	0.06611469
78	0x3e037219	0.12836494
79	0xbcc83087	-0.024437202
80	0xbd97251a	-0.073801234
81	0xbdac81cc	-0.08423194
82	0xbc7dacaf	-0.0154830655
83	0xbd0e20e6	-0.034699343
84	0x3dc6fe9e	0.09716533
85	0xbd4a9ed4	-0.049467877
86	0x3d87d786	0.06632905
87	0x3ca365cc	0.019946001
88	0xbc7cabfc	-0.015421864
89	0xbd253a91	-0.040339056
90	0xbdaa0fb9	-0.0830378
91	0x3d402985	0.046914596
92	0xbd39c0e9	-0.04534999
93	0x3e8c56f9	0.27410105
94	0x3e0486cc	0.12942046
95	0x3e20baef	0.1569631
96	0xbd329a83	-0.043604385
97	0x3bdf7686	0.006819549
98	0xbc94f86e	-0.018184867
99	0xbd46f9cd	-0.048578072
100	0xbcd756db	-0.026286533
101	0xbd729499	-0.059223745
102	0xbe882e53	-0.26597843
103	0xbbcc4842	-0.0062341997
104	0x3d1403d1	0.036136452
105	0x3e2208b8	0.15823638
106	0xbe11e469	-0.14247288
107	0xbddfa0b8	-0.109193265
108	0xbefd0866	-0.4942047
109	0x3ea07380	0.3133812
110	0xbc2593b1	-0.010106013
111	0x3e1a45bc	0.15065664
112	0x3cb4da94	0.022076882
113	0x3d47e7bc	0.048804983
114	0xbe7914c2	-0.24324325
115	0xbe4f604b	-0.20251577
116	0xbd5a5107	-0.05329993
117	0xbd5d5c40	-0.054043055
118	0x3a5640b6	0.0008173095
119	0x3c933f51	0.017974528
120	0x3b1b3f48	0.0023688842
121	0x3cfef5c6	0.031123053
122	0x3e4ff9aa	0.20310083
123	0x3e12af17	0.14324604
124	0xbd0d7e7f	-0.034544464
125	0xbd89dde6	-0.06731777
126	0xbd7df6f5	-0.062003095
127	0xbcb5ff63	-0.022216504
128	0xbcc1e2c1	-0.023667695
129	0xbad58a2a	-0.0016291786
130	0xbc0c68c1	-0.008569897
131	0xbd82ca64	-0.06386259
132	0x3e94a67b	0.29033265
133	0xbe203461	-0.15644981
134	0x3cf8f1d5	0.030388752
135	0x3dfef339	0.12448735
136	0xbe16ddb5	-0.14733012
137	0xbd3766df	-0.04477584
138	0x3ba0df9f	0.00490947
139	0xbd2ab74e	-0.04167872
140	0xbd688af8	-0.056773156
141	0x3d487d08	0.048947364
142	0x3c95b8e8	0.018276647
143	0xbd2fcb57	-0.04291853
144	0x3c5c77fa	0.013456339
145	0xbc8df5cc	-0.01732912
146	0x3d7e1e54	0.062040642
147	0xbd4e5519	-0.050374124
148	0xbd75a98a	-0.05997614
149	0x3d83aa58	0.06428975
150	0xbcb3ee31	-0.021964164
151	0xbd9aa721	-0.075514086
152	0xbdf6bd3a	-0.12047811
153	0x3d95661d	0.07294867
154	0x3d93c380	0.07215023
155	0xbca941cd	-0.02066126
156	0x3e34b5d8	0.17647493
157	0xbe556c06	-0.20841989
158	0x3dca7b42	0.09886791
159	0xbe520543	-0.2050982
160	0xbe088df6	-0.13335404
161	0xbda83739	-0.08213658
162	0xbc655ed7	-0.013999662
163	0x3cc7d9a2	0.024395768
164	0x3cf5eeee	0.030021157
165	0x3e393b6f	0.18089078
166	0xbbb55db3	-0.0055348515
167	0xbc6e9d46	-0.014563864
168	0x3cd9470d	0.026523137
169	0x3d838414	0.06421676
170	0xbbfe1430	-0.0077538714
171	0x3dd0aee8	0.10189611
172	0xbbb70bec	-0.005586138
173	0xbd0860d7	-0.03329548
174	0x3cc6cd2f	0.024267761
175	0xbd5d7ff9	-0.054077122
176	0xbdec9cdf	-0.11553358
177	0xbb729752	-0.0037016463
178	0xbd905dda	-0.07049151
179	0xbd6a2779	-0.05716655
180	0xbdb341d8	-0.08752793
181	0xbd29a86e	-0.041420393
182	0x3c5d61d9	0.013512098
183	0x3d9cf8a6	0.076646134
184	0xbe18fe90	-0.14940858
185	0xbd300348	-0.04297188
186	0x3e6e63a4	0.23280197
187	0x3e1916ae	0.14950058
188	0x3dd394c7	0.103311114
189	0x3d1fae1a	0.038984396
190	0xbca391a7	-0.019966913
191	0xbd9448fa	-0.07240482
192	0x3d8f7782	0.07005216
193	0x3cd85bb8	0.026410922
194	0xbd82110b	-0.06350907
195	0x3d8495ce	0.064738855
196	0xbacfb940	-0.0015848055
197	0xbd23c7ed	-0.039985586
198	0x3d3a3e41	0.045469526
199	0xbd44f5ba	-0.048085906
200	0xbd881409	-0.066444464
201	0x3d311396	0.04323157
202	0xbc34a3fa	-0.011025423
203	0xbd43e7b2	-0.047828384
204	0xbd0b2d3b	-0.033978682
205	0x3d55be2d	0.05218332
206	0x3d838b84	0.06423095
207	0xbd7855e5	-0.06062879
208	0xbd88670f	-0.06660282
209	0xbe071294	-0.1319068
210	0x3cdad904	0.02671481
211	0xbdb6017d	-0.088870026
212	0xbc654007	-0.013992316
213	0xbd81e74c	-0.063429445
214	0xbce741a5	-0.028229544
215	0xbe0576c9	-0.13033594
216	0xbcb15697	-0.021647735
217	0xbd3fdde5	-0.046842474
218	0x3a5cd0d7	0.00084234535
219	0xbd8e0bce	-0.06935845
220	0xbd8620fa	-0.065492585
221	0x3cf32b5e	0.029683765
222	0x3a94c6a1	0.00113507
223	0xbcd27e05	-0.025694856
224	0xbdaf103a	-0.08548017
225	0xbdce14d8	-0.100625694
226	0x3c10cc27	0.008837736
227	0x3c9294ad	0.01789316
228	0xbcba2bf0	-0.02272603
229	0xbddc7770	-0.107649684
230	0x3cf2ebf4	0.029653527
231	0xbdab3fc8	-0.08361775
232	0xbd6d65c9	-0.057958398
233	0xbd171af1	-0.036890928
234	0x3bd501fe	0.0065004816
235	0x3ea8755f	0.32902047
236	0xbe7666c4	-0.2406264
237	0xbbd6fd85	-0.0065609836
238	0x3b2f0daa	0.0026711025
239	0xbb948475	-0.0045323917
240	0x3f17985b	0.5921685
241	0x3ec3a8d0	0.3821473
242	0x3cc0832b	0.023500046
243	0x3a5502e1	0.0008125734
244	0xbd0309f0	-0.0319919
245	0xbe0f52a8	-0.13996375
246	0xbcefd54d	-0.029276514
247	0xbd0ed359	-0.034869526
248	0x3d420eb1	0.047377292
249	0xbb22b5bd	-0.0024827563
250	0x3c8fbc27	0.017545773
251	0x3be9a43e	0.007130175
252	0x3b8a8a71	0.0042279293
253	0x3c6e3cad	0.014540833
254	0x3d9b00c3	0.07568505
255	0xbcb0a4d4	-0.021562971

network.2.bias f4 [64]
0	0xbd4c44c9	-0.049870286
1	0x3dc2c953	0.09511056
2	0x3fca4dbf	1.5804976
3	0xbe0b10f9	-0.13580693
4	0xbe01e5c4	-0.12685305
5	0xbd409a8d	-0.04702239
6	0xbe0f8d0f	-0.14018653
7	0xbd52e5c0	-0.051488638
8	0xbd6c6221	-0.05771077
9	0xbe04b93f	-0.12961291
10	0xbe59bd58	-0.21263635
11	0xbd4a5e83	-0.04940654
12	0x3ee72489	0.45145062
13	0x3e61eee9	0.22063793
14	0xbab3b4a7	-0.0013710455
15	0x3e32bf5c	0.1745581
16	0x3e9c6c2f	0.30551288
17	0x3dc8f94c	0.098131746
18	0xbd8f19fe	-0.069873795
19	0xbec45a49	-0.38350132
20	0xbe4d42b8	-0.20044982
21	0xbe802c1f	-0.25033662
22	0x3dd16314	0.10223976
23	0xbb4cc3bb	-0.0031244594
24	0xbdfa5eaf	-0.12225091
25	0xbe8a6044	-0.2702657
26	0xbec7e147	-0.3903906
27	0xbd79a73d	-0.060950506
28	0xbd877cbf	-0.0661559
29	0xbebd793c	-0.37006557
30	0x3ec7bc7c	0.3901099
31	0xbe433239	-0.19062127
32	0x3d8f912d	0.07010112
33	0xbe891eb1	-0.26781228
34	0x3e797a40	0.24363041
35	0xbed0291b	-0.4065636
36	0x3e0028b2	0.12515524
37	0xbb28c7f7	-0.0025753954
38	0xbe1fa844	-0.15591532
39	0x3c0f8857	0.008760533
40	0xbdb8761d	-0.09006903
41	0xbd47fb2a	-0.048823513
42	0xbc8a006c	-0.016845904
43	0xbdfabab4	-0.12242642
44	0xbdf56d46	-0.11983733
45	0xbdfd3b3f	-0.12364816
46	0xbd149649	-0.036276136
47	0xbe0bc15a	-0.13647977
48	0x3ecdd05c	0.40198028
49	0x3dbadc60	0.091240644
50	0x3e3232b4	0.17402154
51	0xbda90bf2	-0.082542315
52	0x3d913154	0.07089487
53	0x3eae952e	0.3409819
54	0x3f7b4e84	0.9816668
55	0xbdc517b5	-0.096236624
56	0xbd488d90	-0.04896313
57	0xbe52f1d3	-0.20600061
58	0xbe641b79	-0.22276105
59	0xbc7f6194	-0.015587229
60	0xbe34d5e4	-0.17659718
61	0xb9d8cb8e	-0.0004135039
62	0x3f0a19f2	0.5394584
63	0xbe3ade81	-0.18248941

network.4.weight f4 [64, 64, 3]
0	0x3de39d27	0.11113959
1	0xbd3b3278	-0.045702428
2	0x3e16ed93	0.14739065
3	0x3d9b18a0	0.07573056
4	0x3e4f2db6	0.20232281
5	0xbcde212e	-0.02711543
6	0xbe87d9d2	-0.2653337
7	0xbe5bee54	-0.21477634
8	0xbd879978	-0.06621069
9	0xbceefaf5	-0.0291724
10	0x3c565084	0.01308072
11	0xbe3b7877	-0.18307672
12	0xbd69382c	-0.056938335
13	0xbdacc3c5	-0.084357776
14	0xbdb9a5a6	-0.09064798
15	0x3e152fd6	0.14569029
16	0x3de1005c	0.10986397
17	0xbcfa3b0d	-0.030545736
18	0xbdbbcab4	-0.09169522
19	0xbd10b43e	-0.035328142
20	0x3ced40e1	0.0289616
21	0x3d58fc65	0.052975077
22	0x3d42c32a	0.047549404
23	0xbdb6f7b6	-0.08933966
24	0x3c99588b	0.018718978
25	0x3ced3bd1	0.028959187
26	0xbe594e76	-0.21221337
27	0x3c2d082d	0.010561031
28	0xbccac2f8	-0.024751171
29	0x3bad4715	0.0052880147
30	0xbb72c935	-0.0037046198
31	0x3dcb82c2	0.099370494
32	0xbd0d3091	-0.034470145
33	0x3c4e70ce	0.012600137
34	0x3b52bf02	0.0032157307
35	0xbc3415ed	-0.010991556
36	0x3eb184e7	0.3467171
37	0x3ddc7e55	0.107662834
38	0xbc4e104b	-0.012577127
39	0xbd107b1f	-0.035273667
40	0x3e045631	0.12923504
41	0x3dc9ff75	0.09863178
42	0x3cdcbf2e	0.02694663
43	0xbcb00be3	-0.021490043
44	0x3c5a48da	0.013323033
45	0xbe25d9c4	-0.16196352
46	0xbd47ef19	-0.048812006
47	0xbdc109e1	-0.094257124
48	0xbe836bf2	-0.25668293
49	0x3d42596e	0.047448568
50	0xbe130052	-0.14355591
51	0xbc7ebdf8	-0.015548222
52	0xbd397ab3	-0.04528303
53	0x3df834c2	0.12119438
54	0x3d29b1c6	0.041429304
55	0x3c4f9f16	0.012672206
56	0x3aaa3cec	0.0012988127
57	0xbb0305d7	-0.0019992494
58	0x3cc9c2f1	0.024629088
59	0xbda49596	-0.08036344
60	0xbd73f75a	-0.059562065
61	0xbcd0d15c	-0.025490455
62	0x3d4b10cb	0.049576562
63	0xbd7a9534	-0.061177447
64	0xbd64756f	-0.055776056
65	0x3d860351	0.06543601
66	0xbde527fc	-0.11189267
67	0xbd964474	-0.07337275
68	0x3d391cc5	0.045193452
69	0xbeb7a69f	-0.3586931
70	0x3d69e058	0.057098716
71	0xbe2ed03a	-0.1707162
72	0xbba69a48	-0.0050843097
73	0xbe824e0f	-0.2545018
74	0x3e4c66e3	0.19961123
75	0xbebf24c3	-0.37332734
76	0xbe45fdfa	-0.19335166
77	0xbd29a397	-0.041415777
78	0xbd42b1cf	-0.047532853
79	0x3db100d3	0.08642735
80	0x3c9e384d	0.019313956
81	0xbd22fc14	-0.03979118
82	0x3dda31d3	0.106540345
83	0xbd853812	-0.06504835
84	0x3c30bc5a	0.010787094
85	0x3ca74bd7	0.020421905
86	0xbd332ab5	-0.0437419
87	0xbe8d809e	-0.2763719
88	0x3c23538e	0.009968651
89	0x3eb3b389	0.35097912
90	0x3de4e0c5	0.11175684
91	0x3e556e6b	0.20842902
92	0x3d9ee8cf	0.077592485
93	0x3e41a130	0.18909144
94	0x3d55c0a6	0.052185677
95	0xbdfbb81e	-0.12290977
96	0xbd999a4c	-0.07500133
97	0x3e2d19a3	0.16904311
98	0xbe33a58d	-0.17543621
99	0x3d9f7971	0.07786835
100	0x3e392316	0.1807979
101	0x3e5dbe36	0.21654591
102	0xbdf36998	-0.11885375
103	0xbd02dfac	-0.03195159
104	0xbe03146d	-0.1280076
105	0xbe2199e0	-0.15781355
106	0x3d1a33a3	0.0376469
107	0xbe94d8b6	-0.29071587
108	0xbe5b8a05	-0.21439369
109	0xbac6950e	-0.0015150623
110	0x3b6b5618	0.003590947
111	0xbe042d2b	-0.12907855
112	0x3da3f4a4	0.08005646
113	0x3b9b2b93	0.004735419
114	0xbc2c9596	-0.010533711
115	0x3ca39183	0.019966846
116	0x3d9a6ec7	0.0754066
117	0x3e0ca3a8	0.13734305
118	0xbd425e51	-0.04745323
119	0x3e2267f9	0.15859975
120	0xbd3e42da	-0.046450473
121	0x3ea69899	0.32538298
122	0xbe8a684b	-0.27032694
123	0x3de72e66	0.11288147
124	0x3e0a47e8	0.13503993
125	0xbe117893	-0.14206152
126	0xbc291fe4	-0.010322545
127	0xbdefee9b	-0.11715432
128	0xbc81af21	-0.015830578
129	0x3d04e7d0	0.032447636
130	0x3d85080f	0.06495678
131	0xbe2caddf	-0.16863202
132	0x3c5cd217	0.013477824
133	0xbc22c162	-0.009933801
134	0x3d9fe338	0.078070104
135	0xbd7f4444	-0.062320963
136	0x3d57387c	0.052544102
137	0x3e06b41d	0.13154645
138	0xbe313c77	-0.17308222
139	0xbbe6fa6b	-0.007048895
140	0x3e305a81	0.17222025
141	0x3dbf0604	0.09327319
142	0xbc8efd73	-0.017454838
143	0x3d4ef6cc	0.050528333
144	0xbe01a410	-0.12660241
145	0xbe849c75	-0.25900617
146	0x3cddacdc	0.027059965
147	0xbd03a61b	-0.032140832
148	0x3d9586da	0.073011115
149	0xbd888aaf	-0.06667077
150	0xbe7391f1	-0.23786141
151	0xbdc5f08c	-0.09665021
152	0xbe85c5fe	-0.2612762
153	0x3dc11f0e	0.09429751
154	0x3dd56d3b	0.10421225
155	0x3ca0406e	0.019561972
156	0x3e0a2dad	0.13493986
157	0x3da9d0e5	0.082917966
158	0xbdb8839b	-0.09009477
159	0x3cb23616	0.021754306
160	0xbe033996	-0.12814936
161	0xbe611871	-0.2198198
162	0xbde1b90e	-0.110216245
163	0xbce83f4b	-0.028350493
164	0xbe44876e	-0.19192287
165	0x3d85abe2	0.06526925
166	0xbbeee15d	-0.007290049
167	0x3af679aa	0.0018804569
168	0x3e65982a	0.22421327
169	0x3da61f8f	0.08111488
170	0x3d0feaf9	0.035136197
171	0x3e0585e9	0.13039364
172	0xbe44701e	-0.19183394
173	0xbe1d1ba4	-0.15342575
174	0xbad30c7a	-0.0016101741
175	0xbb7cffb0	-0.003860455
176	0xbd66c5a7	-0.05634084
177	0x3dd47a42	0.10374881
178	0x3e8020a7	0.25024912
179	0xbe42586f	-0.18979047
180	0xbea59866	-0.32342833
181	0x3c200412	0.009766595
182	0x3ba1c2d1	0.004936554
183	0x3d14d1cd	0.036332894
184	0x3abb227e	0.0014277247
185	0x3b0ea6ad	0.0021766827
186	0x3d93df39	0.07220311
187	0x3db16c35	0.08663217
188	0x3c69d75a	0.014272535
189	0x3d078d97	0.033094015
190	0x3d031798	0.032004923
191	0x3ce088ee	0.027409043
192	0x3dea5421	0.114418276
193	0xbe9a001b	-0.30078205
194	0x3dc6070f	0.09669315
195	0xbdd33852	-0.103134766
196	0xbef8a4c3	-0.48563203
197	0xbeafbfb9	-0.3432596
198	0xbd30cf8c	-0.043166682
199	0x3c80c866	0.015720557
200	0x3ef78f15	0.4835135
201	0xbdd22595	-0.102610745
202	0x3da9571f	0.0826857
203	0xbd8bb7d7	-0.06822174
204	0x3e0b6654	0.13613254
205	0x3dc9fb83	0.09862425
206	0x3d7f9f31	0.062407676
207	0x3c8ce0d8	0.017197058
208	0xbdb9ada1	-0.0906632
209	0xbc0d2103	-0.008613828
210	0xbc54f380	-0.012997508
211	0x3d9f1c77	0.07769101
212	0xbcdd6d64	-0.0270297
213	0x3e006378	0.12537944
214	0xbda0c6ee	-0.07850443
215	0xbc0d8cde	-0.008639542
216	0xbbfb9c6c	-0.007678559
217	0x3ca3447b	0.019930115
218	0x3d01ed4e	0.031720452
219	0xbdbf74db	-0.0934846
220	0xbbbeb8b8	-0.00582036
221	0xbd7010b3	-0.058609676
222	0x3d05a9c6	0.03263261
223	0x3d62c511	0.05536372
224	0x3d940ac8	0.07228619
225	0xbcb3a675	-0.021929959
226	0x3e52f833	0.20602493
227	0x3d86edee	0.0658835
228	0x3d7ea199	0.06216583
229	0xbd010bf6	-0.031505547
230	0xbe75115a	-0.239324
231	0x3e498265	0.19678648
232	0xbadde762	-0.0016929919
233	0xbe982e60	-0.2972288
234	0xbd0dce40	-0.034620523
235	0x3c48798a	0.012236008
236	0xbe5deb3e	-0.21671769
237	0xbdb6b0a7	-0.089204125
238	0x3dc4afb5	0.09603826
239	0xbe8e63c2	-0.27810484
240	0x3dcfcd2f	0.101465575
241	0xbf252cd1	-0.6452151
242	0xbe42ee00	-0.19036102
243	0x3da66393	0.08124461
244	0x3d4ab282	0.049486645
245	0x3ddb6025	0.107116975
246	0xbdba9b0a	-0.091116026
247	0xbda4f9fc	-0.08055493
248	0xbd18671c	-0.037207708
249	0x3e95075e	0.29107183
250	0x3d4b7412	0.04967124
251	0x3be6d57f	0.0070444937
252	0xbd916d7f	-0.07100963
253	0xbcaacb96	-0.02084903
254	0xbd94a6ea	-0.07258399
255	0x3d24b1fc	0.0402088

network.4.bias f4 [64]
0	0xbe683b6b	-0.22678916
1	0x3fb1dace	1.3894899
2	0x3dd7cf37	0.1053757
3	0xbe434fa6	-0.19073352
4	0xbd6e9ed5	-0.058256943
5	0xbe022293	-0.12708502
6	0xbe99c596	-0.3003356
7	0x3f3ba01b	0.73291177
8	0x3e198b8b	0.14994638
9	0xbf0486c6	-0.5176815
10	0x3cf5f73b	0.030025115
11	0xbe3f4ce7	-0.1868168
12	0xbda72137	-0.08160632
13	0xbdbeb98c	-0.09312734
14	0xbe9a7828	-0.30169797
15	0x3f4a1794	0.7894223
16	0xbc395883	-0.011312607
17	0xbf2892fe	-0.6584929
18	0xbea08836	-0.3135392
19	0xbe08709a	-0.13324204
20	0xbd3ea8cd	-0.0465477
21	0xbe5f4998	-0.21805418
22	0xbdfc50ba	-0.12320085
23	0xbde7b075	-0.113129534
24	0xbdd26f8d	-0.10275183
25	0xbe8a4797	-0.27007744
26	0x3e723006	0.23651132
27	0xbecb34c9	-0.3968871
28	0x3f46b2b6	0.7761644
29	0xbdca0473	-0.0986413
30	0xbe2853db	-0.16438238
31	0x3d9172c6	0.071019694
32	0x3dc6a625	0.09699658
33	0x3f527665	0.82211906
34	0xbe45ef82	-0.19329646
35	0xbe53740c	-0.20649737
36	0x3da59cef	0.08086573
37	0x3cadfb4a	0.021237988
38	0x3f2a89ef	0.6661672
39	0x3f80c7ce	1.0060976
40	0xbee74385	-0.451687
41	0x3ef292a4	0.47377503
42	0x3f353a64	0.7079222
43	0xbe504d9f	-0.2034211
44	0xbdab5f4f	-0.08367788
45	0x3e8f2180	0.27955246
46	0xbd2c759b	-0.042104345
47	0xbe7a48f7	-0.24441896
48	0xbee1d9cd	-0.4411148
49	0xbf12fb33	-0.5741455
50	0xbea1c8b3	-0.31598434
51	0xbed744d4	-0.420447
52	0xbe4ed236	-0.20197377
53	0xb9d5ed36	-0.00040803262
54	0x3e939d94	0.2883116
55	0xbe3fb38d	-0.18720837
56	0xbcd6ca1f	-0.026219426
57	0x3f1f203a	0.6215855
58	0x3f47e451	0.7808276
59	0xbd472df3	-0.048627805
60	0xbd85395c	-0.06505081
61	0xbe466431	-0.19374157
62	0xbeddabcd	-0.43295136
63	0xbe02d99a	-0.12778321

network.6.weight f4 [64, 64, 3]
0	0x3d47b108	0.048752815
1	0xbc46684d	-0.012109828
2	0xbd2f3c8e	-0.04278236
3	0x3e90bc5a	0.282687
4	0x3eea0e1a	0.45713884
5	0x3cde0184	0.027100332
6	0xbe04652e	-0.12929222
7	0xbe27fe87	-0.16405688
8	0xbc6b96cc	-0.0143792145
9	0x3d0b0529	0.033940468
10	0xbefb1b8b	-0.4904445
11	0x3d907edc	0.070554465
12	0x3c6c570e	0.014425052
13	0x3d5bfffe	0.05371093
14	0x3c4cd200	0.01250124
15	0xbd2f2104	-0.042756096
16	0x3dc527d2	0.09626736
17	0xbc61de18	-0.013785861
18	0xbd4acce4	-0.049511805
19	0x3d2f1508	0.042744666
20	0x3c9aefb0	0.01891312
21	0xbeff963c	-0.49919307
22	0xbf221ee6	-0.633284
23	0xbd80b41e	-0.062843546
24	0xbc7226d6	-0.014779767
25	0xbd174d1b	-0.036938768
26	0x3d7ae7c0	0.06125617
27	0x3e0493c2	0.1294699
28	0x3e830592	0.25590187
29	0x3d7e2934	0.062051013
30	0xbc002321	-0.007820875
31	0x3dd056d8	0.10172814
32	0xbc002f28	-0.007823743
33	0x3dd7b512	0.10532583
34	0x3d9b0d49	0.07570893
35	0xbd025848	-0.031822473
36	0x3e6dfee7	0.23241769
37	0x3d82a892	0.063798085
38	0x3d427c30	0.047481716
39	0xbeb592c6	-0.35463542
40	0x3e19de4a	0.15026203
41	0x3cba8760	0.02276963
42	0xbe995ee2	-0.29955202
43	0x3e9a0759	0.3008373
44	0xbcfa4118	-0.030548617
45	0xbe248531	-0.16066433
46	0xbd3c97a1	-0.046043042
47	0xbd75cc39	-0.060009215
48	0xbaee919c	-0.0018201354
49	0xbda66be3	-0.081260465
50	0x3d2f69ae	0.042825393
51	0x3ecb9837	0.39764568
52	0xbea1fb7c	-0.3163718
53	0xb9ad8100	-0.00033093244
54	0xbea5b200	-0.32362366
55	0x3d5fd1a2	0.05464328
56	0xbd349eee	-0.04409688
57	0xbdace44e	-0.08441983
58	0x3dcdc72e	0.10047756
59	0x3a096000	0.00052404404
60	0xbdab2c18	-0.083580196
61	0xbe23e8b9	-0.16006745
62	0xbd12c4d1	-0.03583223
63	0xbc2c5ebc	-0.010520633
64	0x3e7d4ea2	0.24737027
65	0x3d40c6b4	0.047064498
66	0x3d308bb9	0.043102
67	0x3d1ca0b1	0.038239185
68	0x3d816024	0.063171655
69	0x3c1edd62	0.009696336
70	0x3e9acef5	0.3023602
71	0x3ba6ccc0	0.005090326
72	0xbe374e25	-0.17900904
73	0xbcea0a36	-0.028569322
74	0x3d78082c	0.06055467
75	0xbe27f766	-0.16402969
76	0x3e224400	0.15846252
77	0xbd8f9005	-0.070098914
78	0x3eb442d8	0.35207248
79	0x3dc22de2	0.09481408
80	0xbcf01728	-0.029307917
81	0x3d816387	0.063178115
82	0x3ef67247	0.48134062
83	0xbc77b334	-0.015118409
84	0xbe619f53	-0.22033434
85	0x3c1f0097	0.0097047305
86	0xbc32acb0	-0.01090543
87	0x3e0c0916	0.13675341
88	0xbe1ae8e2	-0.151279
89	0x3d70809c	0.0587164
90	0xbeb81291	-0.35951665
91	0x3deda5c7	0.11603885
92	0xbd819e4d	-0.063290216
93	0x3ce72dd5	0.028220097
94	0xbd46f0c0	-0.04856944
95	0xbd611f56	-0.054961525
96	0x3edd84e1	0.4326544
97	0x3eda3501	0.42618564
98	0xbc0614d0	-0.008183673
99	0x3eb6b0f3	0.35681877
100	0x3ec1c7d2	0.37847763
101	0xbd4c53aa	-0.049884476
102	0x3b9f03ce	0.0048527485
103	0xbc8cd9ab	-0.017193636
104	0xbbf92e20	-0.0076043755
105	0x3d504789	0.05084947
106	0xbe79ff99	-0.24413909
107	0x3d051298	0.032488436
108	0x3df3d970	0.11906707
109	0xbe83d715	-0.25750032
110	0x3d4bf192	0.049790926
111	0xbe725ea7	-0.2366892
112	0x3e93121d	0.28724757
113	0xbd3a61bc	-0.045503363
114	0xbf1f16a3	-0.62143916
115	0xbe5dbd01	-0.2165413
116	0xbbbe1cd0	-0.0058017746
117	0xbe6aee73	-0.22942524
118	0x3ed9c8e4	0.4253608
119	0xbd3ebe74	-0.04656835
120	0x3f29b051	0.6628466
121	0x3e5a237c	0.21302599
122	0x3c17c380	0.009262919
123	0xbeb22d85	-0.34800354
124	0xbe76ea74	-0.24112874
125	0xbceca3cc	-0.028886698
126	0x3f0a845b	0.5410821
127	0x3ee09ee5	0.43871227
128	0xbd834a20	-0.064106226
129	0xbc8b548d	-0.01700809
130	0x3e379851	0.17929198
131	0xbcbd6736	-0.023120504
132	0xbeade440	-0.33963203
133	0x3de4494c	0.11146793
134	0x3d682e54	0.056684807
135	0x3d4bd5b4	0.04976435
136	0x3eca14b1	0.3946891
137	0xbcb81576	-0.02247117
138	0x3f06f1d2	0.5271274
139	0x3e5163b9	0.20448197
140	0xbd105d76	-0.03524538
141	0x3de7f51c	0.11326048
142	0xbbfaff0f	-0.0076598
143	0x3c18bf80	0.009323001
144	0x3e9c9720	0.3058405
145	0x3ee029ad	0.43781796
146	0x3d1c9e40	0.038236856
147	0x3dc95f8e	0.09832679
148	0x3d3f143f	0.046650168
149	0xbd862345	-0.06549696
150	0x3f112a0d	0.5670479
151	0x3dd7457b	0.10511299
152	0xbd83b451	-0.06430877
153	0x3f329027	0.6975121
154	0x3c82914b	0.015938422
155	0x3d8369d2	0.06416668
156	0x3f3762fb	0.7163541
157	0xbe73ac08	-0.23796093
158	0xbcc8bb8c	-0.024503492
159	0x3d8a3828	0.06748992
160	0x3e884130	0.26612234
161	0x3d24dbc4	0.040248647
162	0x3e80c159	0.25147513
163	0x3f40e313	0.7534649
164	0x3cbea578	0.023272261
165	0xbe6f5aaf	-0.23374437
166	0x3f188445	0.5957683
167	0xbbc82050	-0.0061073676
168	0xbdb2c08a	-0.0872813
169	0xbd6c72a4	-0.057726517
170	0x3cbbbb08	0.022916332
171	0x3e7861c9	0.24256052
172	0xbc4594de	-0.0120594185
173	0x3d509334	0.050921634
174	0x3acee149	0.0015783693
175	0x3e5fe4f1	0.21864678
176	0x3d8b5d98	0.06804961
177	0x3f0798d0	0.5296755
178	0xbe8dc97d	-0.27692786
179	0x3d24cb0a	0.040232696
180	0xbebbaeb9	-0.3665674
181	0xbceec3ca	-0.029146094
182	0xbd12b798	-0.03581962
183	0x3f234367	0.6377472
184	0xbdbf6fbb	-0.09347483
185	0xbcccbe00	-0.024992943
186	0xbcaf7122	-0.02141625
187	0xbc06b1e4	-0.008221123
188	0xbc53da28	-0.0129304305
189	0xbe789c5b	-0.24278395
190	0xbcf865d0	-0.030321985
191	0x3b7136e0	0.003680639
192	0xbe04416f	-0.12915586
193	0x3ec4c7d5	0.3843371
194	0x3d905610	0.07047665
195	0xbe3b11a8	-0.18268454
196	0x3d91d440	0.071205616
197	0x3d8cfbaa	0.068839386
198	0x3c2c8b48	0.010531254
199	0x3e7990a6	0.24371585
200	0x3b621a40	0.003450051
201	0xbe94c600	-0.29057312
202	0x3ed613ec	0.41812074
203	0x3cddde48	0.027083531
204	0x3d67c851	0.05658752
205	0xbd87b1bf	-0.06625699
206	0xbc321f18	-0.010871671
207	0xbcfcc9f1	-0.030858012
208	0xbd8dfd23	-0.069330476
209	0x3d4ef35c	0.050525054
210	0xbc89c15f	-0.01681584
211	0xbd3f5c39	-0.04671881
212	0x3d7a0ba8	0.061046273
213	0x3f8d81c5	1.1055228
214	0x3ea9ff21	0.3320246
215	0x3cbff074	0.023430087
216	0x3e36d62d	0.17855139
217	0xbe920487	-0.2851908
218	0x3801f800	3.0986965e-05
219	0xbe44255b	-0.19154875
220	0x3e0f2cb4	0.13981897
221	0x3ceb7a38	0.028744802
222	0x3ebe7d0d	0.3720478
223	0x3e5e0cd9	0.21684588
224	0x3d3d0fa8	0.04615751
225	0xbba2ceac	-0.004968485
226	0x3e2a90c6	0.16656789
227	0xbc439148	-0.011936493
228	0x3c54ea41	0.012995304
229	0xbe686e8f	-0.22698425
230	0xbc739138	-0.014866166
231	0xbee23f1f	-0.44188783
232	0x3eea9adb	0.4582127
233	0x3cbf33c0	0.023340106
234	0xbe815205	-0.25257888
235	0x3d75abdc	0.05997835
236	0xbcb453ca	-0.02201261
237	0x3df3ff63	0.119139455
238	0x3d698ca2	0.057018884
239	0x3d58e968	0.05295697
240	0xbd8118a0	-0.06303525
241	0xbcc39800	-0.02387619
242	0xbd8552d3	-0.06509938
243	0x3e4ba8a1	0.19888546
244	0xbd0c0ccd	-0.034191895
245	0x3bed2470	0.0072370097
246	0xbbd38a13	-0.0064556687
247	0x3d7586f7	0.059943166
248	0x3c8e44ac	0.01736673
249	0x3dc59c89	0.09648997
250	0x3b808b21	0.0039228355
251	0x3d721a34	0.05910702
252	0xbdbb1591	-0.09134973
253	0xbdc10295	-0.094243206
254	0xbd286026	-0.04110732
255	0x3da19989	0.07890613

network.6.bias f4 [64]
0	0x3f92a3a7	1.1456193
1	0x3face27f	1.3506621
2	0x40119142	2.2744908
3	0x3f9ee366	1.2413146
4	0x3f933fb0	1.1503811
5	0xbec877bf	-0.3915386
6	0x3e4aa88a	0.19790855
7	0x3f02b31e	0.5105456
8	0xbd09eb57	-0.033671703
9	0x3fcf6e5d	1.6205555
10	0x3e537d9f	0.2065339
11	0x400fcd52	2.2469068
12	0x3edba126	0.42896384
13	0x3faf5270	1.3697033
14	0x3d1be494	0.038059786
15	0x40179ceb	2.3689525
16	0x3f4b3a65	0.7938598
17	0x40176252	2.365376
18	0x3eb192ff	0.34682462
19	0x3ff19d5d	1.8876148
20	0x3fab5c1b	1.3387483
21	0x3fe120a6	1.7588089
22	0x3f9c0ee1	1.2192041
23	0xbd8bcf0a	-0.06826599
24	0xbe5db996	-0.21652827
25	0x3fa3d2e6	1.2798736
26	0xbcabcb00	-0.020970821
27	0x3f9c80af	1.2226771
28	0x3fc62e56	1.5482891
29	0x3fbdc59e	1.4825933
30	0xbe1bb9c6	-0.15207586
31	0xbdd17636	-0.10227625
32	0x3f1ff7bf	0.62487406
33	0x3f1f0e0a	0.62130797
34	0x3f8fc51c	1.1232028
35	0x3f9502c7	1.1641473
36	0x3eb613f6	0.35562104
37	0x3f843094	1.0327325
38	0x3f8d2382	1.1026461
39	0x3fd66882	1.6750643
40	0x40054d56	2.0828452
41	0x3e67e99a	0.22647706
42	0x3ec24b5b	0.37948117
43	0x3f8579a9	1.0427753
44	0x3da6220c	0.08111963
45	0x4012b84b	2.2924984
46	0x3f8b6125	1.0889021
47	0x3d0085ee	0.031377725
48	0x40226259	2.5372527
49	0xbdc1dd13	-0.09465995
50	0x3f8654da	1.0494645
51	0x3ed328bc	0.41242015
52	0xbd232745	-0.039832372
53	0x401fb78f	2.4955785
54	0x400e7698	2.2259884
55	0x3f0cdb31	0.5502196
56	0xbdbf4044	-0.093384296
57	0x3f8c8dae	1.0980737
58	0x3f4c46b7	0.797954
59	0x3fec6d78	1.8470907
60	0x3fd9d677	1.7018574
61	0x3fcb4fb7	1.5883702
62	0x4023d30e	2.5597568
63	0xbdb7d1ed	-0.08975587

final.weight f4 [64, 768]
0	0xbe6152ac	-0.22004193
1	0x3daaf9c2	0.08348419
2	0xbe4ba9a0	-0.19888926
3	0xbe4f023f	-0.202157
4	0x3f2b11d1	0.6682406
5	0xbf1e25b5	-0.61776286
6	0x3d9ed654	0.077557236
7	0xbee38fdb	-0.4444569
8	0x3e51465d	0.20436998
9	0xbf7979d0	-0.97451496
10	0x3f5d99aa	0.865626
11	0xbf463a29	-0.77432495
12	0x3f3e433c	0.7432134
13	0xbf40b1c2	-0.75271237
14	0xbeccefb3	-0.40026626
15	0xbecbde9c	-0.39818275
16	0x3f0907a4	0.53527284
17	0xbf307464	-0.689276
18	0xbf4d8f7e	-0.80297077
19	0x3e985ee4	0.29759896
20	0x3e6acd92	0.22929981
21	0x3ec9e921	0.39435676
22	0xbf3a387e	-0.7274245
23	0x3f1633e1	0.5867291
24	0xbf583885	-0.8446124
25	0xbf8cfc36	-1.1014469
26	0x3e9705cc	0.2949661
27	0xbf069122	-0.52565205
28	0x3f7937a8	0.9735055
29	0x3e0622f9	0.13099279
30	0xbf1de7e9	-0.6168199
31	0x3ed93b24	0.42427933
32	0x3e29b0b9	0.1657132
33	0xbe99ab6d	-0.300136
34	0xbfa91594	-1.320971
35	0xbd9c5011	-0.07632459
36	0xbe21ffac	-0.15820187
37	0xbf075b43	-0.5287363
38	0x3e82b607	0.255295
39	0x3f146e04	0.5798037
40	0x3f04365c	0.51645446
41	0xbec9f7cd	-0.3944687
42	0x3ea084e1	0.3135138
43	0x3f532ad0	0.824872
44	0x3f3dc482	0.7412797
45	0xbf19f5d2	-0.6014072
46	0xbff1bf18	-1.8886442
47	0x3e0736de	0.13204524
48	0x3f51b8c3	0.8192255
49	0xbefddc81	-0.49582294
50	0xbe3ce289	-0.18445791
51	0x3ded8fc5	0.115996875
52	0xbf016d78	-0.5055766
53	0xbe56a5bf	-0.20961665
54	0xbf6874ae	-0.9080304
55	0x3f95050d	1.1642166
56	0xbeb7cacb	-0.35896906
57	0xbf38024e	-0.71878517
58	0xbecd7c42	-0.40133864
59	0xbf34d035	-0.706302
60	0x3cdf0da8	0.027228191
61	0x3ddcd14d	0.107821085
62	0x3e40c5af	0.1882541
63	0x3e7bba2d	0.24582739
64	0xbe8ebce9	-0.27878502
65	0x3d41c6e1	0.047308806
66	0x3e032be2	0.12809709
67	0x3faad35c	1.3345752
68	0x3e7089b5	0.23490031
69	0xbeec18b5	-0.461126
70	0xbf046671	-0.51718813
71	0xbe57475d	-0.21023317
72	0x3e26591c	0.1624493
73	0xbec305d2	-0.38090378
74	0xbec1de2b	-0.37864813
75	0xbf1954eb	-0.598952
76	0xbea48219	-0.32130507
77	0xbea37f31	-0.31932977
78	0xbe881b2c	-0.2658323
79	0xbe1bec65	-0.15226896
80	0x3ed980ce	0.42481083
81	0xbcc2f168	-0.023796752
82	0x3ea099d0	0.3136735
83	0xbeb622d5	-0.3557345
84	0xbea776ef	-0.32707927
85	0x3dcbf0b4	0.0995802
86	0xbe283ff8	-0.16430652
87	0xbe5b1691	-0.21395327
88	0x3f1a0eb8	0.6017871
89	0x3ec226ab	0.37920126
90	0x3eceefcb	0.40417323
91	0x3f0195ad	0.5061901
92	0x3f003c5d	0.5009211
93	0x3f215615	0.63021976
94	0x3e850a5c	0.25984466
95	0x3e645685	0.2229863
96	0xbd8b33ef	-0.06797015
97	0x3d8f292d	0.069902755
98	0xbd09cf84	-0.033645168
99	0x3de957c0	0.1139369
100	0xbe8386db	-0.25688824
101	0x3e17bd3f	0.14818285
102	0x3e0008d4	0.12503368
103	0x3e030f0c	0.12798709
104	0xbd60a047	-0.054840352
105	0xbe1625d1	-0.14662863
106	0xbe57212d	-0.2100875
107	0xbdc568cf	-0.09639131
108	0xbbd67459	-0.0065446314
109	0x3e4e1126	0.20123729
110	0xbee4c9c9	-0.446852
111	0x3d794484	0.060856357
112	0xbdb07b51	-0.08617271
113	0x3ea09bf4	0.31368983
114	0xbf62efee	-0.88647354
115	0x3e13ca77	0.14432703
116	0xbddd2907	-0.10798841
117	0xbd1b3c1f	-0.037899133
118	0xbfec3715	-1.845431
119	0x3f9a8e72	1.2074721
120	0xbca99c25	-0.020704338
121	0xbe4707a1	-0.19436504
122	0xbe8fedda	-0.28111154
123	0x3cb1fc22	0.021726672
124	0xbc9e117d	-0.019295448
125	0x3e42be2e	0.1901786
126	0xbd9f79db	-0.07786914
127	0xbcc0fcb1	-0.023557993
128	0xbde28c67	-0.11061936
129	0x3ca35bb6	0.019941192
130	0xbe7a5a4d	-0.2444851
131	0x3cde38a3	0.027126616
132	0x3e8873fe	0.26650995
133	0xbed4bf24	-0.4155208
134	0x3f0f0fc5	0.5588344
135	0xbe3eec42	-0.18644813
136	0x3e9cb516	0.30606908
137	0xbf302051	-0.6879931
138	0xbe1a7a77	-0.15085779
139	0x3f61909a	0.8811127
140	0xbe911140	-0.28333473
141	0xbebe5f15	-0.37181917
142	0xbf78e1ea	-0.9721972
143	0x3dbd50ed	0.09243951
144	0x3ec25c9a	0.37961274
145	0xbf634034	-0.8876984
146	0xbf152956	-0.582662
147	0xbe57927b	-0.21051972
148	0x3ed233f1	0.41055253
149	0xbef51d7b	-0.47874054
150	0xbf406760	-0.7515774
151	0xbe8ffa85	-0.2812082
152	0x3f637449	0.8884931
153	0xbf93c6c2	-1.1545031
154	0xbfe4f79b	-1.7888063
155	0x3f0c18b8	0.5472522
156	0xbe627bba	-0.2211751
157	0x3ee43315	0.44570222
158	0xbecd827f	-0.40138623
159	0x3d26053d	0.04053234
160	0x3f0de3d5	0.5542577
161	0xbef26209	-0.4734042
162	0xbe8d8083	-0.2763711
163	0x3e8830f0	0.26599836
164	0xbe96d266	-0.29457396
165	0x3e04ff92	0.12988117
166	0xbf98cf8c	-1.1938338
167	0xbf0bc4b0	-0.54596996
168	0xbd0e1810	-0.034690917
169	0xbcc1c7c4	-0.023654826
170	0x3b414508	0.0029490609
171	0x3d2a38ff	0.041558262
172	0xbd82cd37	-0.06386798
173	0x3d941dbf	0.07232236
174	0x3df33baa	0.118766144
175	0xbdc1bbd2	-0.09459652
176	0xbdfb35bc	-0.122661084
177	0xbdf986fb	-0.121839486
178	0x3d06503f	0.032791372
179	0x3cec71c7	0.028862847
180	0xbfa1e241	-1.2647172
181	0xbf059139	-0.5217472
182	0xbdbd20d6	-0.092347786
183	0x3e8b0a5b	0.27156338
184	0xbe8a37cd	-0.26995698
185	0xbe7c87e4	-0.24661213
186	0xbdad1135	-0.084505476
187	0x3f411289	0.7541891
188	0x3f68b01d	0.9089373
189	0xbd4132d3	-0.04716761
190	0xbfc0983c	-1.5046458
191	0x3e9dcac1	0.3081875
192	0x3e4e2fa8	0.20135367
193	0xbee0f17c	-0.43934238
194	0x3f043b29	0.5165277
195	0xbeb815de	-0.35954183
196	0x3f1b8d65	0.60762626
197	0xbe092661	-0.13393547
198	0xc0096f0d	-2.147403
199	0x3f66de87	0.901833
200	0x3eaa8d76	0.3331105
201	0xbe94c3e8	-0.29055715
202	0xbef879aa	-0.48530322
203	0x3d917ef0	0.071042895
204	0xbcfdf179	-0.030998932
205	0x3ef6db44	0.4821416
206	0xbf0bf6cf	-0.54673475
207	0xbd038934	-0.03211327
208	0x3e0d67fb	0.13809197
209	0x3edb2e8c	0.4280895
210	0x3f0bffab	0.54686993
211	0x3efb8444	0.49124348
212	0x3fb82b8c	1.438829
213	0x3c126829	0.0089359665
214	0xbf328315	-0.69731265
215	0x3daedf1d	0.08538649
216	0x3e8477bf	0.2587261
217	0x3e340bc6	0.17582616
218	0x3dd9fc63	0.10643842
219	0xbc2746b3	-0.010209727
220	0xbd25ce2b	-0.04047982
221	0xbd018a05	-0.031625766
222	0xbdfb0ecc	-0.12258682
223	0x3e4c8ee3	0.19976382
224	0xbdc82e53	-0.09774461
225	0xbe5e4ba3	-0.2170854
226	0xbe699237	-0.22809683
227	0xbee85e51	-0.45384458
228	0x3e267280	0.16254616
229	0xbc251d09	-0.010077723
230	0x3f91ef61	1.1401178
231	0x3ed409c6	0.41413707
232	0x3f6aa8b4	0.9166367
233	0xbe6c4b07	-0.23075496
234	0x3ea2d465	0.3180267
235	0x3f8fd1c8	1.1235895
236	0xbe821a49	-0.2541068
237	0x3df22aa1	0.11824537
238	0xbf527db1	-0.8222304
239	0xbf4e7b59	-0.80656964
240	0xbd60affc	-0.05485533
241	0xbe950834	-0.2910782
242	0xbe80b6fa	-0.251396
243	0xbec4e038	-0.38452315
244	0xbe39f25a	-0.18158856
245	0x3d7a17c5	0.061057825
246	0x3e835091	0.25647405
247	0x3f8b1616	1.0866115
248	0x3e3e50f1	0.18585564
249	0xbd8cc2b4	-0.06873074
250	0xbebd1c08	-0.3693545
251	0x3e052e21	0.13005878
252	0x3f81a3d1	1.0128118
253	0xbee300e3	-0.44336614
254	0x3f87e8be	1.0617902
255	0xbe228a4f	-0.15873073

final.bias f4 [64]
0	0x3c0960a8	0.008384861
1	0xbc871d61	-0.016493501
2	0xbcfd44a2	-0.030916516
3	0x3c412670	0.011788949
4	0x3c9c0584	0.019045599
5	0xbc9c3cda	-0.019071985
6	0x3ce48acc	0.027898215
7	0xbd07f70b	-0.033194583
8	0xbc21945e	-0.009862034
9	0xbcc16378	-0.023607
10	0x3c457a74	0.012053121
11	0xbc2c8104	-0.010528807
12	0xbd064215	-0.032777864
13	0x3cc727da	0.024310995
14	0x3cc28794	0.02374629
15	0x3cf9367c	0.030421488
16	0x3ca81566	0.020518016
17	0x3cf55a4c	0.029950283
18	0xbc0f0c96	-0.008731028
19	0x3c14747c	0.009060975
20	0xbc82ddde	-0.015974935
21	0xbb809d20	-0.0039249808
22	0xbcd5b26e	-0.026086058
23	0xbc2533ca	-0.010083148
24	0x3cdf4284	0.027253397
25	0xbce9c6e4	-0.028537221
26	0xbc646156	-0.013939222
27	0x3c0ad52c	0.008473676
28	0x3c14fca4	0.009093437
29	0x3ca547d2	0.020175848
30	0xbb8f9688	-0.0043819584
31	0x3d064e5e	0.03278958
32	0x3c32ede4	0.010920975
33	0x3c746884	0.014917497
34	0x3c4c8c90	0.012484685
35	0xbcec75e7	-0.028864814
36	0x3c8bf6a8	0.017085388
37	0xbc813c6f	-0.015775887
38	0x3cf7a76c	0.0302312
39	0xbc221d9e	-0.009894757
40	0xbc9e660b	-0.019335767
41	0xbc772f28	-0.0150869265
42	0xbcdf5963	-0.027264303
43	0xbc97e44a	-0.018541474
44	0xbba3621c	-0.004986061
45	0xbc4f643a	-0.012658173
46	0xbd00acfe	-0.03141498
47	0x3bdeed90	0.006803222
48	0x3b9a2bc0	0.0047049224
49	0xbcfe9210	-0.031075507
50	0xbd0ce69a	-0.034399606
51	0xbc08f6d2	-0.008359628
52	0xbd0cd141	-0.034379248
53	0xbcfd495a	-0.030918766
54	0xbc21af12	-0.0098684
55	0xbd069dfa	-0.032865502
56	0xbb35d9e0	-0.0027748272
57	0xbcb4e4ea	-0.022081811
58	0xbcb5caae	-0.022191372
59	0x3d0aa0fc	0.033844933
60	0x3c6fde1c	0.014640357
61	0xbce18d94	-0.02753333
62	0x3c8a6d76	0.016897898
63	0xbd07f79f	-0.033195134
