ckpt/causalcnn_pretrain_epoch40.pt (torch, 363394 bytes, 10 tensors)

network.0.weight f4 [64, 18, 3]
00000000: 654c 07be 9a09 453d 33b0 16be fd87 a43d
00000010: da0e c6bc 4b6f 933d c541 b1bd 290c 4a3d
00000020: d74a 01be a96d 13be d48d 15be 7943 0f3d
00000030: 9ae0 dabc 439a 98bd d1a1 e33d 1ff4 09be
00000040: 0caf 79bd 26f9 353d 3663 9d3d d050 f5bc
00000050: fbeb f0bd 6e5b 533b f8e5 5a3b 3845 7abd
00000060: 99e1 babd 71d4 e9bd 4626 b9bd d5cb aebc
00000070: b7f7 6c3d 7f07 dabb 41b5 4838 d0a6 37bd
00000080: 86d4 acbd a7ac 033d 7884 c73c e0bf 91bc
00000090: bee2 36bc 1bcc 03bd 6f6b 8dbd 3886 b43c
000000a0: 02c2 03be 404f 793b f00e 04bd c8ce c83c
000000b0: 2626 6bbd b83d a7bc b04a 913c be5b 043e
000000c0: 9e96 d13d e2ac 92bd 6cf2 8c3d c580 fbbc
000000d0: 698c 9a3d ce0c 8c3b c062 55bd b4bd 153d
000000e0: 0865 e93c 617b 9abd 00e4 f13c 2cf0 abbc
000000f0: fc5f 8ebd d4e8 663d a46b 943d 7083 50bd
00000100: 1e0d cabd 1038 1d3c 1cb0 463d 7410 463d
00000110: 887c 043e f2c4 0abe 51a5 8bbd 62ce 893d
00000120: f425 f63d f4bb 8b3d 600f 153d 3e44 53bd
00000130: e43c bebd a88c a93d b48b 7b3d d4ee ef3d
00000140: d8d1 013e 40f9 51bc 2069 d43d c030 40bb
00000150: c863 b6bd 24c3 12bd 6c22 943d 60d9 d83b
00000160: 3021 fdbc bb95 a2bd 5351 f4bd d65f 9ebd
00000170: ff30 0bbe ed32 dfbd 880f 4e3d 2758 b5bd
00000180: 200e babd fc94 dcbd 1e4c a3bd 00ee dbb9
00000190: c036 d23c 6eed 023e 02b1 17bd c03f cdbb
000001a0: 54c8 a63d 62b5 71bd 700b ae3c 8c22 41bd
000001b0: 0440 e5bd 529e 0dbc 32f8 37be 0dc6 363d
000001c0: 6a87 683d 7b82 e8bb d1a8 20be 78fa aa3c
000001d0: ab65 403d 279e 40bd 2229 96bc 202e 113c
000001e0: 64c0 44bd df97 e1bd f9eb db3d 5798 2fbd
000001f0: 6fb3 14be b2bd 463b 1470 b33d e8c5 03be
00000200: 9cbf 5cbd 0160 b23c 234c a23d f163 c03d
00000210: b699 b33c 7e6c eebd a63f 01bd f443 c43d
00000220: c56f 3fbb 1b3e ddbd d6b4 40be aaba c0bd
00000230: 6c61 0fbe 9b9a 47be 9240 36bc 552c ddbd
00000240: b138 8fbd 48bd cb3c d444 c13d 3d07 d6bd
00000250: d69d febd cab4 8cbd 7c3c 273e 26c8 8c3d
00000260: 25e4 6b3b 9db4 33be bd15 2cbe 5794 fcbd
00000270: 6815 7fbd 2204 00bc 6c25 893c e9d8 d9bd
00000280: 52f7 c53c aa64 0dbc 7d62 7f3d a43c 97bd
00000290: 9b5d ca3d fe93 1e3d af27 d1bd a5de e43d
000002a0: b142 18be 8e93 5ebc 29d3 a4bb f083 78bd
000002b0: 62a2 2c3d d98f 22be da11 3ebe 35dc 973d
000002c0: dffb afbd a984 52be 1651 f3bd 58cb c93c
000002d0: bca5 523d dc90 0c3d c569 d2bd 34cd e4bd
000002e0: 3458 b5bd 271b e1bd 8f22 7d3c c652 363c
000002f0: 6030 3b3d bc74 4bbe 73bf 4cbd ab5d 7abd
00000300: 47ba 6fbd 30d7 a93c fbdb b23c cf8c b7bd
00000310: 0a19 14be 70d4 953d 4293 643d 4633 4f3d
00000320: 802e b6bd 05e4 2fbe 7d11 cbbb dc6b 303c
00000330: 8052 eabd 0bf1 80bc c1c5 2d3d 9ca4 06be
00000340: 6f7e bbbd 69e8 e3bd f836 02be 627f 6b3d
00000350: 350e c43d 5098 25bd 1fd1 42bc 2a83 41bd
00000360: d79a 823c 8013 dcbd 3e06 9a3d 5aff b2bd
00000370: 1d10 37bd 85e8 743c 9ea5 513d bacd c03d
00000380: f5ea ecbd f7b5 14be fedc e1bd a6d2 b33d
00000390: 23a3 9fbd 80cb 07be edae b4bd 8a98 a5bd
000003a0: 969c 503d 8a3c 07bc 1e08 fc3d 8947 663d
000003b0: bb4e 493e d341 583d cb14 043c 0483 163d
000003c0: eda9 ca3d 967c ce3d 73a1 1abe d84f 333d
000003d0: bf15 9a3d 6051 203a aa77 04be ff96 523d
000003e0: 7218 923d 538a 4e3d 502e adbd 35d4 45be
000003f0: 458a 11bd 1295 54bd a2cf 24be d0bb cf3d
-0.13212736 0.04810486 -0.14715652 0.0803375 -0.024177004 0.07198962 -0.08655123 0.049328003
-0.12626205 -0.14397301 -0.14604884 0.034976456 -0.026718426 -0.07451298 0.111148484 -0.13472031
-0.060957953 0.04442706 0.076849386 -0.029945761 -0.1176376 0.0032250541 0.0033401232 -0.06110117
-0.091250606 -0.11417473 -0.09040503 -0.021337429 0.057853427 -0.0066537256 4.785252e-05 -0.04483682
-0.08438973 0.032147076 0.024355158 -0.017791688 -0.011162458 -0.032177072 -0.06905257 0.022036657
-0.12866977 0.0038041621 -0.032240808 0.024512663 -0.057409428 -0.020415172 0.01773581 0.12925622
0.10233806 -0.07161881 0.06882176 -0.03070105 0.07546312 0.0042739874 -0.05209613 0.036557868
0.028490558 -0.07543064 0.029527664 -0.020988546 -0.06951901 0.056374386 0.07247093 -0.0509066
-0.09865783 0.009595886 0.048507795 0.048355535 0.1293813 -0.13551691 -0.06818641 0.067288175
0.12018958 0.068229586 0.036391616 -0.051578753 -0.09288958 0.08278781 0.06141253 0.11715475
0.12677705 -0.0128157735 0.103716135 -0.0029325932 -0.089057505 -0.03583063 0.07233128 0.00661771
-0.030899614 -0.07938715 -0.11929574 -0.07733123 -0.1359291 -0.10898385 0.05030778 -0.08854704
-0.090847254 -0.10770604 -0.079735026 -0.0004194826 0.025660872 0.12785885 -0.037034042 -0.006263703
0.08143678 -0.05901087 0.021245688 -0.047152087 -0.11193851 -0.008643704 -0.17965773 0.04462247
0.056769766 -0.0070956326 -0.15689398 0.020871386 0.046971958 -0.047025826 -0.01833016 0.008861095
-0.04803504 -0.11015295 0.107383676 -0.042869892 -0.14521573 0.003032547 0.087616116 -0.12868464
-0.05389367 0.021774294 0.07924678 0.09394062 0.021923881 -0.11641787 -0.03155484 0.095832735
-0.0029210907 -0.10802861 -0.18818983 -0.09410603 -0.14002007 -0.19492571 -0.011123793 -0.10799471
-0.06993235 0.02487053 0.09436956 -0.10450599 -0.124324486 -0.0687042 0.16331667 0.06874113
0.003599414 -0.17549367 -0.16805167 -0.12332981 -0.062276274 -0.007813485 0.016741477 -0.106370755
0.024165783 -0.008629957 0.062349785 -0.07384613 0.09881135 0.038715355 -0.10212647 0.111752786
-0.14869191 -0.0135849845 -0.005030055 -0.0606727 0.042147048 -0.15875186 -0.18561497 0.07415048
-0.085929625 -0.20558418 -0.118807 0.024633095 0.051427588 0.034317836 -0.1027408 -0.11171952
-0.08854714 -0.10991507 0.015450134 0.011128133 0.04570043 -0.1986875 -0.049987268 -0.061124485
-0.058527257 0.020732492 0.02183341 -0.08962404 -0.14462677 0.0731591 0.0558045 0.050586008
-0.08895588 -0.17176826 -0.006197153 0.010767903 -0.11441517 -0.015739938 0.04242492 -0.13148731
-0.09154975 -0.11128313 -0.12716281 0.05749453 0.09573022 -0.04042846 -0.011890679 -0.04724423
0.015942974 -0.10745907 0.07520722 -0.08740111 -0.0446931 0.014948015 0.051183335 0.09414239
-0.11568252 -0.14522539 -0.11028479 0.087804124 -0.07794788 -0.13261223 -0.08822427 -0.08085735
0.050930582 -0.00825418 0.12306236 0.056220565 0.1965894 0.05279715 0.008061598 0.03674604
0.09895692 0.10082357 -0.1510065 0.043777317 0.07523679 0.00061156414 -0.12936273 0.051413532
0.07133569 0.050424885 -0.08456099 -0.19319232 -0.035532255 -0.051899977 -0.1609483 0.10143244

network.0.bias f4 [64]
00000000: 26ef d4bd acd4 95bd 27dc a6bd 67e2 58bd
00000010: 4c15 593c 3533 1a3c e9dc e7bd 2b3e 43bd
00000020: 7968 0abd 2fd6 3bbd a431 923d 1549 1ebe
00000030: 1db9 aa3d ce77 a8bd 8881 f3bc 69e8 0c3d
00000040: fe69 f6bd 926b 8d3e bb90 433d a873 43be
00000050: 9e6b 973d 770d 30be 7868 593d 6e1b 04bc
00000060: 3462 4cbe 9b18 97bd 762b 4bbe 9c95 1ebd
00000070: 9030 0f3e b07d 9e3c 6c51 0bbe 042b 3fbe
00000080: c714 9c3d 16c0 22be f1e3 1a3d d898 a2bd
00000090: 8228 053e 6af2 583d f5a6 0b40 a316 b43d
000000a0: e3d5 f5bd c897 303d c8be 23be a3bf 01bd
000000b0: dfe2 35bd 7154 8b3d 9c8f 543d 9787 40bd
000000c0: 4c09 d5bd b4fe 5dbd ebf8 743e dee6 eabc
000000d0: 974b 9a3d 2f4f 903e 74ed 35bd 8927 40bc
000000e0: 0c19 1bbe 0252 7fbd 0dc5 33be a683 5f3e
000000f0: 1a86 b5bd b7dd bc3e 8be9 793d 9e8d fabd
-0.103971764 -0.073159546 -0.081474595 -0.05295029 0.0132497065 0.009411623 -0.11321432 -0.04766671
-0.03379104 -0.04585856 0.071383744 -0.15457566 0.08336089 -0.08225976 -0.029724851 0.03440133
-0.12031935 0.27621132 0.047745448 -0.19087088 0.07393573 -0.17192636 0.053078145 -0.00806318
-0.19959337 -0.0737774 -0.19840798 -0.038716897 0.13983369 0.019347042 -0.13605279 -0.18668753
0.076211505 -0.15893587 0.037815038 -0.07939309 0.13003734 0.05296556 2.1820652 0.0879338
-0.12003686 0.0431135 -0.15990746 -0.0316769 -0.044405814 0.06803215 0.05189477 -0.04700431
-0.10402164 -0.054197982 0.2392308 -0.02867454 0.07533949 0.28185412 -0.044415906 -0.011728176
-0.15146273 -0.062334068 -0.17555638 0.21827564 -0.088634685 0.36887905 0.06101374 -0.122340426

network.2.weight f4 [64, 64, 3]
00000000: ec68 893d c4f6 903d c456 00bd a036 51bb
00000010: 540c 55bd 072c 89bd a75c 3dbd 16be 64bd
00000020: 44e7 ff3c 3f18 9aba 7710 47bd 659f 3fbd
00000030: 4ef8 4a3d 9b1d 773d 2daa b03c b0c5 d33b
00000040: dfd3 363d 817c a9bc 1dc8 81bd 414c 9ebd
00000050: 8971 8abd e36c 3f3d 0400 86bd fdc4 19bd
00000060: 1ef8 10bd 6ab6 ddbc 93df 873d a80f bdbd
00000070: 5c5f e6bc b1c3 e0bd 7532 de3c edc1 43be
00000080: 39c8 983b 4acd df3d 42be d1bd 7544 01bd
00000090: ed4e 753d d694 ed39 28ba 89bd a4a2 5abd
000000a0: bba8 23bd e9f2 8b3d 7f06 17be 9fde 0cbd
000000b0: 1bad f4bb 14a2 7eba c976 173c c48a e6bb
000000c0: 5e71 023e d0e6 09be a3cd 9e3c 7f0f 5b3d
000000d0: eb6d 6d3b 4b0b 49bd 1fb4 ea3b f8e6 40bd
000000e0: 961a 65be 5614 09bd be69 a33d ad81 20bc
000000f0: f150 23bd eb54 0fbd 491e e13c 2b64 bb3c
00000100: 4649 e8bc d621 093d 2c14 1bbd 3f8f bebd
00000110: 7b33 2c3d a123 92be 14de 14be 6d36 34bd
00000120: 8d08 3c3d 1c84 ed3c 63a1 26bd f74c 11be
00000130: b5f6 923c 2367 873d 1972 033e 8730 c8bc
00000140: 1a25 97bd cc81 acbd afac 7dbc e620 0ebd
00000150: 9efe c63d d49e 4abd 86d7 873d cc65 a33c
00000160: fcab 7cbc 913a 25bd b90f aabd 8529 403d
00000170: e9c0 39bd f956 8c3e cc86 043e efba 203e
00000180: 839a 32bd 8676 df3b 6ef8 94bc cdf9 46bd
00000190: db56 d7bc 9994 72bd 532e 88be 4248 ccbb
000001a0: d103 143d b808 223e 69e4 11be b8a0 dfbd
000001b0: 6608 fdbe 8073 a03e b193 25bc bc45 1a3e
000001c0: 94da b43c bce7 473d c214 79be 4b60 4fbe
000001d0: 0751 5abd 405c 5dbd b640 563a 513f 933c
000001e0: 483f 1b3b c6f5 fe3c aaf9 4f3e 17af 123e
000001f0: 7f7e 0dbd e6dd 89bd f5f6 7dbd 63ff b5bc
00000200: c1e2 c1bc 2a8a d5ba c168 0cbc 64ca 82bd
00000210: 7ba6 943e 6134 20be d5f1 f83c 39f3 fe3d
00000220: b5dd 16be df66 37bd 9fdf a03b 4eb7 2abd
00000230: f88a 68bd 087d 483d e8b8 953c 57cb 2fbd
00000240: fa77 5c3c ccf5 8dbc 541e 7e3d 1955 4ebd
00000250: 8aa9 75bd 58aa 833d 31ee b3bc 21a7 9abd
00000260: 3abd f6bd 1d66 953d 80c3 933d cd41 a9bc
00000270: d8b5 343e 066c 55be 427b ca3d 4305 52be
00000280: f68d 08be 3937 a8bd d75e 65bc a2d9 c73c
00000290: eeee f53c 6f3b 393e b35d b5bb 469d 6ebc
000002a0: 0d47 d93c 1484 833d 3014 febb e8ae d03d
000002b0: ec0b b7bb d760 08bd 2fcd c63c f97f 5dbd
000002c0: df9c ecbd 5297 72bb da5d 90bd 7927 6abd
000002d0: d841 b3bd 6ea8 29bd d961 5d3c a6f8 9c3d
000002e0: 90fe 18be 4803 30bd a463 6e3e ae16 193e
000002f0: c794 d33d 1aae 1f3d a791 a3bc fa48 94bd
00000300: 8277 8f3d b85b d83c 0b11 82bd ce95 843d
00000310: 40b9 cfba edc7 23bd 413e 3a3d baf5 44bd
00000320: 0914 88bd 9613 313d faa3 34bc b2e7 43bd
00000330: 3b2d 0bbd 2dbe 553d 848b 833d e555 78bd
00000340: 0f67 88bd 9412 07be 04d9 da3c 7d01 b6bd
00000350: 0740 65bc 4ce7 81bd a541 e7bc c976 05be
00000360: 9756 b1bc e5dd 3fbd d7d0 5c3a ce0b 8ebd
00000370: fa20 86bd 5e2b f33c a1c6 943a 057e d2bc
00000380: 3a10 afbd d814 cebd 27cc 103c ad94 923c
00000390: f02b babc 7077 dcbd f4eb f23c c83f abbd
000003a0: c965 6dbd f11a 17bd fe01 d53b 5f75 a83e
000003b0: c466 76be 85fd d6bb aa0d 2f3b 7584 94bb
000003c0: 5b98 173f d0a8 c33e 2b83 c03c e102 553a
000003d0: f009 03bd a852 0fbe 4dd5 efbc 59d3 0ebd
000003e0: b10e 423d bdb5 22bb 27bc 8f3c 3ea4 e93b
000003f0: 718a 8a3b ad3c 6e3c c300 9b3d d4a4 b0bc
0.067094654 0.07078317 -0.031332746 -0.0031923428 -0.05201371 -0.06697851 -0.04623094 -0.055845343
0.031238206 -0.0011756493 -0.048599686 -0.04678287 0.049553208 0.06033097 0.021565521 0.006462775
0.04463565 -0.02068925 -0.06336997 -0.07729388 -0.06759936 0.0467347 -0.06542972 -0.03754138
-0.035392873 -0.02706452 0.0663444 -0.09231502 -0.028121643 -0.10974825 0.02712367 -0.19116946
0.0046625403 0.10927828 -0.10241367 -0.031559426 0.059889723 0.00045315054 -0.067249596 -0.053377762
-0.039955836 0.06833441 -0.14748572 -0.034391996 -0.007466925 -0.00097134826 0.009244629 -0.007035585
0.12738559 -0.13466954 0.019385165 0.053481575 0.0036228846 -0.049083035 0.0071625854 -0.04709527
-0.22373423 -0.03346666 0.07979153 -0.009796542 -0.039872114 -0.034993093 0.027480261 0.022874912
-0.028355252 0.033479534 -0.037861034 -0.09304666 0.042041283 -0.28542808 -0.14537841 -0.043997217
0.045906592 0.028993659 -0.040681254 -0.14189516 0.017939905 0.06611469 0.12836494 -0.024437202
-0.073801234 -0.08423194 -0.0154830655 -0.034699343 0.09716533 -0.049467877 0.06632905 0.019946001
-0.015421864 -0.040339056 -0.0830378 0.046914596 -0.04534999 0.27410105 0.12942046 0.1569631
-0.043604385 0.006819549 -0.018184867 -0.048578072 -0.026286533 -0.059223745 -0.26597843 -0.0062341997
0.036136452 0.15823638 -0.14247288 -0.109193265 -0.4942047 0.3133812 -0.010106013 0.15065664
0.022076882 0.048804983 -0.24324325 -0.20251577 -0.05329993 -0.054043055 0.0008173095 0.017974528
0.0023688842 0.031123053 0.20310083 0.14324604 -0.034544464 -0.06731777 -0.062003095 -0.022216504
-0.023667695 -0.0016291786 -0.008569897 -0.06386259 0.29033265 -0.15644981 0.030388752 0.12448735
-0.14733012 -0.04477584 0.00490947 -0.04167872 -0.056773156 0.048947364 0.018276647 -0.04291853
0.013456339 -0.01732912 0.062040642 -0.050374124 -0.05997614 0.06428975 -0.021964164 -0.075514086
-0.12047811 0.07294867 0.07215023 -0.02066126 0.17647493 -0.20841989 0.09886791 -0.2050982
-0.13335404 -0.08213658 -0.013999662 0.024395768 0.030021157 0.18089078 -0.0055348515 -0.014563864
0.026523137 0.06421676 -0.0077538714 0.10189611 -0.005586138 -0.03329548 0.024267761 -0.054077122
-0.11553358 -0.0037016463 -0.07049151 -0.05716655 -0.08752793 -0.041420393 0.013512098 0.076646134
-0.14940858 -0.04297188 0.23280197 0.14950058 0.103311114 0.038984396 -0.019966913 -0.07240482
0.07005216 0.026410922 -0.06350907 0.064738855 -0.0015848055 -0.039985586 0.045469526 -0.048085906
-0.066444464 0.04323157 -0.011025423 -0.047828384 -0.033978682 0.05218332 0.06423095 -0.06062879
-0.06660282 -0.1319068 0.02671481 -0.088870026 -0.013992316 -0.063429445 -0.028229544 -0.13033594
-0.021647735 -0.046842474 0.00084234535 -0.06935845 -0.065492585 0.029683765 0.00113507 -0.025694856
-0.08548017 -0.100625694 0.008837736 0.01789316 -0.02272603 -0.107649684 0.029653527 -0.08361775
-0.057958398 -0.036890928 0.0065004816 0.32902047 -0.2406264 -0.0065609836 0.0026711025 -0.0045323917
0.5921685 0.3821473 0.023500046 0.0008125734 -0.0319919 -0.13996375 -0.029276514 -0.034869526
0.047377292 -0.0024827563 0.017545773 0.007130175 0.0042279293 0.014540833 0.07568505 -0.021562971

network.2.bias f4 [64]
00000000: c944 4cbd fec1 5b3e 585f d73f f910 0bbe
00000010: c4e5 01be 8d9a 40bd 0f8d 0fbe c0e5 52bd
00000020: 2162 6cbd 3fb9 04be 58bd 59be 835e 4abd
00000030: 37c6 e03e af4a d83d a7b4 b3ba 05a5 373e
00000040: fafb 903e addc 673c fe19 8fbd e19d d4be
00000050: b842 4dbe 1f2c 80be 5e34 0c3d 0ef7 adbc
00000060: af5e fabd 4460 8abe 47e1 c7be 3da7 79bd
00000070: bf7c 87bd f5a7 bdbe ab30 913f 3932 43be
00000080: 25ec a4bc e639 89be 7038 853e 4d45 d0be
00000090: 73a6 403d f7c7 28bb 44a8 1fbe a91d babc
000000a0: 1d76 b8bd 2afb 47bd 6c00 8abc 9cdb 3cbe
000000b0: 466d f5bd 3f3b fdbd 4996 14bd 5ac1 0bbe
000000c0: 3214 f53e 9c12 543e f2e6 093e f20b a9bd
000000d0: 97e2 00bd a8c7 fa3e 2023 a03f b517 c5bd
000000e0: 908d 48bd d3f1 52be 791b 64be 9461 7fbc
000000f0: e4d5 34be 8ecb d8b9 0351 e93e 81de 3abe
-0.049870286 0.21460721 1.6825972 -0.13580693 -0.12685305 -0.04702239 -0.14018653 -0.051488638
-0.05771077 -0.12961291 -0.21263635 -0.04940654 0.43901226 0.1056112 -0.0013710455 0.17934044
0.28317243 0.014151734 -0.069873795 -0.41526702 -0.20044982 -0.25033662 0.03422963 -0.021235969
-0.12225091 -0.2702657 -0.3903906 -0.060950506 -0.0661559 -0.37042204 1.1342977 -0.19062127
-0.020132134 -0.26801986 0.2601962 -0.40677872 0.04703374 -0.0025753954 -0.15591532 -0.022719221
-0.09006903 -0.048823513 -0.016845904 -0.1844315 -0.11983733 -0.12364816 -0.036276136 -0.13647977
0.4786697 0.20710224 0.13467005 -0.082542315 -0.031466093 0.4898045 1.2510719 -0.096236624
-0.04896313 -0.20600061 -0.22276105 -0.015587229 -0.17659718 -0.0004135039 0.4556962 -0.18248941

network.4.weight f4 [64, 64, 3]
00000000: 279d e33d 7832 3bbd 93ed 163e a018 9b3d
00000010: b62d 4f3e 2e21 debc d867 a4be a7c4 8bbe
00000020: 7899 87bd f5fa eebc 8450 563c 7778 3bbe
00000030: 2c38 69bd c5c3 acbd a6a5 b9bd d62f 153e
00000040: 5c00 e13d 0d3b fabc b4ca bbbd 3eb4 10bd
00000050: e140 ed3c 65fc 583d 2ac3 423d b6f7 b6bd
00000060: 8b58 993c d13b ed3c 764e 59be 2d08 2d3c
00000070: f8c2 cabc 1547 ad3b 35c9 72bb c282 cb3d
00000080: 9130 0dbd ce70 4e3c 02bf 523b ed15 34bc
00000090: e784 b13e 557e dc3d 4b10 4ebc 1f7b 10bd
000000a0: 3156 043e 75ff c93d 2ebf dc3c e30b b0bc
000000b0: da48 5a3c c4d9 25be 19ef 47bd e109 c1bd
000000c0: f26b 83be 6e59 423d 5200 13be f8bd 7ebc
000000d0: b37a 39bd c234 f83d c6b1 293d 169f 4f3c
000000e0: ec3c aa3a d705 03bb f1c2 c93c 9695 a4bd
000000f0: 5af7 73bd 5cd1 d0bc cb10 4b3d 3495 7abd
00000100: 6f75 64bd 5103 863d fc27 e5bd 7444 96bd
00000110: c51c 393d 9fa6 b7be 58e0 693d 3ad0 2ebe
00000120: 489a a6bb 0f4e 82be e366 4c3e c324 bfbe
00000130: fafd 45be 97a3 29bd cfb1 42bd d300 b13d
00000140: 4d38 9e3c 14fc 22bd d331 da3d 1238 85bd
00000150: 5abc 303c d74b a73c b52a 33bd 9e80 8dbe
00000160: 8e53 233c 89b3 b33e f0dd 673d a9af 173e
00000170: cfe8 9e3d 30a1 413e a6c0 553d 1eb8 fbbd
00000180: 4c9a 99bd a319 2d3e 8da5 33be 7179 9f3d
00000190: 1623 393e 36be 5d3e 9869 f3bd acdf 02bd
000001a0: 6d14 03be e099 21be a333 1a3d b6d8 94be
000001b0: 058a 5bbe 0e95 c6ba 1856 6b3b 2b2d 04be
000001c0: a4f4 a33d 932b 9b3b 9695 2cbc 8391 a33c
000001d0: c76e 9a3d a8a3 0c3e 515e 42bd f967 223e
000001e0: da42 3ebd 9998 a63e 4b68 8abe 662e e73d
000001f0: e847 0a3e 9378 11be e41f 29bc 9bee efbd
00000200: 21af 81bc d0e7 043d 0f08 853d dfad 2cbe
00000210: 17d2 5c3c 62c1 22bc 38e3 9f3d 4444 7fbd
00000220: 7c38 573d 1db4 063e 773c 31be 6bfa e6bb
00000230: 815a 303e 0406 bf3d 73fd 8ebc ccf6 4e3d
00000240: 10a4 01be 759c 84be dcac dd3c 1ba6 03bd
00000250: da86 953d af8a 88bd f191 73be 8cf0 c5bd
00000260: fec5 85be 0e1f c13d 3b6d d53d 6e40 a03c
00000270: ad2d 0a3e e5d0 a93d 9b83 b8bd 1636 b23c
00000280: 9639 03be 7118 61be 0eb9 e1bd 4b3f e8bc
00000290: 6e87 44be e2ab 853d 5de1 eebb aa79 f63a
000002a0: 2a98 653e 8f1f a63d f9ea 0f3d e985 053e
000002b0: 1e70 44be a41b 1dbe 7a0c d3ba b0ff 7cbb
000002c0: a7c5 66bd 427a d43d a720 803e 6f58 42be
000002d0: 6698 a5be 1204 203c d1c2 a13b cdd1 143d
000002e0: 7e22 bb3a ada6 0e3b 39df 933d 356c b13d
000002f0: 5ad7 693c 978d 073d 9817 033d ee88 e03c
00000300: 2154 ea3d 1b00 9abe 0f07 c63d 12a3 48bd
00000310: 364f 05bf 657c cbbe 0902 35be 3376 203e
00000320: 6678 a93e 9525 d2bd 1f57 a93d d7b7 8bbd
00000330: 5466 0b3e 83fb c93d 319f 7f3d d8e0 8c3c
00000340: a1ad b9bd 0321 0dbc 80f3 54bc 771c 9f3d
00000350: 646d ddbc 7863 003e eec6 a0bd de8c 0dbc
00000360: 6c9c fbbb 7b44 a33c 4eed 013d db74 bfbd
00000370: b8b8 bebb b310 70bd c6a9 053d 11c5 623d
00000380: c80a 943d 75a6 b3bc 33f8 523e eeed 863d
00000390: ba99 b33d b473 2fbe 106f 73be 3ec8 8e3e
000003a0: 415c cbbd 0c2c 97be 40ce 0dbd 8a79 483c
000003b0: 3eeb 5dbe 1e92 92bc 6572 983c 1e39 97be
000003c0: 25ed bd3d 679d 30bf f1e4 57be fcec f93d
000003d0: e433 fbbb 4fad 04be 0a9b babd fcf9 a4bd
000003e0: 1c67 18bd b51c dc3e c736 5a3e 7fd5 e63b
000003f0: 7f6d 91bd 96cb aabc eaa6 94bd fcb1 243d
0.11113959 -0.045702428 0.14739065 0.07573056 0.20232281 -0.02711543 -0.32110476 -0.2729847
-0.06621069 -0.0291724 0.01308072 -0.18307672 -0.056938335 -0.084357776 -0.09064798 0.14569029
0.10986397 -0.030545736 -0.09169522 -0.035328142 0.0289616 0.052975077 0.047549404 -0.08933966
0.018718978 0.028959187 -0.21221337 0.010561031 -0.024751171 0.0052880147 -0.0037046198 0.099370494
-0.034470145 0.012600137 0.0032157307 -0.010991556 0.3467171 0.107662834 -0.012577127 -0.035273667
0.12923504 0.09863178 0.02694663 -0.021490043 0.013323033 -0.16196352 -0.048812006 -0.094257124
-0.25668293 0.047448568 -0.14355591 -0.015548222 -0.04528303 0.12119438 0.041429304 0.012672206
0.0012988127 -0.0019992494 0.024629088 -0.08036344 -0.059562065 -0.025490455 0.049576562 -0.061177447
-0.055776056 0.06543601 -0.11189267 -0.07337275 0.045193452 -0.3586931 0.057098716 -0.1707162
-0.0050843097 -0.2545018 0.19961123 -0.37332734 -0.19335166 -0.041415777 -0.047532853 0.08642735
0.019313956 -0.03979118 0.106540345 -0.06504835 0.010787094 0.020421905 -0.0437419 -0.2763719
0.009968651 0.35097912 0.05660814 0.14813103 0.077592485 0.18909144 0.052185677 -0.12290977
-0.07500133 0.16904311 -0.17543621 0.07786835 0.1807979 0.21654591 -0.11885375 -0.03195159
-0.1280076 -0.15781355 0.0376469 -0.29071587 -0.21439369 -0.0015150623 0.003590947 -0.12907855
0.08005646 0.004735419 -0.010533711 0.019966846 0.0754066 0.13734305 -0.04745323 0.15859975
-0.046450473 0.32538298 -0.27032694 0.11288147 0.13503993 -0.14206152 -0.010322545 -0.11715432
-0.015830578 0.032447636 0.06495678 -0.16863202 0.013477824 -0.009933801 0.078070104 -0.062320963
0.052544102 0.13154645 -0.17308222 -0.007048895 0.17222025 0.09327319 -0.017454838 0.050528333
-0.12660241 -0.25900617 0.027059965 -0.032140832 0.073011115 -0.06667077 -0.23786141 -0.09665021
-0.2612762 0.09429751 0.10421225 0.019561972 0.13493986 0.082917966 -0.09009477 0.021754306
-0.12814936 -0.2198198 -0.110216245 -0.028350493 -0.19192287 0.06526925 -0.007290049 0.0018804569
0.22421327 0.08111488 0.035136197 0.13039364 -0.19183394 -0.15342575 -0.0016101741 -0.003860455
-0.05634084 0.10374881 0.25024912 -0.18979047 -0.32342833 0.009766595 0.004936554 0.036332894
0.0014277247 0.0021766827 0.07220311 0.08663217 0.014272535 0.033094015 0.032004923 0.027409043
0.114418276 -0.30078205 0.09669315 -0.04898364 -0.5207399 -0.39743343 -0.17676558 0.1567009
0.3309967 -0.102610745 0.0826857 -0.06822174 0.13613254 0.09862425 0.062407676 0.017197058
-0.0906632 -0.008613828 -0.012997508 0.07769101 -0.0270297 0.12537944 -0.07850443 -0.008639542
-0.007678559 0.019930115 0.031720452 -0.0934846 -0.00582036 -0.058609676 0.03263261 0.05536372
0.07228619 -0.021929959 0.20602493 0.0658835 0.087695554 -0.17133981 -0.23772836 0.27887148
-0.099297054 -0.29525793 -0.034620523 0.012236008 -0.21671769 -0.01789194 0.018609235 -0.29535764
0.09273747 -0.68990177 -0.21083428 0.12203404 -0.007666098 -0.12956737 -0.091116026 -0.08055493
-0.037207708 0.42990652 0.21309958 0.0070444937 -0.07100963 -0.02084903 -0.07258399 0.0402088

network.4.bias f4 [64]
00000000: c103 9abe bfe0 9b3f cac0 963d ff6b df3e
00000010: 4359 b8bd 9322 02be 3386 7f3e a7b1 183f
00000020: f02e e63e 8fa8 0cbf 2e49 69bd 19b6 9dbe
00000030: 3721 a7bd a1ad 5ebe 2878 9abe 7ff1 a23f
00000040: aa7a ccbc 8bde 3abf 40c8 94be a469 39bd
00000050: dbcd a2bc d74f 16be 94af 1ebe 75b0 e7bd
00000060: f909 c7bd a8bf d0be 1635 793e f8bb ebbe
00000070: b67e 773f 67d0 9bbe 15db 48be 2b0e a13d
00000080: 9e88 c838 13d5 a53f 4677 9bbd 9bc9 79bb
00000090: d37e 3f3d a300 8ebd 2924 1d3f efc1 353f
000000a0: 1d87 f7be dfae e53e d0d2 443f fecc d53d
000000b0: 1b52 98be a529 ab3e 3b9d 09be 1468 8dbe
000000c0: 44bb 17bf 33fb 12bf 4b0c b2be 6c88 e7be
000000d0: db5c 84be 5168 1cbe 4baf 9c3e 6f00 30be
000000e0: 1fca d6bc 23ab 423f 45eb 1f3f 050f 99bd
000000f0: db2b 05be 08b8 83be fb2d febe f492 8ebe
-0.3008099 1.2177962 0.0736099 0.43637082 -0.090014 -0.12708502 0.24953537 0.59646076
0.44957685 -0.549447 -0.056954555 -0.30802992 -0.08160632 -0.21745922 -0.30169797 1.2729949
-0.024960835 -0.72995824 -0.2905903 -0.045266762 -0.01987355 -0.14678894 -0.15496665 -0.113129534
-0.09718699 -0.40771222 0.24336657 -0.46041846 0.9667772 -0.30432436 -0.19614823 0.078640305
9.56219e-05 1.295565 -0.07591109 -0.003811455 0.04675181 -0.06933715 0.613833 0.70999044
-0.4834527 0.4485998 0.76884174 0.1043949 -0.29750142 0.3343021 -0.13438885 -0.27618468
-0.5927012 -0.5741455 -0.34775004 -0.4522127 -0.25852093 -0.15274169 0.30602488 -0.17187665
-0.026219426 0.76042384 0.6246837 -0.07473568 -0.13005011 -0.25726342 -0.49644455 -0.2784649

network.6.weight f4 [64, 64, 3]
00000000: 7229 8b3c 22b6 33bd 8e3c 2fbd 4ab1 753e
00000010: 7a7d 9c3e 8401 de3c c3dd f23a 87fe 27be
00000020: cc96 6bbc d197 703d 3065 c5be dc7e 903d
00000030: 0e57 6c3c feff 5b3d 00d2 4c3c 0421 2fbd
00000040: d227 c53d 18de 61bc 57c3 2ebe 9886 cc3b
00000050: b0ef 9a3c e587 d9be 8d73 22bf 1eb4 80bd
00000060: 4e4d 2ebe c9dc 0cbe c0e7 7a3d 8a69 493e
00000070: 9205 833e 3429 7e3d 2123 00bc d856 d03d
00000080: 282f 00bc 12b5 d73d 490d 9b3d 4858 02bd
00000090: e7fe 6d3e 92a8 823d 307c 423d 10b4 34be
000000a0: b886 0d3e 6087 ba3c e25e 99be f9c3 893e
000000b0: 1841 fabc c5ae f2be a134 ac3c 39cc 75bd
000000c0: 348e 09bd e36b a6bd ae69 2f3d 12d4 fe3e
000000d0: 7cfb a1be 0081 adb9 00b2 a5be a2d1 5f3d
000000e0: ee9e 34bd 4ee4 acbd 2ec7 cd3d 0060 093a
000000f0: 182c abbd b9e8 23be d1c4 12bd bc5e 2cbc
00000100: a24e 7d3e b4c6 403d b98b 303d b1a0 1c3d
00000110: 2460 813d 62dd 1e3c f5ce 9a3e c0cc a63b
00000120: 254e 37be 360a eabc 2c08 783d 66f7 27be
00000130: 0044 223e 0590 8fbd f7cb cd3e 3e54 c23d
00000140: 2817 f0bc 93db 433e 4772 f63e 34b3 77bc
00000150: 8d40 02bf b519 be3d b0ac 32bc 2c5e 6e3e
00000160: eba8 35be 9c80 703d 9112 b8be c7a5 ed3d
00000170: 4d9e 81bd 06c3 c13d 2ad2 03be 561f 61bd
00000180: f53a f03e 0135 da3e d014 06bc 3ea5 ce3d
00000190: dbd8 963e aa53 4cbd ce03 9f3b abd9 8cbc
000001a0: 202e f9bb 49bc 58be 1af7 a7be 9812 053d
000001b0: da65 9b3e 382b 84be 92f1 4b3d a75e 72be
000001c0: 66e2 643e bc61 3abd 7295 0dbf 3b3e c7be
000001d0: d01c bebb 0822 d3be f9ff 963e 74be 3ebd
000001e0: d7b2 3b3f 7c23 5a3e 80c3 173c 0365 f9be
000001f0: 54ab 77be cca3 ecbc fad4 cc3e c76b 673e
00000200: 204a 83bd 2b28 19be 370c 073e 3667 bdbc
00000210: cdbc 97be 23da 0d3e 542e 683d 9f91 ff3b
00000220: dbd5 443e 7615 b8bc 00dc 163f aa33 2a3e
00000230: 765d 10bd afe6 a63d 0fff fabb 80bf 183c
00000240: 4817 d83e ad29 e03e 409e 1c3d 8e5f c93d
00000250: 3f14 3f3d 4523 86bd 9893 273f 7b45 d73d
00000260: 51b4 83bd 0851 323f 4b91 823c d269 833d
00000270: fae5 4c3f 08ac 73be 8cbb c8bc df31 9b3e
00000280: 2100 ab3e c4db 243d 5558 903d c924 413f
00000290: 78a5 be3c 36db c8be 4584 183f 5020 c8bb
000002a0: 8ac0 b2bd a472 6cbd 08bb bb3c 6990 c2bd
000002b0: e3db 943e 3493 503d 7c23 c5be a51e e33e
000002c0: 985d 8b3d d098 073f 7dc9 8dbe 0acb 243d
000002d0: 51f2 cbbe cac3 eebc 98b7 12bd 101a 2b3f
000002e0: bb6f bfbd 00be ccbc 2271 afbc e4b1 06bc
000002f0: 28da 53bc 5b9c 78be 4800 c2bd e036 713b
00000300: 2abf 8c3b 2008 d53e 1056 903d 66a6 74be
00000310: e5fb a03e aafb 8c3d b6d9 83bd a690 793e
00000320: 401a 623b e1a2 38bb 381e 503e 48de dd3c
00000330: 645a 9b3d bfb1 87bd 181f 32bc f1c9 fcbc
00000340: 23fd 8dbd 5cf3 4e3d c51c 8abe ddcb 63bd
00000350: a80b 7a3d 35a5 823f db99 ae3e 74f0 bf3c
00000360: 492f d23c 10f3 06bf 00f8 0138 68c9 34be
00000370: b42c 0f3e 387a eb3c e9a1 b43e d90c 5e3e
00000380: a80f 3d3d 4e8b 713d c690 2a3e 4891 43bc
00000390: 41ea 543c 8f6e 68be 3891 73bc 1559 bfbe
000003a0: a2f7 d43e c033 bf3c 2921 62be f729 e73c
000003b0: ca53 b4bc 9335 93be e471 3abe 68e9 583d
000003c0: 2ac6 c1bc 0098 c3bc d352 85bd cb27 903e
000003d0: cd0c 0cbd 7024 ed3b b196 5d3d f786 753d
000003e0: ac44 8e3c 5594 3d3d 218b 803b 341a 723d
000003f0: b67a ecbd 9502 c1bd 2660 28bd a50a 463e
0.016987536 -0.043874867 -0.04278236 0.23993412 0.3056448 0.027100332 0.0018529225 -0.16405688
-0.0143792145 0.058738533 -0.38553762 0.070554465 0.014425052 0.05371093 0.01250124 -0.042756096
0.09626736 -0.013785861 -0.17066704 0.0062416308 0.01891312 -0.42486492 -0.63457566 -0.062843546
-0.17021677 -0.13756098 0.06125617 0.19669166 0.25590187 0.062051013 -0.007820875 0.10172814
-0.007823743 0.10532583 0.07570893 -0.031822473 0.23241769 0.063798085 0.047481716 -0.17646813
0.13820922 0.02276963 -0.29955202 0.26907328 -0.030548617 -0.47398964 0.02102119 -0.060009215
-0.03358288 -0.081260465 0.042825393 0.49771172 -0.3163718 -0.00033093244 -0.32362366 0.05464328
-0.04409688 -0.08441983 0.10047756 0.00052404404 -0.083580196 -0.16006745 -0.03583223 -0.010520633
0.24737027 0.047064498 0.043102 0.038239185 0.063171655 0.009696336 0.3023602 0.005090326
-0.17900904 -0.028569322 0.06055467 -0.16402969 0.15846252 -0.070098914 0.40194675 0.09488724
-0.029307917 0.1912673 0.48134062 -0.015118409 -0.50879747 0.09282247 -0.01090543 0.23278111
-0.17740218 0.0587164 -0.35951665 0.11603885 -0.063290216 0.09461026 -0.1287314 -0.054961525
0.4691998 0.42618564 -0.008183673 0.10090111 0.29462323 -0.049884476 0.0048527485 -0.017193636
-0.0076043755 -0.21165575 -0.3280571 0.032488436 0.30351144 -0.25814223 0.049790926 -0.2366892
0.22351989 -0.045503363 -0.5530616 -0.38914666 -0.0058017746 -0.412369 0.29492167 -0.04656835
0.7331976 0.21302599 0.009262919 -0.48709878 -0.2418645 -0.028886698 0.40006238 0.22599708
-0.064106226 -0.14956729 0.13188253 -0.023120504 -0.2963623 0.13852744 0.056684807 0.007799342
0.19222204 -0.02247117 0.58929443 0.16621271 -0.03524538 0.08149468 -0.0076598 0.009323001
0.42205262 0.43781796 0.038236856 0.09832679 0.046650168 -0.06549696 0.65459585 0.10511299
-0.06430877 0.69654894 0.015938422 0.06416668 0.80038416 -0.23796093 -0.024503492 0.30311486
0.33398536 0.040248647 0.07048098 0.75446755 0.023272261 -0.39229745 0.5957683 -0.0061073676
-0.0872813 -0.057726517 0.022916332 -0.095002 0.2907401 0.050921634 -0.38503635 0.44359317
0.06804961 0.5296755 -0.27692786 0.040232696 -0.3983331 -0.029146094 -0.03581962 0.66836643
-0.09347483 -0.024992943 -0.02141625 -0.008221123 -0.0129304305 -0.24278395 -0.0947271 0.003680639
0.0042952495 0.4160776 0.07047665 -0.23891601 0.3144218 0.068839386 -0.064380094 0.24371585
0.003450051 -0.0028173255 0.20324028 0.027083531 0.075856 -0.06625699 -0.010871671 -0.030858012
-0.069330476 0.050525054 -0.26975074 -0.05561434 0.061046273 1.0206667 0.34101757 0.023430087
0.025657313 -0.52714634 3.0986965e-05 -0.17654955 0.13981897 0.028744802 0.35279778 0.21684588
0.04615751 0.058970742 0.16656789 -0.011936493 0.012995304 -0.22698425 -0.014866166 -0.37372652
0.4159518 0.023340106 -0.22082962 0.028218253 -0.02201261 -0.2875181 -0.18207508 0.05295697
-0.023654062 -0.02387619 -0.06509938 0.2815536 -0.034191895 0.0072370097 0.05409879 0.059943166
0.01736673 0.04628404 0.0039228355 0.05910702 -0.11546843 -0.094243206 -0.04110732 0.19339998

network.6.bias f4 [64]
00000000: 446b 953f d6e2 de3f 2517 0b40 934b e23f
00000010: 064d 893f 1b36 e0be 8aa8 4a3e ef1f 023f
00000020: 57eb 09bd fc33 0440 9f7d 533e 1656 3f40
00000030: 977d 2c3f 5aea b83f 94e4 1b3d 8f95 4140
00000040: f873 8d3f 516b 4140 563d 513f d181 1b40
00000050: 0888 db3f 1a6b 0a40 4319 a83f 0acf 8bbd
00000060: 96b9 5dbe fa4e 9b3f 45a5 7a3d d8db d73f
00000070: c4ee f83f ec24 d53f c6b9 1bbe 3676 d1bd
00000080: ca98 4c3f 7835 913f a140 db3f 08c3 da3f
00000090: 9d95 643f 385a b63f e858 b93f afa7 e33f
000000a0: bbc2 2c40 fa9f 513e 14c7 a13e ce08 af3f
000000b0: 0c22 a63d 1de8 2040 fd0a de3f ee85 003d
000000c0: d06c 3040 13dd c1bd 986e f53f a67c 3f3f
000000d0: 4527 23bd 4008 2e40 4821 2b40 8ae4 893f
000000e0: 4440 bfbd 3ac5 0340 705e 663f ed8d 1e40
000000f0: 27c0 0a40 29c4 ed3f 171a 2c40 edd1 b7bd
1.167336 1.7412975 2.1732876 1.7679313 1.0726631 -0.4379128 0.19790855 0.50829977
-0.033671703 2.0656729 0.2065339 2.9896293 0.67379135 1.4446518 0.038059786 3.0247533
1.1051016 3.022175 0.81734216 2.4297984 1.7150888 2.162787 1.3132709 -0.06826599
-0.21652827 1.2133477 0.06119277 1.6863966 1.9447865 1.6651893 -0.15207586 -0.10227625
0.7992064 1.1344442 1.7129098 1.7090769 0.8929079 1.4246283 1.4480257 1.7785548
2.6993854 0.20471182 0.31597197 1.3674562 0.08111963 2.514167 1.7347103 0.031377725
2.7566414 -0.09465995 1.9174376 0.74799573 -0.039832372 2.7192535 2.6739063 1.077287
-0.093384296 2.0589128 0.8998785 2.4774125 2.167978 1.8575488 2.6890924 -0.08975587

final.weight f4 [64, 768]
00000000: b48c 4c3d 70e7 173e 9fcd 33be bfd1 a4be
00000010: 1463 6e3f 3114 36bf 1da8 8abe 3012 12bf
00000020: 923d 5e3e f976 96bf e91e f53e 44f1 edbe
00000030: e462 343f 7f8b 84bf a27f 3cbf cf39 ecbe
00000040: c1e8 163f a235 dbbe cfce 35be 6581 f93e
00000050: df56 973d e779 683e 9756 71bf e2cd bb3e
00000060: 2814 70bf 51b9 dbbf 1fa9 113d d656 03bf
00000070: 119c 803f 73df d23d 80b1 24bf a98b c93e
00000080: 8d65 da3e c240 33bf 10eb dfbf a72b edbe
00000090: 7239 c53d eea0 d5be 81eb 013b fe2f 233f
000000a0: 0230 1c3f f3c7 51bf af08 70be 23ab 033f
000000b0: d1bf 963f 973b 4cbe 39ae c5bf 91ad 113f
000000c0: ed08 4e3f 35aa eabe ac5c 3fbe c814 9c3e
000000d0: 0aa7 1abf 99c6 80be c488 5ebf 5357 943f
000000e0: c631 8dbe 5168 2cbf 176f edbe ff80 2cbf
000000f0: 6db0 94bb 4dd1 dc3d afc5 403e 680c cc3e
00000100: 2d56 a8be a021 a3bc 45e3 7a3b a2a6 d93f
00000110: cdb7 983e ae7e 92be 2541 dfbe c616 89be
00000120: 1c59 263e d205 c3be 2bde c1be eb54 19bf
00000130: 1982 a4be 317f a3be 2c1b 88be 65ec 1bbe
00000140: ce80 d93e 68f1 c2bc d099 a03e d522 b6be
00000150: 23bd b5be 1adb 283e a13c 0cbe ef60 f3bd
00000160: 2810 413f f936 813e f6c1 a2be 8003 293f
00000170: c94a 9f3e 67f1 683f edb4 cf3e 72e3 1c3e
00000180: ef33 8bbd 2d29 8f3d 84cf 09bd c057 e93d
00000190: db86 83be 3fbd 173e d408 003e 0c0f 033e
000001a0: 47a0 60bd d125 16be 2d21 57be cf68 c5bd
000001b0: a517 453e 24e1 f63e f63e 1fbe 9440 4c3e
000001c0: dfd4 3d3c 6a82 0d3f 6291 5cbf dc53 e93e
000001d0: 1688 78be 6bfe ac3e 4c48 d6bf f572 e43f
000001e0: 259c a9bc a107 47be daed 8fbe 22fc b13c
000001f0: 7d11 9ebc 2ebe 423e db79 9fbd b1fc c0bc
00000200: 678c e2bd b65b a33c 4d5a 7abe a338 de3c
00000210: d852 433f 315e 3dbf f6ee 5cbf 8af7 68bf
00000220: 1540 373f 9f8d 46bf f602 69bf a27b be3e
00000230: 9126 2dbf b7bb fcbe d133 5bbf 6497 74be
00000240: d8c3 4b3f d8d4 babf 038c 2dbf 9372 cf3d
00000250: b74f 363f eac9 28bf 45c3 07bf e71a 05bf
00000260: 72fc 9e3f c821 f5bf 134a 6fc0 185b 823f
00000270: 11b0 c9be 5751 0b3f d90e 77bf 0996 853e
00000280: ef05 633f 1e5f a6bd 67f2 bb3e cae7 2d3f
00000290: 69cf 673e 0e00 9b3e c96e 1abf 20e1 4bbe
000002a0: 1018 0ebd c4c7 c1bc 0845 413b ff38 2a3d
000002b0: 37cd 82bd bf1d 943d aa3b f33d d2bb c1bd
000002c0: bc35 fbbd fb86 f9bd 3f50 063d c771 ec3c
000002d0: c354 f7be a93e 4c3e 13d8 31be e2cb 0d3f
000002e0: 5260 fbbd 4a0c 293d dced 4ebb 90ae 1a3f
000002f0: e61f 9c3f 5da8 d4be 27ba abbf 3dbd 9c3f
00000300: ab0b 543e 6801 17bf fe24 a13e cbd6 ecbe
00000310: de94 643f 63d1 9cbe c6e4 15c0 50b0 8a3f
00000320: 7d32 b93e 04af c8be d16e 36bf 346f 493c
00000330: b018 cf3e e62f ad3d a464 2bbf e0e7 363d
00000340: 22f4 583f 51e5 123e 7b56 a93f 958d b13e
00000350: bd25 913f dc11 523e 97b9 cabf 523a bfbd
00000360: 0b4e bd3e 9dce 0f3e cda2 613e fdc2 ab3d
00000370: a0be 9bbe 5fc6 433e a1f8 853e f8d8 5c3f
00000380: 0bad fc3e b48c 64bf 2943 02c0 ba23 4dbf
00000390: f1ed ae3d 6102 193e 13d1 c93e 31be 193e
000003a0: 1f2b 6f3f 9d7a c4be d64c 4f3e 44e5 753f
000003b0: 8a34 fe3e fff2 26be a926 e5bf b623 6fbe
000003c0: 0ba0 a13d 2ad8 07be 5e1c 15bb 7fd2 78be
000003d0: 2957 143e f6b9 a2bc c64f 00bf 0bfc 483f
000003e0: 2bcf 333e b6ac bbbd 4528 7e3d 4df8 013f
000003f0: 1bae 993f 3977 4dbf 9026 273f bcd0 ccbd
0.049938872 0.1483438 -0.17558907 -0.32191274 0.9311993 -0.7112456 -0.27081385 -0.57059
0.21703175 -1.1755058 0.47875145 -0.46473134 0.70463395 -1.0355071 -0.7363225 -0.46137854
0.58948904 -0.42814356 -0.17754672 0.48731533 0.07389616 0.22702752 -0.9427275 0.36680514
-0.93780756 -1.7165929 0.035561677 -0.51304376 1.0047628 0.10296526 -0.64333344 0.39364365
0.42655602 -0.7002069 -1.749361 -0.46322367 0.096300974 -0.41724342 0.001982421 0.63745105
0.61010754 -0.81945723 -0.23440813 0.5143301 1.1777288 -0.19944607 -1.5443794 0.56905466
0.8048237 -0.45832983 -0.18687695 0.30484605 -0.6041113 -0.25151518 -0.8692744 1.1589149
-0.27577037 -0.67346674 -0.46373817 -0.6738433 -0.004537633 0.107821085 0.1882541 0.39853215
-0.32878247 -0.019913495 0.0038282436 1.7003977 0.2982773 -0.28612274 -0.4360439 -0.26775187
0.1624493 -0.38090378 -0.37864813 -0.598952 -0.32130507 -0.31932977 -0.2658323 -0.15226896
0.42481083 -0.023796752 0.3136735 -0.3557345 -0.35495862 0.1648983 -0.13695003 -0.11883723
0.7541528 0.25237253 -0.31788605 0.66020966 0.31111744 0.9099335 0.40567723 0.15321139
-0.06797015 0.069902755 -0.033645168 0.1139369 -0.25688824 0.14818285 0.12503368 0.12798709
-0.054840352 -0.14662863 -0.2100875 -0.09639131 0.19247301 0.48218644 -0.15551361 0.1994651
0.011586397 0.5527712 -0.86159337 0.45571792 -0.24270663 0.33787856 -1.6740813 1.7847582
-0.020704338 -0.19436504 -0.28111154 0.021726672 -0.019295448 0.1901786 -0.07786914 -0.023557993
-0.11061936 0.019941192 -0.2444851 0.027126616 0.76298285 -0.7397185 -0.86302125 -0.91002715
0.71582156 -0.77559847 -0.91020143 0.372037 -0.6763697 -0.49361965 -0.8562594 -0.23885876
0.7959571 -1.4596205 -0.67791766 0.10129275 0.71215385 -0.65933096 -0.5303233 -0.51994175
1.242079 -1.9150934 -3.7388961 1.018405 -0.3939214 0.5442099 -0.9650703 0.2609103
0.8868093 -0.08123611 0.36708376 0.6793181 0.22637714 0.3027348 -0.60325295 -0.19910097
-0.034690917 -0.023654826 0.0029490609 0.041558262 -0.06386798 0.07232236 0.118766144 -0.09459652
-0.122661084 -0.121839486 0.032791372 0.028862847 -0.48306856 0.19945778 -0.17367582 0.55389225
-0.12274231 0.041271485 -0.003157488 0.6042261 1.2197235 -0.415347 -1.3416184 1.2245251
0.20707576 -0.5898652 0.31473535 -0.46257624 0.89289653 -0.306285 -2.3420882 1.0835056
0.36171332 -0.39196026 -0.7126284 0.012294579 0.40448523 0.084564015 -0.6695044 0.044654727
0.8474752 0.1434529 1.3229517 0.3467833 1.1339642 0.20514625 -1.5837888 -0.093372956
0.36973605 0.1404366 0.2203476 0.083868004 -0.30418873 0.19118641 0.2616625 0.8626857
0.4935077 -0.89277196 -2.0353491 -0.8013264 0.085414775 0.14942314 0.39417323 0.15013959
0.9342517 -0.38374797 0.20244154 0.96052957 0.4964946 -0.16303633 -1.7902423 -0.23353466
0.07891854 -0.13266054 -0.0022752504 -0.24299048 0.14486374 -0.019864064 -0.50121725 0.7850959
0.17559497 -0.09163801 0.062050123 0.507695 1.2006258 -0.80260044 0.65293217 -0.100007504

final.bias f4 [64]
00000000: a860 093c 611d 87bc a244 fdbc 7026 413c
00000010: 8405 9c3c da3c 9cbc cc8a e43c 0bf7 07bd
00000020: 5e94 21bc 7863 c1bc 747a 453c 0481 2cbc
00000030: 1542 06bd da27 c73c 9487 c23c 7c36 f93c
00000040: 6615 a83c 4c5a f53c 960c 0fbc 7c74 143c
00000050: dedd 82bc 209d 80bb 6eb2 d5bc ca33 25bc
00000060: 8442 df3c e4c6 e9bc 5661 64bc 2cd5 0a3c
00000070: a4fc 143c d247 a53c 8896 8fbb 5e4e 063d
00000080: e4ed 323c 8468 743c 908c 4c3c e775 ecbc
00000090: a8f6 8b3c 6f3c 81bc 6ca7 f73c 9e1d 22bc
000000a0: 0b66 9ebc 282f 77bc 6359 dfbc 4ae4 97bc
000000b0: 1c62 a3bb 3a64 4fbc feac 00bd 90ed de3b
000000c0: c02b 9a3b 1092 febc 9ae6 0cbd d2f6 08bc
000000d0: 41d1 0cbd 5a49 fdbc 12af 21bc fa9d 06bd
000000e0: e0d9 35bb eae4 b4bc aeca b5bc fca0 0a3d
000000f0: 1cde 6f3c 948d e1bc 766d 8a3c 9ff7 07bd
0.008384861 -0.016493501 -0.030916516 0.011788949 0.019045599 -0.019071985 0.027898215 -0.033194583
-0.009862034 -0.023607 0.012053121 -0.010528807 -0.032777864 0.024310995 0.02374629 0.030421488
0.020518016 0.029950283 -0.008731028 0.009060975 -0.015974935 -0.0039249808 -0.026086058 -0.010083148
0.027253397 -0.028537221 -0.013939222 0.008473676 0.009093437 0.020175848 -0.0043819584 0.03278958
0.010920975 0.014917497 0.012484685 -0.028864814 0.017085388 -0.015775887 0.0302312 -0.009894757
-0.019335767 -0.0150869265 -0.027264303 -0.018541474 -0.004986061 -0.012658173 -0.03141498 0.006803222
0.0047049224 -0.031075507 -0.034399606 -0.008359628 -0.034379248 -0.030918766 -0.0098684 -0.032865502
-0.0027748272 -0.022081811 -0.022191372 0.033844933 0.014640357 -0.02753333 0.016897898 -0.033195134
