ckpt/causalcnn_finetune_los.pt (torch, 197922 bytes, 12 tensors)

network.0.weight f4 [64, 18, 3]
0	0x3cb4a96e	0.022053447
1	0x3d855c54	0.06511751
2	0xbd8bc839	-0.06825299
3	0x3c300de2	0.010745497
4	0x3c9cbdcc	0.019133471
5	0xbcc20eb4	-0.023688652
6	0xbda370b0	-0.07980478
7	0xbd256497	-0.040379133
8	0x3bb3f985	0.0054923915
9	0xbe2d183a	-0.16903773
10	0xbdcd6279	-0.10028548
11	0x3cbbd20b	0.022927305
12	0xbd703818	-0.058647245
13	0x3dad1abb	0.08452364
14	0xbd199593	-0.03749616
15	0xbd187efe	-0.037230484
16	0xbd5b54ad	-0.05354755
17	0xbe2ff66d	-0.17183848
18	0x3e3fee34	0.18743211
19	0x3d2b3753	0.04180081
20	0xbd52ed39	-0.051495764
21	0xbdad413b	-0.08459707
22	0xbd4a3292	-0.049364634
23	0xbdfef7d6	-0.12449615
24	0x3d16fd44	0.036862627
25	0xbd22e6e2	-0.03977097
26	0xbdab0ac6	-0.08351664
27	0x3c5f3f0f	0.013625874
28	0xbe017733	-0.12643127
29	0x3dcd2dc3	0.10018494
30	0x3d94ac9c	0.07259485
31	0xbe230fe0	-0.15924025
32	0xbd0826ad	-0.03324001
33	0xbdafe498	-0.08588523
34	0xbe06d816	-0.13168368
35	0xbd864fc6	-0.06558184
36	0xbc0f1650	-0.008733347
37	0xbd5626b2	-0.052282996
38	0x3cc8215d	0.024429971
39	0xbd706932	-0.058694072
40	0xbe2e5462	-0.17024377
41	0xbc910e77	-0.017707093
42	0x3d950799	0.0727684
43	0xbd1aba14	-0.037775114
44	0x3db81dbf	0.089900486
45	0x3be6eea3	0.0070474907
46	0xbbfb4d39	-0.007669118
47	0x3dc7b183	0.097506545
48	0xbe3200fd	-0.1738319
49	0x3da1b935	0.078966536
50	0x3e2f4310	0.17115426
51	0xbdafd4e4	-0.085855275
52	0x3de7ae73	0.113125704
53	0xbd358164	-0.04431285
54	0xbe50a942	-0.20377067
55	0xbe0972c0	-0.1342268
56	0x3c74c86e	0.014940364
57	0xbb05352b	-0.002032588
58	0xbd671625	-0.056417603
59	0xbd973dc5	-0.073848285
60	0xbbf809dd	-0.007569535
61	0xbdb13314	-0.086523205
62	0xbcc493f3	-0.023996329
63	0xbd88e1de	-0.06683706
64	0x3da05019	0.078277774
65	0xbdda37eb	-0.10655197
66	0xbc200e35	-0.009769012
67	0x3d987154	0.074434906
68	0x3d8d1b2c	0.06889948
69	0x3db7ebf9	0.08980555
70	0x3dc5c358	0.096563995
71	0x3bb42eea	0.0054987567
72	0x3d8c8397	0.06861036
73	0x3def85f9	0.11695475
74	0x3d992a2b	0.07478746
75	0x3ceec633	0.029147243
76	0x3a99e7bc	0.0011742036
77	0xbd86102b	-0.065460525
78	0xbdf11fce	-0.117736444
79	0x3d3f9de1	0.046781424
80	0xbd518d9e	-0.051160447
81	0xbe27b50f	-0.16377662
82	0xbdd6dbe2	-0.10491158
83	0x3e01ea66	0.12687072
84	0x3db60962	0.088885084
85	0x3dfa3bd0	0.122184396
86	0xbdf93719	-0.12168712
87	0x3dbc0b43	0.091818355
88	0xbd5d52a0	-0.054033875
89	0x3d86e078	0.06585783
90	0xbe389d1a	-0.1802868
91	0xbd6bfb5e	-0.05761277
92	0x3c69b2fb	0.014263864
93	0xbca5ccc0	-0.020239234
94	0x3dfb0d68	0.122584164
95	0x3d7aa02f	0.06118792
96	0x3dffa38f	0.12482368
97	0x3dd29acf	0.10283434
98	0x3e31627b	0.17322724
99	0x3dd4acbb	0.10384508
100	0x3db5152f	0.08841931
101	0x3e080e6b	0.1328675
102	0x3cd70fc3	0.026252633
103	0x3d9a666d	0.075390674
104	0x3da601b4	0.081057936
105	0xbe0ff7f2	-0.14059427
106	0x3d3f587a	0.046715237
107	0x3e084dfa	0.13310996
108	0x3daa79b7	0.083239965
109	0xbac5a07c	-0.0015077735
110	0xbe3b18cb	-0.18271177
111	0xbda827fd	-0.08210752
112	0xbd573286	-0.052538417
113	0xbb1d39a2	-0.002399065
114	0x3d89ce76	0.067288324
115	0x3e0fb097	0.14032207
116	0x3e342530	0.17592311
117	0xbcfb68a0	-0.030689538
118	0xbd9bb48d	-0.07602797
119	0x3c9e36b6	0.019313198
120	0x3d9c2747	0.07624679
121	0x3c507d13	0.0127251325
122	0xbdb8a293	-0.090153836
123	0x3d21d088	0.03950551
124	0xbe4dbe00	-0.2009201
125	0xbd3eef24	-0.04661478
126	0xbc647b5a	-0.013945425
127	0x3d93b69c	0.07212564
128	0x3e23510b	0.15948884
129	0xbe5aa125	-0.21350534
130	0xbd4e465e	-0.050360076
131	0xbe28e3f6	-0.1649321
132	0x3e250fc5	0.16119297
133	0xbd7e9dca	-0.062162198
134	0xbde0c2af	-0.10974633
135	0x3e197cb8	0.14988983
136	0x3dc53355	0.096289314
137	0x3def2a66	0.11678009
138	0x3e2474be	0.16060159
139	0x3e25fdca	0.16210094
140	0xba1f3e4d	-0.0006074652
141	0x3e9560d2	0.2917543
142	0xbd24753a	-0.04015086
143	0x3d07eb9d	0.033183683
144	0xbcd21ab9	-0.025647508
145	0x3d95b5d6	0.07310073
146	0x3bddb725	0.0067662173
147	0x3e081335	0.13288577
148	0x3d27ce08	0.04096797
149	0x3da51a01	0.080616005
150	0xbda939f3	-0.08263006
151	0xbd8ea084	-0.0696421
152	0xbd56b116	-0.052414976
153	0xbcc63817	-0.024196668
154	0xbdfc519b	-0.123202525
155	0xbe4b7169	-0.19867481
156	0x3e3d4fc1	0.18487455
157	0xbb50b7eb	-0.0031847905
158	0x3dc104b7	0.094247274
159	0xbd706bf9	-0.05869672
160	0xbe2a732b	-0.16645496
161	0x3e09ac89	0.13444723
162	0xbdbaa018	-0.09112567
163	0xbe09e559	-0.13466395
164	0xbd95a2f6	-0.07306473
165	0x3c937960	0.018002212
166	0x3e0216de	0.12704036
167	0x3de03dce	0.10949288
168	0xbd1b99fe	-0.037988655
169	0x3e0a5ca2	0.13511899
170	0xbd843213	-0.064548634
171	0xbdbdb965	-0.09263877
172	0xbdef904b	-0.116974436
173	0xbd893f4e	-0.067015275
174	0x3ce99b20	0.028516352
175	0x3dae66cc	0.08515701
176	0xbe091971	-0.13388611
177	0xbdb7b080	-0.089692116
178	0xbde885f8	-0.113536775
179	0xbdade452	-0.08490814
180	0xbdfeff96	-0.12451093
181	0xbd113b9e	-0.035457246
182	0x3d9b5848	0.07585198
183	0x3d20aa3c	0.03922485
184	0xbd794210	-0.060854018
185	0x3db1ab10	0.08675206
186	0x3e05858c	0.13039225
187	0xbd502b2c	-0.050822422
188	0xbdf147eb	-0.117812954
189	0x3d9e8dfc	0.07741925
190	0xbdabee4e	-0.083950624
191	0xbd20160e	-0.039083533
192	0x3d7d892c	0.061898395
193	0x3d175790	0.03694874
194	0xbddf9043	-0.109161876
195	0x3dbabf42	0.09118511
196	0xbded1d8a	-0.115779
197	0xbdc9b9f2	-0.098499194
198	0xbd81e139	-0.06341786
199	0xb9e5ae00	-0.00043807924
200	0x3d965082	0.073395744
201	0x3dc630f8	0.09677309
202	0x3d0be0b8	0.034149855
203	0x3dbcd8d0	0.09221041
204	0x3dd303f6	0.1030349
205	0x3dc1c498	0.094613254
206	0x3e080f86	0.13287172
207	0xbe007c48	-0.1254741
208	0x3dd3992a	0.10331948
209	0x3d604450	0.054752648
210	0xbdc4a660	-0.09602046
211	0x3d862cd6	0.065515205
212	0xbac46900	-0.0014984906
213	0x3d06a698	0.03287372
214	0xbd49c32a	-0.04925839
215	0xbce2b16c	-0.027672492
216	0xbca95bbf	-0.02067363
217	0xbe0e597a	-0.1390132
218	0xbd851d67	-0.06499749
219	0xbd824b37	-0.06362002
220	0xbe19ec01	-0.15031435
221	0xbdbc6bec	-0.09200272
222	0xbe29f53d	-0.16597457
223	0x3d8c1461	0.068398245
224	0x3d51b30f	0.051196154
225	0xbc79ee9f	-0.015254646
226	0x3d39cd40	0.045361757
227	0xbdf4b579	-0.11948676
228	0xbd000d5b	-0.031262737
229	0x3d32f672	0.04369206
230	0x3dab04eb	0.083505474
231	0xbe0d9d57	-0.13829552
232	0x3d94eb2d	0.07271419
233	0x3bd695ce	0.00654862
234	0xbd4043fc	-0.046939835
235	0x3da79b2f	0.08183896
236	0xbc3ff580	-0.011716247
237	0x3d676a0b	0.056497615
238	0x3d00552b	0.031331223
239	0xbd971ca6	-0.07378511
240	0xbe13f8fd	-0.1445045
241	0xbe293c3f	-0.16526888
242	0xbbd85d15	-0.006602893
243	0xbe11d15c	-0.1424002
244	0xbdd97948	-0.10618836
245	0xbde3ae38	-0.11117214
246	0xbcd391d0	-0.025826365
247	0xbdcb259c	-0.09919283
248	0x3d86cdcc	0.065822214
249	0xbd90bf97	-0.07067793
250	0x3d754b73	0.059886407
251	0xbe00be47	-0.12572585
252	0xbd8e2332	-0.06940307
253	0xbe344b36	-0.17606816
254	0x3dc25c54	0.094902664
255	0x3dee2430	0.11627996

network.0.bias f4 [64]
0	0xbd5ff21b	-0.05467425
1	0xbe1d5bba	-0.15367022
2	0x3c16e7d4	0.009210546
3	0xbcbbe358	-0.022935554
4	0xbd90ad46	-0.07064299
5	0x3d8e1f24	0.06939533
6	0xbc8b94aa	-0.017038662
7	0x3e8b8ade	0.27254385
8	0xbd6c847d	-0.05774354
9	0x3e0b1ea5	0.13585909
10	0x3dce9130	0.10086286
11	0xbd2a8727	-0.041632798
12	0x3cd3f5cc	0.025874041
13	0xbd3e0876	-0.046394788
14	0xbd975397	-0.0738899
15	0xbcdab301	-0.026696684
16	0x3e0eef04	0.13958365
17	0x3cf56bc9	0.029958623
18	0x3db5202c	0.08844027
19	0x3d99cadc	0.075093955
20	0xbd656a18	-0.056009382
21	0xbdaacd7b	-0.083399735
22	0x3d0851fa	0.033281304
23	0x3e1d8a1c	0.15384716
24	0xbd36124b	-0.04445104
25	0xbe235d1f	-0.15953492
26	0x3d476589	0.048680816
27	0xbd88c63a	-0.06678434
28	0xbda709e4	-0.08156183
29	0xbe460298	-0.19336927
30	0x3c64f5da	0.013974631
31	0x3db4c0d8	0.088258445
32	0xbc2c1467	-0.010502911
33	0xbda38555	-0.079844154
34	0x3abc953e	0.0014387739
35	0xbdada428	-0.08478576
36	0x3d4d3095	0.05009516
37	0xbe1e3219	-0.15448798
38	0xbd699174	-0.05702348
39	0x3d8c1036	0.068390295
40	0x3e475559	0.19466151
41	0xbd260136	-0.0405285
42	0xbd1b2903	-0.03788091
43	0xbd8e8121	-0.06958223
44	0x3e0cfa9a	0.13767472
45	0x3c89dcaa	0.016828854
46	0x3c328943	0.010896984
47	0xbe287d52	-0.16454056
48	0x3dbdd167	0.09268456
49	0x3d330fad	0.04371612
50	0xbe1e5a67	-0.15464173
51	0xbdb8f109	-0.09030349
52	0xbde899c7	-0.11357456
53	0xbd87215a	-0.06598158
54	0x3d37acf5	0.04484268
55	0xbd974aeb	-0.07387336
56	0xbc24e41f	-0.010064154
57	0x3e0c416e	0.13696834
58	0xbd1c2476	-0.03812071
59	0xbdb61a1b	-0.08891698
60	0xbcc3a608	-0.02388288
61	0xbdb06979	-0.08613867
62	0xbcc38bc2	-0.023870353
63	0x3dd609a2	0.10451056

network.2.weight f4 [64, 64, 3]
0	0x3d1d6f8d	0.03843646
1	0xbdadbc6c	-0.08483204
2	0xbdb3407e	-0.08752535
3	0xbd99bf85	-0.075072326
4	0x3c52ad67	0.012858725
5	0x3d20b328	0.039233357
6	0xbd1acdb7	-0.03779384
7	0x3c78d3d8	0.015187226
8	0xbd2ba072	-0.04190106
9	0xbd4cef34	-0.05003281
10	0xbd88e326	-0.0668395
11	0xbd314d0c	-0.04328637
12	0x3cc69e16	0.024245303
13	0xbc6183ee	-0.013764365
14	0xbd832ea8	-0.06405383
15	0xbdd95f85	-0.10613922
16	0x3d16dd33	0.036832046
17	0x3d4da45c	0.050205573
18	0x3d7de8f7	0.06198975
19	0xbd35f2f0	-0.044421136
20	0xbcd224b8	-0.025652274
21	0xbc448687	-0.011994964
22	0x3bf3463e	0.007424145
23	0xbcffec6d	-0.031240666
24	0x3cd76b64	0.026296325
25	0xbde0f515	-0.10984246
26	0xbd7358ee	-0.05941098
27	0xbc5ec21f	-0.013596087
28	0xbcda1de3	-0.02662558
29	0xbb834287	-0.0040057334
30	0xbd2c8dc1	-0.042127375
31	0x3cbbc0f1	0.02291915
32	0xbd3e7976	-0.046502553
33	0xbe0abf37	-0.13549505
34	0x3c985698	0.018595979
35	0xbd00306d	-0.031296182
36	0xbda518c0	-0.08061361
37	0xbd2dbe25	-0.042417664
38	0xbd8372ed	-0.06418405
39	0xbd1cbf73	-0.038268518
40	0xbd971953	-0.07377877
41	0xbd3a5ded	-0.04549973
42	0xbd418ec8	-0.047255307
43	0xbb28a320	-0.0025731996
44	0xbceb2694	-0.028704919
45	0xbd0dd877	-0.034630265
46	0x3d7627a4	0.060096398
47	0xbd751a0e	-0.0598393
48	0xbd117061	-0.035507564
49	0xbd98212c	-0.07428202
50	0xbdb6c1f7	-0.089237146
51	0xbd345251	-0.044023816
52	0xbda1191b	-0.078661166
53	0x3a76a833	0.0009409219
54	0xbd196063	-0.037445437
55	0xbdbf68be	-0.0934615
56	0xbd747591	-0.059682433
57	0xbd1ba923	-0.0380031
58	0xbc21b3db	-0.009869541
59	0xbd2ca9d2	-0.04215414
60	0x3bc36307	0.0059627327
61	0xbdab53aa	-0.08365567
62	0x3d012f62	0.03153933
63	0xbcb44644	-0.022006162
64	0xbd0609b5	-0.0327241
65	0xbd84b1f2	-0.06479253
66	0xbd48fea3	-0.049070965
67	0xbcd098d6	-0.025463503
68	0x3a36030e	0.0006943204
69	0xbda102d9	-0.07861871
70	0xbcf40db8	-0.029791698
71	0xbd1ddfe0	-0.038543582
72	0xbd3ac7e5	-0.04560079
73	0xbd4c3c54	-0.04986222
74	0x3d671f47	0.056426313
75	0x3d595e14	0.053068236
76	0xbd5651b8	-0.052324027
77	0xbb664d20	-0.0035141185
78	0xbd811b37	-0.06304019
79	0xbd766e71	-0.06016392
80	0x3c6524e8	0.01398585
81	0x3cf61635	0.030039886
82	0xbd6fc795	-0.058539946
83	0xbcbd87a6	-0.023135971
84	0x3d2c7850	0.042106926
85	0xbd8d10cb	-0.06887969
86	0x3ca61a98	0.020276353
87	0xbdbab755	-0.09116999
88	0x3c489e57	0.012244782
89	0xbd313f46	-0.043273233
90	0xbde2e244	-0.11078313
91	0xbd7ea7fa	-0.062171914
92	0xbcb8acf1	-0.022543402
93	0xbe18ed6a	-0.14934316
94	0xbbbb21db	-0.005710823
95	0x3c4d4dbe	0.012530742
96	0x3ca340b1	0.019928308
97	0xbd0aad75	-0.033856828
98	0x3d1e91fd	0.038713444
99	0x3bf265ac	0.007397374
100	0xbca870fe	-0.020561691
101	0xbd141128	-0.036149174
102	0x3d232fda	0.039840557
103	0xbd41fac6	-0.047358297
104	0xbdc05bb7	-0.09392493
105	0x3c40f0a2	0.011776121
106	0xbd5b7432	-0.05357761
107	0x3aead277	0.0017915507
108	0xbde56f0b	-0.112028204
109	0x3d06a41d	0.032871354
110	0x3cb98347	0.022645606
111	0xbd078fa1	-0.03309596
112	0x3d4ce732	0.050025173
113	0xbd4ef3da	-0.050525524
114	0xbdcfd51e	-0.10148071
115	0xbd682bd1	-0.05668241
116	0xbd1010a1	-0.03517211
117	0xbdc99764	-0.098433286
118	0xbd52d271	-0.051470224
119	0x3c75b4a7	0.014996684
120	0x3d244dfe	0.04011344
121	0xbd7665ad	-0.06015556
122	0xbc611e16	-0.013740083
123	0xbdc35cbf	-0.09539174
124	0xbd4f7664	-0.050650015
125	0x3c9e6274	0.019334055
126	0xbd530632	-0.05151958
127	0x3c9e84c2	0.019350413
128	0xb9bae5d2	-0.00035647914
129	0x3d858189	0.065188475
130	0x3bd8a4dc	0.0066114496
131	0xbcde5f30	-0.027144998
132	0x3c04ab1c	0.008097436
133	0xbda02993	-0.0782043
134	0xbda214fe	-0.0791416
135	0xbd866a88	-0.06563288
136	0x3d3c8aea	0.046030916
137	0x3d54778f	0.051871832
138	0xbd567aba	-0.052363135
139	0x3d0fe98b	0.035134833
140	0xbca708eb	-0.020389995
141	0x3c79913b	0.01523238
142	0xbccf7fe1	-0.025329532
143	0x3d90946d	0.0705956
144	0xbe0e3684	-0.13887984
145	0xbd6dcbdf	-0.058055755
146	0x3d8c055f	0.06836962
147	0xbcb82f88	-0.022483602
148	0xbb4cb3d8	-0.0031235125
149	0x3cc9b816	0.024623912
150	0x3d983224	0.074314386
151	0x3d5c5e11	0.053800646
152	0x3d7da774	0.061927274
153	0xbd31b19a	-0.043382265
154	0x3d0ad351	0.033892933
155	0xbd69abfb	-0.05704878
156	0x3cc1b067	0.023643686
157	0x3cfec38c	0.031099103
158	0x3b737a62	0.0037151803
159	0xbd832151	-0.06402839
160	0xbd234828	-0.039863735
161	0xbd166025	-0.036712784
162	0xbdcaedf1	-0.09908665
163	0xbdc6a5d0	-0.09699595
164	0xbd84bf90	-0.0648185
165	0x3dabc994	0.08388057
166	0xbd453bd3	-0.048152756
167	0x3d9191e8	0.071079075
168	0x3d1af659	0.03783259
169	0x3cb9717f	0.022637127
170	0xbb569111	-0.0032740275
171	0xbd0e6d95	-0.034772474
172	0xbde3b414	-0.111183316
173	0x3c69d436	0.014271786
174	0xbca21f04	-0.01979018
175	0x3cea3127	0.02858789
176	0x3cb18f98	0.021674916
177	0xbbe59325	-0.0070060664
178	0xbc480677	-0.012208573
179	0xbc46884f	-0.012117459
180	0xbb0f0e23	-0.0021828495
181	0xbc75a811	-0.014993683
182	0xbd839e39	-0.06426663
183	0x3d42a8f3	0.047524404
184	0x3c9d9eb5	0.019240716
185	0x3d8399f5	0.06425849
186	0xbc0011fb	-0.007816787
187	0xbcd1f229	-0.025628166
188	0xb9fb11ff	-0.0004788786
189	0xbd8a3f87	-0.06750398
190	0x3ceece57	0.029151125
191	0xbcaa4f5a	-0.02078979
192	0x3b79cb9d	0.0038115748
193	0x3b8e3518	0.0043398254
194	0x3d32b35a	0.043628074
195	0x3d4c42ab	0.049868267
196	0xbe1d7f04	-0.15380484
197	0xbc4ac1a4	-0.012375269
198	0xbc28c290	-0.010300294
199	0xbccec277	-0.025239212
200	0xbdab8df1	-0.083766825
201	0xbd628dfe	-0.055311196
202	0x3b315e60	0.0027064309
203	0x3d8cdcbc	0.06878039
204	0xbd4b14e2	-0.049580462
205	0x3d909e6e	0.07061468
206	0xbce2dd28	-0.027693346
207	0xbd750ee5	-0.059828658
208	0xbb489f70	-0.003061261
209	0xbd01b907	-0.031670596
210	0x3b1b9588	0.002374025
211	0xbd88f7f8	-0.06687921
212	0xbd84f548	-0.06492096
213	0xbdbc4fab	-0.09194883
214	0xbcdcdd9e	-0.026961144
215	0xbd8d1438	-0.06888622
216	0xbcf6e9a7	-0.030140711
217	0xbd802b48	-0.06258255
218	0x3d1a5425	0.037677903
219	0xbb53f82d	-0.003234397
220	0xbdbf60d4	-0.093446404
221	0xbd148e5d	-0.03626858
222	0xbd8a51d4	-0.06753889
223	0xbd5b2a23	-0.05350698
224	0xbcf7874d	-0.030215884
225	0xbca70b72	-0.0203912
226	0x3cb49705	0.022044668
227	0xbdba3929	-0.09092934
228	0x3c2d790d	0.010587943
229	0x3d8de02e	0.069275245
230	0x3df2b742	0.1185136
231	0x3d043840	0.032280207
232	0xbc0c0d5e	-0.008548109
233	0x3ba61c1a	0.005069268
234	0x3ce36b88	0.027761236
235	0x3c326680	0.010888696
236	0xbd790626	-0.06079688
237	0xbd22d382	-0.03975249
238	0xbc62fcd4	-0.013854224
239	0xbce017b0	-0.027355045
240	0xbdd60f40	-0.104521275
241	0xbd9ea2c4	-0.07745889
242	0x3d12b972	0.035821386
243	0x3d5e2d6f	0.054242548
244	0xbd3aa87e	-0.045570843
245	0x3d0e76e6	0.03478136
246	0xbd965633	-0.0734066
247	0xbd7a9611	-0.06117827
248	0xbd9ad768	-0.07560617
249	0xbbd573e2	-0.0065140584
250	0x3bad7cf4	0.0052944366
251	0xbca89233	-0.020577526
252	0x3ce9c381	0.028535606
253	0xbc9efd38	-0.019407853
254	0x3d91a8b1	0.071122535
255	0x3c95dc9f	0.018293677

network.2.bias f4 [64]
0	0xbd584b39	-0.052806113
1	0x3b1f0cba	0.002426906
2	0x3d3e6ed8	0.046492428
3	0x3dec326d	0.115330555
4	0x3e6f2d91	0.23357226
5	0xbb591175	-0.0033121977
6	0x3e5ce307	0.21570979
7	0xbd61f225	-0.055162568
8	0xbdc3909f	-0.09549069
9	0x3d48eb89	0.04905275
10	0x3d356faf	0.044295963
11	0x3db6d394	0.08927074
12	0xbd5ff9f4	-0.054681733
13	0x3e997497	0.29971763
14	0xbdac3c4b	-0.084099375
15	0xbd3766d5	-0.044775803
16	0xbd7d46f9	-0.061835263
17	0x3d2a0c65	0.041515727
18	0xbc8f22c4	-0.017472632
19	0x3da599f3	0.08086004
20	0xbc4d5949	-0.012533494
21	0xbdc0cd97	-0.09414213
22	0x3c2e5461	0.010640235
23	0x3d8bfb7b	0.068350755
24	0xbcee2811	-0.02907184
25	0xbd844b22	-0.06459643
26	0xbcd5b785	-0.026088485
27	0x3cafff20	0.021483958
28	0x3dee7fd5	0.11645476
29	0xbb2e87bd	-0.00266312
30	0xbd8ee1dd	-0.06976674
31	0xbac4b2b1	-0.0015006867
32	0x3c9c8c69	0.019109922
33	0x3cabd101	0.020973684
34	0xbd321b69	-0.04348317
35	0xbcad27e6	-0.02113719
36	0xbc33cc9c	-0.010974076
37	0xbd3905af	-0.045171436
38	0xbd62219b	-0.05520783
39	0x3d022b1d	0.031779397
40	0x3d572eb6	0.05253478
41	0xbd7a9386	-0.061175846
42	0x3ca4a650	0.020098835
43	0x3c64a615	0.013955613
44	0x3e12f20e	0.14350149
45	0x3d89adad	0.06722579
46	0xbdd1ea35	-0.102497496
47	0x3da3d788	0.08000094
48	0xbcf689bb	-0.030094972
49	0xbc823360	-0.015893638
50	0x3d5175d8	0.051137775
51	0x3e2aabe3	0.16667132
52	0xbdc538f8	-0.096300066
53	0xbd089e6c	-0.033354208
54	0xbd9dbaf9	-0.07701678
55	0x3c842eed	0.016135657
56	0x3d172c1c	0.0369073
57	0x3de4f715	0.1117994
58	0x3d7cddbd	0.061734904
59	0xbdba4e1e	-0.09096931
60	0xbd3eb48d	-0.046558905
61	0x3e1889bd	0.14896293
62	0xbd04cb30	-0.032420337
63	0xbd7f03c9	-0.06225947

network.4.weight f4 [64, 64, 3]
0	0xbdc5299a	-0.096270755
1	0x3b575d92	0.0032862169
2	0x3d8cc7f2	0.06874074
3	0x3dd54edd	0.104154326
4	0xbd299d76	-0.041409932
5	0xbcd360e9	-0.025803046
6	0x3d577ab8	0.052607268
7	0x3c829e69	0.015944676
8	0xbc05a0d6	-0.008156022
9	0xbc69d182	-0.014271142
10	0x3d520083	0.05127002
11	0x3cd5fa15	0.026120225
12	0xbd62f482	-0.055408962
13	0x3d3c4f8f	0.04597431
14	0xbce626d5	-0.028094688
15	0xbdc98b65	-0.098410405
16	0x3d7f66d5	0.062353928
17	0x3d386025	0.045013566
18	0xbd9517f7	-0.072799616
19	0xbce73155	-0.028221766
20	0xbc5deb35	-0.013544847
21	0xbd02fea7	-0.031981137
22	0x3ca3d609	0.01999952
23	0x3cf11ae7	0.029431773
24	0x3c0c170d	0.008550418
25	0xbd1d2034	-0.03836079
26	0xbd667d2e	-0.056271724
27	0x3d51baeb	0.05120365
28	0xbb87ce9f	-0.004144504
29	0xbd28564b	-0.04109792
30	0xbd228bad	-0.039683986
31	0x3ca74a69	0.020421224
32	0x3cd09d5f	0.025465665
33	0xbd75ff96	-0.0600582
34	0x3d9f1fb0	0.07769716
35	0xba264b34	-0.00063436036
36	0x3d1ab3b8	0.03776905
37	0xbd0e1f97	-0.034698095
38	0x3d2d85b6	0.042363845
39	0xbb46b501	-0.003032029
40	0x3e1821a3	0.14856581
41	0xbd9e2b96	-0.07723157
42	0x3c963e46	0.018340241
43	0xbc511a7c	-0.012762662
44	0x3a25bbc8	0.0006322232
45	0x3da7048c	0.08155164
46	0xbd03d4fa	-0.032185532
47	0xbd0dca6c	-0.034616873
48	0xbca6a681	-0.020343067
49	0xbe1ed2e0	-0.1551013
50	0xbd914132	-0.07092513
51	0xbdb38144	-0.0876489
52	0x3ac14649	0.0014745678
53	0x3d23ddea	0.040006556
54	0x3cfdf986	0.031002771
55	0xbd71ffce	-0.059081845
56	0xbce869ad	-0.028370703
57	0x3cb5a077	0.022171242
58	0x3cbf8857	0.023380442
59	0xbd3f484f	-0.04669982
60	0x3cfda0e9	0.030960517
61	0x3c86dad4	0.016461767
62	0xbcbb044b	-0.022829195
63	0x3c8be5ad	0.017077291
64	0x3d169fe3	0.036773574
65	0xbd95abdc	-0.0730817
66	0x3db954c4	0.09049371
67	0xbd0df1c4	-0.034654394
68	0x3d195f2e	0.037444286
69	0xbe1a5a04	-0.150734
70	0x3de1c800	0.11024475
71	0x3de9c9e8	0.11415464
72	0x3d35c2cd	0.04437523
73	0x3c8f3093	0.017479217
74	0x3dc9db33	0.09856262
75	0xbcbdfe2f	-0.023192493
76	0x3d0f535d	0.03499161
77	0x3dce4c43	0.100731395
78	0xbd35d3b5	-0.044391353
79	0x3d693efe	0.05694484
80	0xbc82c672	-0.015963767
81	0xbdf7f6c0	-0.12107611
82	0x3d5c78c8	0.053826123
83	0x3ce255f1	0.02762887
84	0x3cf3909a	0.029732037
85	0x3ce990d1	0.028511437
86	0xbda5bc0a	-0.08092506
87	0x3cee5de5	0.029097507
88	0x3ca1a56f	0.019732205
89	0x3d15b9b2	0.036554046
90	0x3c677ee2	0.014129372
91	0xbe04e689	-0.12978567
92	0xbcad688a	-0.021168012
93	0x3d73014c	0.05932741
94	0x3d5a2bd4	0.053264454
95	0x3d0c2b60	0.034221053
96	0xbbd1dce0	-0.006404504
97	0x3d683f2f	0.05670088
98	0x3d64cd64	0.05585994
99	0xbcb7ca9a	-0.022435475
100	0xbe472541	-0.19447805
101	0x3d12db2a	0.035853542
102	0x3d911180	0.07083416
103	0x3ad7870c	0.0016443445
104	0xbd804d33	-0.062647246
105	0xbd925c11	-0.071464665
106	0xbbcfc2aa	-0.0063403444
107	0xbdf03e11	-0.11730588
108	0x3d4f8f09	0.05067352
109	0x3d00f5a7	0.031484272
110	0xbd1a5877	-0.037682023
111	0x3db58a74	0.088642985
112	0x3df34237	0.11877864
113	0x3c7a6935	0.015283872
114	0x3d331c3b	0.043728095
115	0x3c71d338	0.014759831
116	0xbd16f051	-0.036850277
117	0x3ced7aa3	0.028989142
118	0x3cd1bb10	0.025601894
119	0x3d1dd812	0.03853614
120	0xbd9008bc	-0.07032916
121	0x3d4652b4	0.048418716
122	0xbd9e9837	-0.077438764
123	0x3c884d54	0.016638435
124	0xbd3b2c02	-0.045696266
125	0xbd1eeef4	-0.038802102
126	0xbc29b848	-0.0103588775
127	0xbd15dbaf	-0.03658646
128	0xbc87f548	-0.016596451
129	0x3d86430b	0.06555756
130	0xbde5feb7	-0.112302236
131	0x3d8e99df	0.06962942
132	0x3d969738	0.073530614
133	0x3d39eb40	0.045390368
134	0xb9717e75	-0.0002303066
135	0x3d186594	0.037206247
136	0xbd5c0458	-0.05371508
137	0xbd4c03ff	-0.0498085
138	0xbafa7301	-0.001910776
139	0x3c734328	0.014847554
140	0xbd3dd78d	-0.046348143
141	0xbc4ea9d8	-0.012613736
142	0xbda65d40	-0.08123255
143	0xbd834258	-0.064091384
144	0x3d0cbd12	0.03436
145	0xbdb3aa2a	-0.087726906
146	0x3c4b5ac0	0.012411773
147	0xbccd35d3	-0.02505008
148	0xbd359863	-0.04433478
149	0xbcdffb36	-0.027341466
150	0x3da69206	0.081333205
151	0x3d20fd88	0.039304286
152	0x3d6f33dc	0.058399066
153	0x3dcd6199	0.10028381
154	0xbd8d7730	-0.06907499
155	0xbcfae38c	-0.03062608
156	0xbd224e6d	-0.039625574
157	0x3d527852	0.051384278
158	0xbc9a381a	-0.01882558
159	0xbca13de1	-0.019682826
160	0xbda5f8f6	-0.08104126
161	0xbc8c0fbe	-0.01709735
162	0xbd93d520	-0.07218385
163	0x3cc887a4	0.024478741
164	0x3c8d4acc	0.01724758
165	0xbd3109e1	-0.043222312
166	0x3c6542c7	0.013992972
167	0xbc91efac	-0.01781448
168	0x3c3458d0	0.011007503
169	0x3de2850c	0.11060533
170	0xbd7c1648	-0.061544687
171	0x3d9b6959	0.07588453
172	0xbcf6e4d2	-0.030138407
173	0xbe091de6	-0.13390312
174	0x3e3a749f	0.1820855
175	0xbe09a023	-0.13439994
176	0xbc896166	-0.016770076
177	0xbd48864a	-0.048956193
178	0xbdb75dcc	-0.08953437
179	0x3d0d091d	0.03443252
180	0xbcfc52fc	-0.030801289
181	0xbde3064b	-0.11085185
182	0xbd4b010c	-0.049561545
183	0x3e4fcdd7	0.20293365
184	0x3ddc34db	0.10752269
185	0x3d8841ba	0.06653161
186	0xbd1b2bd1	-0.037883583
187	0xbc636881	-0.013879896
188	0xbda0019e	-0.078128085
189	0xbcb071a0	-0.021538556
190	0x3dd3934a	0.103308275
191	0x3dedec7d	0.11617372
192	0xbd84a954	-0.06477609
193	0x3cb18f60	0.021674812
194	0xbdce3632	-0.10068931
195	0x3d8d65eb	0.06904205
196	0xbdf09f19	-0.117490955
197	0xbdf7340e	-0.120704755
198	0x3af01bd7	0.0018318844
199	0x3d2c4d1c	0.042065725
200	0xbd4cdb7e	-0.05001401
201	0x3cb2c10e	0.021820571
202	0x3b007c96	0.001960551
203	0xbdb7f6a1	-0.089825876
204	0x3cdfcd76	0.027319651
205	0xbe632622	-0.22182515
206	0x3c54c5a0	0.012986571
207	0x3ce35388	0.027749792
208	0xbd82cb27	-0.063864045
209	0x3d491ea9	0.049101505
210	0xbddddef2	-0.10833539
211	0xbca8b01c	-0.020591788
212	0xbb4c680f	-0.0031189953
213	0xbae58b89	-0.0017512898
214	0xbd46f4d7	-0.04857334
215	0x3cb41abc	0.021985404
216	0xbc2d985a	-0.0105954055
217	0xbc805b09	-0.015668409
218	0x3d8edfa1	0.069762476
219	0x3bb438ba	0.0054999264
220	0x3d19028e	0.037355952
221	0x3d89d895	0.06730763
222	0x3d60b7e7	0.054862883
223	0xbafd1c07	-0.0019310721
224	0x3a83f307	0.0010066935
225	0xbda71662	-0.08158566
226	0xbce31c47	-0.027723445
227	0xbd8c735b	-0.0685794
228	0x3d8b5e1f	0.068050615
229	0xbd23506f	-0.03987163
230	0x3cd2bbe1	0.025724353
231	0xbdde384b	-0.10850581
232	0xbd8dc8ee	-0.0692309
233	0x3d8b17cf	0.067916505
234	0x3d497960	0.049188018
235	0xbc890cc3	-0.016729718
236	0xbbb9379a	-0.00565238
237	0xbd282466	-0.041050337
238	0xbe0b8641	-0.13625433
239	0xbc148eb6	-0.009067228
240	0x3bbef03f	0.0058269794
241	0xbcd69b71	-0.026197167
242	0xbc2debbc	-0.0106152855
243	0x3d6103be	0.05493521
244	0x3d315bd7	0.043300476
245	0x3c9bb737	0.019008262
246	0x3c157f16	0.009124538
247	0xbd1cfe29	-0.038328324
248	0x3c3734b0	0.011181995
249	0x3b9fc72e	0.004876039
250	0x3cbabf70	0.022796363
251	0xbd0e235e	-0.034701698
252	0xbd5db0f4	-0.054123834
253	0xbd592ce3	-0.053021323
254	0x3cbeb347	0.023278845
255	0xbd40e2cc	-0.04709129

network.4.bias f4 [64]
0	0xbc142d27	-0.009043968
1	0x3d510e13	0.051038813
2	0xbd207b58	-0.03918013
3	0xbd13c4f4	-0.0360765
4	0xbdd4b2ae	-0.10385643
5	0xbd503703	-0.050833713
6	0x3e3a68e0	0.18204069
7	0x3e926f6f	0.28600642
8	0xbd9c1fd7	-0.076232605
9	0x3d8df605	0.0693169
10	0x3d139770	0.036033094
11	0x3e56fe3f	0.20995425
12	0x3d426a04	0.047464386
13	0xbcba1092	-0.02271298
14	0xbd9869e4	-0.07442072
15	0x3d31b1a6	0.04338231
16	0x3d39259e	0.04520189
17	0x3e1731ff	0.14765166
18	0x3c96b7be	0.018398162
19	0xbd6a7196	-0.05723723
20	0x3b341153	0.0027476146
21	0xbd198ea1	-0.037489537
22	0x3d46f9a9	0.04857794
23	0x3c3d9673	0.011571514
24	0xbdbde254	-0.09271684
25	0xbd102501	-0.03519154
26	0x3d776379	0.0603976
27	0x3d0645e9	0.032781515
28	0x3e24e026	0.16101131
29	0x3e032ffb	0.12811272
30	0xbb029385	-0.0019924354
31	0xbc220969	-0.009889939
32	0xbd24d70c	-0.040244147
33	0xbcb0be36	-0.021575075
34	0x3b1c0331	0.0023805613
35	0xbc04f5fd	-0.008115289
36	0x3d8892ce	0.06668626
37	0x3dd1132e	0.10208736
38	0x3c91e9bf	0.017811654
39	0x3e941512	0.28922325
40	0x3d9a1a52	0.075245515
41	0x3e8a1c56	0.26974744
42	0x3d9e2263	0.077214025
43	0x3e2cb453	0.16865663
44	0xbd3085e1	-0.043096427
45	0x3d8660eb	0.065614544
46	0x3cdc5951	0.026898058
47	0xb95a9b48	-0.00020847947
48	0x3c90f37b	0.017694226
49	0xbc356b5c	-0.01107296
50	0x3d8e4a71	0.06947792
51	0x3e531dc9	0.20616831
52	0xbd995a55	-0.074879326
53	0x3e15b277	0.1461886
54	0x3d3332f9	0.043749783
55	0xbd1f9024	-0.038955823
56	0x3e5073d9	0.20356692
57	0xbcc2b11f	-0.023766099
58	0x3e3a2c49	0.18180956
59	0x3d0926ec	0.033484384
60	0x3e41dcf4	0.18931943
61	0xbdfe2ce7	-0.12410908
62	0xbd3ead93	-0.046552252
63	0x3ab43526	0.001374875

network.6.weight f4 [64, 64, 3]
0	0x3d7f3d11	0.062314097
1	0xbd475492	-0.048664637
2	0xbd8f6fe3	-0.070037626
3	0x3d84b2f5	0.06479446
4	0xbc865aec	-0.016400777
5	0xbd20f748	-0.039298326
6	0x3d10f74f	0.0353921
7	0x3c5822e1	0.0131919095
8	0x3d01ac6c	0.031658575
9	0x3b71ec86	0.003691466
10	0xbce0d8d4	-0.027447142
11	0xbd8f43c1	-0.06995345
12	0xbd51e669	-0.051245127
13	0x3da5a652	0.08088364
14	0xbd49a9f2	-0.049234338
15	0x3c49a16b	0.012306551
16	0xbd1285c3	-0.035772096
17	0xbd91e8cb	-0.0712448
18	0x3cb2dd08	0.021833912
19	0x3ca1b420	0.01973921
20	0xbd22b7d2	-0.039726086
21	0xbda05f07	-0.07830625
22	0x3cbae31c	0.022813372
23	0xbbcbbdb0	-0.006217681
24	0xbc0586c1	-0.008149804
25	0xbce00478	-0.02734588
26	0x3d82ac72	0.063805476
27	0xbcf89ceb	-0.030348262
28	0x3d3d9cf7	0.04629227
29	0x3d750e84	0.059828296
30	0xbcf6d7d4	-0.030132212
31	0xbcf507f8	-0.029911026
32	0xbc2f2250	-0.010689333
33	0xbd1065ee	-0.035253458
34	0x3d6c577f	0.05770063
35	0xbc16a728	-0.009195127
36	0x3d647b6e	0.055781774
37	0x3d402e44	0.046919122
38	0x3d260b66	0.040538214
39	0x3d59ab70	0.05314201
40	0x3c3f8c88	0.01169122
41	0xbd8266d3	-0.063672684
42	0x3ded9213	0.11600127
43	0x3d1a92ee	0.03773778
44	0xbb33f700	-0.0027460456
45	0xbd06df8b	-0.03292803
46	0x3d401686	0.04689648
47	0xbc1463c0	-0.009056985
48	0xbdc5128b	-0.096226774
49	0xbd4423f2	-0.047885843
50	0x3d559eae	0.052153282
51	0xbd0e5c65	-0.034756083
52	0xbd4c22ae	-0.04983776
53	0xbd1d9871	-0.038475458
54	0xbd67e749	-0.056617055
55	0x3aa0c37e	0.0012265292
56	0x3b899bd0	0.0041994825
57	0x3d208ecd	0.039198685
58	0xbcaa64a0	-0.020799935
59	0xbd4873ce	-0.048938565
60	0xbcd4d74a	-0.025981564
61	0xbd038951	-0.032113377
62	0x3c86ef78	0.01647161
63	0x3cc5907b	0.024116745
64	0xbcabb017	-0.02095799
65	0xbd488202	-0.04895211
66	0x3c8fe8e0	0.017567098
67	0xbc24436a	-0.010025838
68	0xbcfccabe	-0.030858394
69	0x3d929e25	0.0715907
70	0x3c0aac52	0.008463936
71	0xbd4f0ec6	-0.0505512
72	0xbd87c919	-0.06630153
73	0xbca4ccff	-0.020117281
74	0x3cbde9ac	0.023182712
75	0x3cf734e8	0.030176595
76	0xbd426370	-0.047458112
77	0x3b1904e0	0.0023348853
78	0xbd323bf2	-0.0435142
79	0x3bdcbde7	0.0067365053
80	0x3d63d8c0	0.05562663
81	0xbcb77b2f	-0.022397606
82	0x3b160daa	0.0022896328
83	0xbcd518a8	-0.026012734
84	0xbd8618a4	-0.065476686
85	0xbd7fdce7	-0.06246653
86	0x3c572430	0.013131186
87	0xbbf2e16b	-0.007412126
88	0x3cda583a	0.026653398
89	0xbd240afd	-0.04004954
90	0xbd781221	-0.060564164
91	0xbc953ebb	-0.018218389
92	0xbd1cb955	-0.038262684
93	0xbd495aee	-0.049158983
94	0xbd828fff	-0.06375121
95	0x3c26ce30	0.010180995
96	0xbc9f2a2b	-0.019429287
97	0xbc9fd1c8	-0.019509211
98	0x3cd18938	0.025578126
99	0xbdc8d5cd	-0.09806404
100	0x3d4f7bae	0.05065506
101	0xbd7da81c	-0.0619279
102	0x3d510173	0.051026773
103	0xbdb02e2d	-0.08602557
104	0x3d29240a	0.041294135
105	0x3c5884a1	0.013215215
106	0x3d9c3a7c	0.076283425
107	0xbcabffe8	-0.020996049
108	0x3d8612c8	0.06546551
109	0xbce366eb	-0.027759036
110	0x3c0fded8	0.008781157
111	0xbdcd6e23	-0.100307725
112	0x3d198240	0.03747773
113	0x3d24def8	0.040251702
114	0x3c98df33	0.018661117
115	0xbd9f274e	-0.07771169
116	0xbd087674	-0.03331609
117	0xbe0d7c15	-0.13816865
118	0x3d8213e2	0.063514486
119	0xbce7b5b4	-0.028284885
120	0xbd6679e7	-0.0562686
121	0xbd2ef4fc	-0.042714104
122	0xbd7f41d6	-0.062318645
123	0xbd804cb2	-0.062646285
124	0xbd81099b	-0.0630066
125	0x3d2062b6	0.039156638
126	0xbcb136ca	-0.02163257
127	0x3c93d44d	0.018045569
128	0x3c5574c0	0.013028324
129	0xbcd08b6f	-0.025457112
130	0x3d3fd680	0.046835423
131	0xbcb380c0	-0.021911979
132	0xbb376d6d	-0.0027988807
133	0xbd7e0368	-0.062014967
134	0xbd20e33f	-0.03927922
135	0xbd33013c	-0.04370235
136	0xbd6a66ae	-0.05722683
137	0x3cb89f9c	0.022537045
138	0x3cc8b824	0.024501868
139	0x3d3a82b0	0.04553479
140	0xbca0deae	-0.019637432
141	0xbd888128	-0.066652596
142	0xbd7e0c8d	-0.062023688
143	0x3b46e080	0.0030346215
144	0x3d350e0e	0.044202857
145	0x3d2b609f	0.041840192
146	0xbaa45ac0	-0.0012539253
147	0xbd4ce130	-0.050019443
148	0x3d6ed640	0.058309793
149	0x3d2aa45e	0.04166066
150	0x3d0e1663	0.03468932
151	0xbd04a751	-0.032386128
152	0xbd6dd7df	-0.0580672
153	0xbd8b1d1d	-0.06792662
154	0xbd812744	-0.063063174
155	0xbd5af394	-0.05345495
156	0x3c7c82df	0.0154120615
157	0x3d884866	0.06654434
158	0xbd86af53	-0.06576409
159	0xbd59263d	-0.053014982
160	0x3ba4be8e	0.0050275987
161	0xbd905726	-0.07047872
162	0x3c9776f4	0.018489338
163	0xbd431c3f	-0.04763436
164	0x3d0572e2	0.032580264
165	0xbd282461	-0.04105032
166	0xbd8e933e	-0.06961678
167	0x3d08da28	0.033411175
168	0xbdcb3271	-0.0992173
169	0xbca67639	-0.020320045
170	0xbd41ba30	-0.047296703
171	0xbdcea85e	-0.10090707
172	0x3c9faff4	0.01949308
173	0xbcef3a8e	-0.029202726
174	0x3ca8b60f	0.020594625
175	0xbd436866	-0.047706984
176	0xb8a90000	-8.058548e-05
177	0xbd8059fe	-0.06267165
178	0xba088cbe	-0.00052089605
179	0xbd1752ce	-0.036944203
180	0xbcd47033	-0.025932407
181	0x3d568be0	0.05237949
182	0xbd8fa1ad	-0.07013259
183	0x3cba8e22	0.022772852
184	0x3d73014a	0.0593274
185	0x3d7352dc	0.059405193
186	0x3dbf4752	0.09339775
187	0xbd72cfcd	-0.059280206
188	0xbd4229a8	-0.047403008
189	0x3d156992	0.036477633
190	0x3d024952	0.031808205
191	0xbb922150	-0.0044595376
192	0xbdbd1f43	-0.09234478
193	0xbd93195a	-0.0718257
194	0x3c455510	0.012044206
195	0xbddd2550	-0.107981324
196	0x3da8c5ce	0.08240853
197	0x3c729d18	0.014807962
198	0xbd1301d5	-0.03589042
199	0xbd07ac70	-0.033123434
200	0xbd8e58bb	-0.06950518
201	0xbd33dc2c	-0.043911144
202	0xbd83a634	-0.06428185
203	0x3cb1aa68	0.021687701
204	0xbdaec09f	-0.08532833
205	0x3d9c34ab	0.07627233
206	0xbd209b20	-0.03921044
207	0xbbe7c7c2	-0.0070733735
208	0x3d3998f0	0.04531187
209	0xbc4d798c	-0.012541186
210	0x3d8ae515	0.06781975
211	0x3e4521b1	0.19251134
212	0x3d82b2d0	0.06381762
213	0xbde6ed68	-0.112757504
214	0xbd1fb33f	-0.0389893
215	0xbc1bc308	-0.009506948
216	0xbd9ed0a9	-0.077546425
217	0x3b974615	0.0046165087
218	0xbd8dc888	-0.06923014
219	0xbc5b8334	-0.0133979805
220	0x3c33fb2c	0.010985177
221	0x3bfb4640	0.0076682866
222	0xbcc71a8b	-0.024304649
223	0xbdf94883	-0.12172034
224	0x3d915e4e	0.07098065
225	0xbc83bc26	-0.016080927
226	0x3d463562	0.048390754
227	0x3ce4e230	0.027939886
228	0x39861bda	0.00025579223
229	0x3b9fa602	0.0048720846
230	0x3d8424a4	0.06452301
231	0x3d84006c	0.06445393
232	0x3bf13e50	0.0073621646
233	0x3ce50a60	0.027959049
234	0xbdcb6910	-0.099321485
235	0x3d1e84af	0.038700756
236	0x3d419144	0.047257677
237	0xbdd5e8a4	-0.10444763
238	0xbb96bae9	-0.004599918
239	0xbcc1bd62	-0.023649875
240	0x3d4a4d18	0.04938993
241	0xbd138ab5	-0.036020953
242	0xbd04f2ef	-0.032458242
243	0xbbb8f473	-0.005644375
244	0x3d88ab80	0.06673336
245	0xbd8e3323	-0.06943347
246	0xbe04cfbd	-0.12969871
247	0xbcece7d2	-0.028919134
248	0x3c49c4d0	0.01231499
249	0xbd820b4f	-0.06349813
250	0xbd9efa03	-0.0776253
251	0xbaab7b00	-0.0013082922
252	0xbc1907d4	-0.009340245
253	0x3d3fccf6	0.046826325
254	0xbd0c20b6	-0.034210883
255	0x3cb77cfd	0.022398466

network.6.bias f4 [64]
0	0x3d2645b7	0.04059383
1	0x3dc72752	0.09724297
2	0x3c9d38c6	0.01919211
3	0xbcb108c7	-0.02161063
4	0xbcac2c41	-0.021017196
5	0xbe06c6b1	-0.13161732
6	0xbde3f3f9	-0.111305185
7	0xbc2f0a36	-0.010683587
8	0xba8a0a04	-0.0010531549
9	0x3e215204	0.15753943
10	0x3ca73709	0.020411985
11	0x3e35cbc9	0.17753519
12	0x3eb0d8da	0.34540445
13	0x3dc065ad	0.09394393
14	0x3e1a9123	0.15094428
15	0x3e2cc247	0.16870986
16	0xbca71d56	-0.02039973
17	0x3d8dc2bf	0.069219105
18	0x3d805ae2	0.062673345
19	0xbc00fc5d	-0.007872668
20	0x3dbce716	0.09223764
21	0x3dcd8ddf	0.100368254
22	0xbda49c60	-0.08037639
23	0x3e166b22	0.14689305
24	0xbcd582c4	-0.02606333
25	0xbb4a4f6d	-0.0030870095
26	0xbd033546	-0.032033227
27	0x3d03f8b2	0.032219596
28	0xbcd86e81	-0.02641988
29	0x3dd150fb	0.10220524
30	0xbd957475	-0.07297603
31	0xbdb7bf01	-0.08971978
32	0x3cc3f0a5	0.02391846
33	0xbd1bcb5e	-0.038035743
34	0x3df31027	0.11868315
35	0x3d790f85	0.060805816
36	0xbd2eda67	-0.042688753
37	0xbd77aa14	-0.060464934
38	0xbc45d94d	-0.012075734
39	0x3d6cb7a4	0.05779232
40	0xbbe89a0f	-0.0070984433
41	0xbd431370	-0.04762596
42	0x3e2d6a81	0.1693516
43	0x3d17f4cd	0.037098695
44	0xbcd6048a	-0.026125211
45	0x3c9a4859	0.018833326
46	0x3e06ed17	0.1317638
47	0xbd2febb4	-0.042949393
48	0xbd7a2194	-0.06106718
49	0x3d179ef6	0.03701683
50	0xbc922d3d	-0.017843837
51	0x3dfaf922	0.122545496
52	0x3e3c8237	0.18409048
53	0xbdb16549	-0.08661897
54	0xbd470d62	-0.048596747
55	0x3e577b07	0.21043025
56	0xbdbbdf8f	-0.091735
57	0x3d2b758e	0.041860156
58	0xbd012e23	-0.03153814
59	0x3e195215	0.14972718
60	0x3d8e7769	0.069563694
61	0x3e2ceae5	0.1688648
62	0xbd26a5dc	-0.04068552
63	0x3c3a0ea7	0.011356032

final.weight f4 [10, 768]
0	0x3c7786e1	0.015107841
1	0x3ce035e6	0.02736945
2	0x3d2cac3c	0.042156443
3	0x3d24978f	0.0401836
4	0xbd99b0c5	-0.07504419
5	0xbd3496f5	-0.044089276
6	0x399b91e8	0.00029672612
7	0xbdc0b2b6	-0.094090864
8	0xbcc8c09c	-0.024505906
9	0xbc86170e	-0.016368415
10	0xbc7114b7	-0.014714411
11	0xbd0d3046	-0.034469865
12	0xbc4df57e	-0.012570737
13	0xbd07e127	-0.033173706
14	0x3d949b4c	0.07256183
15	0xbd740a15	-0.059579927
16	0x3d59815c	0.053101882
17	0x3bbb446c	0.0057149436
18	0xbd26a7a7	-0.04068723
19	0x3d53a6c9	0.05167273
20	0xbcf3b42f	-0.029749004
21	0xbe014654	-0.12624484
22	0x3cb0e9cc	0.021595858
23	0x3d436344	0.04770209
24	0x3cb154d3	0.021646893
25	0x3d653578	0.055959195
26	0x3e0eb44b	0.13935964
27	0x3d92986d	0.07157979
28	0x3e032361	0.12806465
29	0xbc9810ed	-0.018562758
30	0x3d86159b	0.0654709
31	0xbc1c41cb	-0.009537171
32	0xbd96f9b9	-0.073718496
33	0xbddc5b07	-0.107595496
34	0x3d230cb0	0.03980702
35	0xbdb3f437	-0.08786815
36	0xbd2287c1	-0.039680246
37	0x3d961f53	0.07330193
38	0x3c0464e9	0.0080806995
39	0xbd987bbc	-0.074454755
40	0xbd359cbf	-0.044338938
41	0xbe30fbe4	-0.17283589
42	0xbd355bd4	-0.044277027
43	0xbd8d2519	-0.068918414
44	0xbd136a68	-0.03599015
45	0x3c26120d	0.01013614
46	0x3c8076f9	0.01568173
47	0xbda6f49d	-0.08152125
48	0xbd1b4380	-0.03790617
49	0x3d07dfc7	0.033172395
50	0x3d978c94	0.0739986
51	0x3e0f1652	0.13973358
52	0xbc3223f7	-0.0108728325
53	0x3a2fa47c	0.00067002303
54	0x3c1d0dac	0.009585779
55	0x3b60e7bb	0.003431781
56	0xbda5b7a8	-0.0809167
57	0x3c621296	0.013798377
58	0x3d9e5f16	0.0773298
59	0xbcdf0eae	-0.02722868
60	0xbdb82693	-0.089917324
61	0x3c853bf5	0.016263941
62	0x3a59b394	0.00083046523
63	0xbd3f477e	-0.04669904
64	0xbd79850b	-0.060917895
65	0xbd3b8712	-0.04578311
66	0x3bc11d1e	0.0058933636
67	0xbe0a2759	-0.13491572
68	0xbcaa6493	-0.02079991
69	0xbce5cf60	-0.028052986
70	0x3daac29c	0.083379
71	0x3c5473d9	0.012967073
72	0x3b8d2d2a	0.0043083625
73	0xbcc17149	-0.023613589
74	0x3c144114	0.009048719
75	0xbd170154	-0.0368665
76	0x3b4a0c4f	0.003083009
77	0x3b3291a1	0.0027247446
78	0x3bcbdbaf	0.0062212567
79	0xbd20f28e	-0.03929382
80	0xbd6cd65e	-0.057821624
81	0xbd381797	-0.044944372
82	0xbcfc155c	-0.030771904
83	0xbdcc7fb0	-0.09985292
84	0xbd640bff	-0.055675503
85	0x3d9126d7	0.07087486
86	0xbd2396d1	-0.03993875
87	0xbd51ca04	-0.051218048
88	0xbdaa2bbe	-0.083091244
89	0x3c4e8cb2	0.012606787
90	0x3c55604b	0.013023446
91	0xbd6105a6	-0.054937027
92	0x3cb4675b	0.02202194
93	0x3cf028a7	0.02931626
94	0xbd5d2112	-0.053986616
95	0xbc1e21a9	-0.00965158
96	0xbccf1b3d	-0.025281543
97	0x3d6f0e39	0.058363173
98	0xbc9956e2	-0.018718187
99	0xbd456551	-0.048192326
100	0x3d60bac2	0.054865606
101	0xbd9d8528	-0.07691413
102	0xbd3f23d3	-0.046665024
103	0xbd3f6356	-0.046725594
104	0xbe3176ef	-0.17330526
105	0xbde41d82	-0.11138441
106	0x3e2cb035	0.16864093
107	0x3e108f1d	0.14117093
108	0x3cc5af27	0.02413137
109	0xbca2bbfe	-0.019865032
110	0xbd66c508	-0.056340247
111	0xbd733141	-0.059373144
112	0x3d7b6732	0.06137771
113	0x3d416078	0.04721114
114	0x3cb6cb87	0.022313846
115	0x3da09fae	0.078429565
116	0xbdef316f	-0.116793506
117	0xbd400516	-0.04687985
118	0xbc91a188	-0.01777722
119	0xbba4bd02	-0.0050274143
120	0x3d9a9028	0.07547027
121	0x3a44e393	0.0007510718
122	0xbdaa00dd	-0.08300946
123	0xbc8fcf67	-0.017554952
124	0xbd992181	-0.074770935
125	0xbdaf76fa	-0.08567615
126	0x3b36ce9f	0.0027894152
127	0xbd998b63	-0.07497289
128	0xbd239fda	-0.03994737
129	0xbc5d54cb	-0.013508986
130	0x3d4ea1c5	0.050447244
131	0x3cc1202c	0.023574911
132	0x3d0ba894	0.034096316
133	0x3e174aff	0.14774702
134	0x3dcd82ee	0.100347385
135	0x3cf8387a	0.030300368
136	0x3ce76750	0.028247505
137	0xbd845f5f	-0.06463503
138	0xbccf8658	-0.025332615
139	0xbdb6ad74	-0.08919802
140	0xbd277117	-0.040879335
141	0xbe0309b1	-0.12796666
142	0xbc771176	-0.015079847
143	0xbe693dec	-0.22777528
144	0x3dc114c0	0.09427786
145	0x3d714f99	0.0589138
146	0x3cdd239f	0.026994525
147	0xbd680fd9	-0.05665574
148	0x3cb05595	0.021525184
149	0xbc5f6ca7	-0.013636745
150	0x3c8242f6	0.01590107
151	0x3de51d4e	0.1118723
152	0xbd0273ca	-0.031848706
153	0x3ccadb12	0.024762664
154	0x3dd810ee	0.10550104
155	0xbce6ee37	-0.028189762
156	0x3d4c9be7	0.049953368
157	0xbd5bbf7e	-0.053649418
158	0xbc096e7c	-0.008388158
159	0xbd9179f3	-0.07103338
160	0xbda1771a	-0.07884045
161	0x3d080cb4	0.03321524
162	0x3da6037a	0.08106132
163	0x3d078743	0.03308798
164	0x3d889281	0.066685684
165	0xbd2e5111	-0.04255778
166	0x3dda9fc9	0.10675008
167	0x3d985e82	0.07439901
168	0xbcd51184	-0.026009329
169	0x3bf8ba09	0.0075905365
170	0x3dbe76d9	0.09300012
171	0x3e2ec490	0.1706717
172	0x3ca948f4	0.02066467
173	0xbd866f8d	-0.065642454
174	0x3d7f6ead	0.062361408
175	0x3de5721f	0.112034075
176	0x3d6758b1	0.056481067
177	0xbc368df7	-0.0111422455
178	0x3dad986c	0.08476338
179	0xbd344f90	-0.04402119
180	0x3b7a78cf	0.003821898
181	0x3d4780e8	0.04870692
182	0x3d8aff9b	0.06787034
183	0x3d38d19d	0.045121778
184	0xbc37694c	-0.011194538
185	0x3c0161d1	0.007896856
186	0x3d1bc0c4	0.038025633
187	0xbdc93937	-0.09825366
188	0xbd87f514	-0.06638542
189	0x3cd66255	0.026169935
190	0x3d47b5ec	0.04875748
191	0xbdac434c	-0.08411273
192	0x3cc1c9eb	0.023655852
193	0x3d81f56d	0.063456394
194	0x3cd59af6	0.026074868
195	0x3dcec546	0.10096221
196	0x3d941371	0.07230271
197	0x3d35cb63	0.044383418
198	0xbc41bc6b	-0.0118247075
199	0xbd30c93a	-0.043160655
200	0x3dcdcdc2	0.10049011
201	0xbddfa786	-0.109206244
202	0xbdf33b1c	-0.118765086
203	0x3d344fba	0.044021346
204	0xbce39f73	-0.027785992
205	0x3d15fe90	0.036619723
206	0x3c49ba2a	0.012312451
207	0xb869671a	-5.564755e-05
208	0xbe0cde12	-0.13756588
209	0xbd478bfc	-0.048717484
210	0xbd5ec17f	-0.05438375
211	0xbd168242	-0.036745317
212	0xbd2a4475	-0.041569192
213	0xbc3910e1	-0.011295528
214	0x3de013d1	0.1094128
215	0xbc6c6ff4	-0.014430989
216	0xbd56cc41	-0.052440885
217	0xbccf8c66	-0.025335502
218	0x3d3c0b17	0.045909014
219	0xbdb83de9	-0.089961834
220	0x3ca0682b	0.019580921
221	0xbcc1d127	-0.023659302
222	0x3dbe90ca	0.0930496
223	0xbdc72bf8	-0.09725183
224	0xbda2c509	-0.07947738
225	0xbe363c6b	-0.17796485
226	0xbd9995ed	-0.07499299
227	0xbde036d3	-0.10947957
228	0x3d260959	0.04053626
229	0x3d9508fc	0.07277104
230	0x3cd0a0bc	0.02546727
231	0x3bfd2541	0.0077253883
232	0x3cfd2275	0.03090022
233	0x3d2b7d62	0.04186762
234	0x3d926bce	0.07149468
235	0xbd3696c1	-0.044577364
236	0xbd9633e6	-0.073341176
237	0xbb450305	-0.0030061614
238	0x3d258ff1	0.040420476
239	0xbda8ac4d	-0.08235989
240	0xbe1465b5	-0.14491923
241	0xbe0bcadb	-0.13651602
242	0xbd5fcca8	-0.054638535
243	0xbd3ad63e	-0.045614474
244	0x3cc4fa3a	0.024045099
245	0xbe3dfbaa	-0.18553033
246	0xbc8d7144	-0.017265923
247	0xbd04411d	-0.03228866
248	0xbe154208	-0.1457597
249	0xbd720751	-0.05908901
250	0x3e07b516	0.13252673
251	0x3e2bc9b5	0.16776164
252	0xbd707d88	-0.058713466
253	0x3dabe087	0.083924346
254	0x3c89b7e1	0.016811313
255	0xbd69a8c1	-0.057045702

final.bias f4 [10]
0	0xbb60a870	-0.0034280084
1	0x3a357780	0.0006922409
2	0x3c955550	0.018229157
3	0x3c565c00	0.013083458
4	0x3c1f09d0	0.009706929
5	0x3caf7dfa	0.021422375
6	0xbcba4c4a	-0.022741456
7	0x3d0cf1ba	0.034410216
8	0x3b74fd80	0.0037382543
9	0x3cd0d2fa	0.025491226

weight f4 [3, 10]
0	0x3c7ca42d	0.015420002
1	0xbe370ba9	-0.17875542
2	0x3d0a3a50	0.033747017
3	0x3e201fa3	0.15637068
4	0x3d9fc960	0.07802081
5	0xbe8328a4	-0.25616944
6	0x3e20e420	0.15712023
7	0x3ea0a730	0.31377554
8	0xbe18f728	-0.14938033
9	0xbe20e983	-0.15714078
10	0x3d8aee73	0.06783762
11	0xbdb395a9	-0.0876878
12	0x3e2fd93c	0.17172712
13	0xbd8a9002	-0.067657486
14	0xbe5106e9	-0.20412792
15	0xbcbb1fe1	-0.02284235
16	0x3dbf8489	0.09351451
17	0xbe85f67b	-0.26164612
18	0xbb7abf5f	-0.0038261039
19	0x3dc2defc	0.09515187
20	0xbdc39d44	-0.095514804
21	0x3db51dd0	0.08843577
22	0x3cb85893	0.022503173
23	0xbed32eb5	-0.41246572
24	0xbea5784e	-0.32318348
25	0x3c43297b	0.011911745
26	0xbe0eef03	-0.13958363
27	0x3d03e1c1	0.032197718
28	0xbe3683cb	-0.17823713
29	0xbbe4de9c	-0.006984545

bias f4 [3]
0	0x3ec8ad96	0.39194936
1	0x3e1f0076	0.1552752
2	0xbde4f4b9	-0.1117949
