ckpt/causalcnn_pretrain_epoch20.pt (torch, 363394 bytes, 10 tensors)

network.0.weight f4 [64, 18, 3]
0	0xbe074c65	-0.13212736
1	0x3d45099a	0.04810486
2	0xbe16b033	-0.14715652
3	0x3da487fd	0.0803375
4	0xbcc60eda	-0.024177004
5	0x3d936f4b	0.07198962
6	0xbdb141c5	-0.08655123
7	0x3d4a0c29	0.049328003
8	0xbe014ad7	-0.12626205
9	0xbe136da9	-0.14397301
10	0xbe158dd4	-0.14604884
11	0x3d0f4379	0.034976456
12	0xbcdae09a	-0.026718426
13	0xbd989a43	-0.07451298
14	0x3de3a1d1	0.111148484
15	0xbe09f41f	-0.13472031
16	0xbd79af0c	-0.060957953
17	0x3d35f926	0.04442706
18	0x3d9d6336	0.076849386
19	0xbcf550d0	-0.029945761
20	0xbdf0ebfb	-0.1176376
21	0x3b535b6e	0.0032250541
22	0x3b5ae5f8	0.0033401232
23	0xbd7a4538	-0.06110117
24	0xbdbae199	-0.091250606
25	0xbde9d471	-0.11417473
26	0xbdb92646	-0.09040503
27	0xbcaecbd5	-0.021337429
28	0x3d6cf7b7	0.057853427
29	0xbbda077f	-0.0066537256
30	0x3848b541	4.785252e-05
31	0xbd37a6d0	-0.04483682
32	0xbdacd486	-0.08438973
33	0x3d03aca7	0.032147076
34	0x3cc78478	0.024355158
35	0xbc91bfe0	-0.017791688
36	0xbc36e2be	-0.011162458
37	0xbd03cc1b	-0.032177072
38	0xbd8d6b6f	-0.06905257
39	0x3cb48638	0.022036657
40	0xbe03c202	-0.12866977
41	0x3b794f40	0.0038041621
42	0xbd040ef0	-0.032240808
43	0x3cc8cec8	0.024512663
44	0xbd6b2626	-0.057409428
45	0xbca73db8	-0.020415172
46	0x3c914ab0	0.01773581
47	0x3e045bbe	0.12925622
48	0x3dd1969e	0.10233806
49	0xbd92ace2	-0.07161881
50	0x3d8cf26c	0.06882176
51	0xbcfb80c5	-0.03070105
52	0x3d9a8c69	0.07546312
53	0x3b8c0cce	0.0042739874
54	0xbd5562c0	-0.05209613
55	0x3d15bdb4	0.036557868
56	0x3ce96508	0.028490558
57	0xbd9a7b61	-0.07543064
58	0x3cf1e400	0.029527664
59	0xbcabf02c	-0.020988546
60	0xbd8e5ffc	-0.06951901
61	0x3d66e8d4	0.056374386
62	0x3d946ba4	0.07247093
63	0xbd508370	-0.0509066
64	0xbdca0d1e	-0.09865783
65	0x3c1d3810	0.009595886
66	0x3d46b01c	0.048507795
67	0x3d461074	0.048355535
68	0x3e047c88	0.1293813
69	0xbe0ac4f2	-0.13551691
70	0xbd8ba551	-0.06818641
71	0x3d89ce62	0.067288175
72	0x3df625f4	0.12018958
73	0x3d8bbbf4	0.068229586
74	0x3d150f60	0.036391616
75	0xbd53443e	-0.051578753
76	0xbdbe3ce4	-0.09288958
77	0x3da98ca8	0.08278781
78	0x3d7b8bb4	0.06141253
79	0x3defeed4	0.11715475
80	0x3e01d1d8	0.12677705
81	0xbc51f940	-0.0128157735
82	0x3dd46920	0.103716135
83	0xbb4030c0	-0.0029325932
84	0xbdb663c8	-0.089057505
85	0xbd12c324	-0.03583063
86	0x3d94226c	0.07233128
87	0x3bd8d960	0.00661771
88	0xbcfd2130	-0.030899614
89	0xbda295bb	-0.07938715
90	0xbdf45153	-0.11929574
91	0xbd9e5fd6	-0.07733123
92	0xbe0b30ff	-0.1359291
93	0xbddf32ed	-0.10898385
94	0x3d4e0f88	0.05030778
95	0xbdb55827	-0.08854704
96	0xbdba0e20	-0.090847254
97	0xbddc94fc	-0.10770604
98	0xbda34c1e	-0.079735026
99	0xb9dbee00	-0.0004194826
100	0x3cd236c0	0.025660872
101	0x3e02ed6e	0.12785885
102	0xbd17b102	-0.037034042
103	0xbbcd3fc0	-0.006263703
104	0x3da6c854	0.08143678
105	0xbd71b562	-0.05901087
106	0x3cae0b70	0.021245688
107	0xbd41228c	-0.047152087
108	0xbde54004	-0.11193851
109	0xbc0d9e52	-0.008643704
110	0xbe37f832	-0.17965773
111	0x3d36c60d	0.04462247
112	0x3d68876a	0.056769766
113	0xbbe8827b	-0.0070956326
114	0xbe20a8d1	-0.15689398
115	0x3caafa78	0.020871386
116	0x3d4065ab	0.046971958
117	0xbd409e27	-0.047025826
118	0xbc962922	-0.01833016
119	0x3c112e20	0.008861095
120	0xbd44c064	-0.04803504
121	0xbde197df	-0.11015295
122	0x3ddbebf9	0.107383676
123	0xbd2f9857	-0.042869892
124	0xbe14b36f	-0.14521573
125	0x3b46bdb2	0.003032547
126	0x3db37014	0.087616116
127	0xbe03c5e8	-0.12868464
128	0xbd5cbf9c	-0.05389367
129	0x3cb26001	0.021774294
130	0x3da24c23	0.07924678
131	0x3dc063f1	0.09394062
132	0x3cb399b6	0.021923881
133	0xbdee6c7e	-0.11641787
134	0xbd013fa6	-0.03155484
135	0x3dc443f4	0.095832735
136	0xbb3f6fc5	-0.0029210907
137	0xbddd3e1b	-0.10802861
138	0xbe40b4d6	-0.18818983
139	0xbdc0baaa	-0.09410603
140	0xbe0f616c	-0.14002007
141	0xbe479a9b	-0.19492571
142	0xbc364092	-0.011123793
143	0xbddd2c55	-0.10799471
144	0xbd8f38b1	-0.06993235
145	0x3ccbbd48	0.02487053
146	0x3dc144d4	0.09436956
147	0xbdd6073d	-0.10450599
148	0xbdfe9dd6	-0.124324486
149	0xbd8cb4ca	-0.0687042
150	0x3e273c7c	0.16331667
151	0x3d8cc826	0.06874113
152	0x3b6be425	0.003599414
153	0xbe33b49d	-0.17549367
154	0xbe2c15bd	-0.16805167
155	0xbdfc9457	-0.12332981
156	0xbd7f1568	-0.062276274
157	0xbc000422	-0.007813485
158	0x3c89256c	0.016741477
159	0xbdd9d8e9	-0.106370755
160	0x3cc5f752	0.024165783
161	0xbc0d64aa	-0.008629957
162	0x3d7f627d	0.062349785
163	0xbd973ca4	-0.07384613
164	0x3dca5d9b	0.09881135
165	0x3d1e93fe	0.038715355
166	0xbdd127af	-0.10212647
167	0x3de4dea5	0.111752786
168	0xbe1842b1	-0.14869191
169	0xbc5e938e	-0.0135849845
170	0xbba4d329	-0.005030055
171	0xbd7883f0	-0.0606727
172	0x3d2ca262	0.042147048
173	0xbe228fd9	-0.15875186
174	0xbe3e11da	-0.18561497
175	0x3d97dc35	0.07415048
176	0xbdaffbdf	-0.085929625
177	0xbe5284a9	-0.20558418
178	0xbdf35116	-0.118807
179	0x3cc9cb58	0.024633095
180	0x3d52a5bc	0.051427588
181	0x3d0c90dc	0.034317836
182	0xbdd269c5	-0.1027408
183	0xbde4cd34	-0.11171952
184	0xbdb55834	-0.08854714
185	0xbde11b27	-0.10991507
186	0x3c7d228f	0.015450134
187	0x3c3652c6	0.011128133
188	0x3d3b3060	0.04570043
189	0xbe4b74bc	-0.1986875
190	0xbd4cbf73	-0.049987268
191	0xbd7a5dab	-0.061124485
192	0xbd6fba47	-0.058527257
193	0x3ca9d730	0.020732492
194	0x3cb2dbfb	0.02183341
195	0xbdb78ccf	-0.08962404
196	0xbe14190a	-0.14462677
197	0x3d95d470	0.0731591
198	0x3d649342	0.0558045
199	0x3d4f3346	0.050586008
200	0xbdb62e80	-0.08895588
201	0xbe2fe405	-0.17176826
202	0xbbcb117d	-0.006197153
203	0x3c306bdc	0.010767903
204	0xbdea5280	-0.11441517
205	0xbc80f10b	-0.015739938
206	0x3d2dc5c1	0.04242492
207	0xbe06a49c	-0.13148731
208	0xbdbb7e6f	-0.09154975
209	0xbde3e869	-0.11128313
210	0xbe0236f8	-0.12716281
211	0x3d6b7f62	0.05749453
212	0x3dc40e35	0.09573022
213	0xbd259850	-0.04042846
214	0xbc42d11f	-0.011890679
215	0xbd41832a	-0.04724423
216	0x3c829ad7	0.015942974
217	0xbddc1380	-0.10745907
218	0x3d9a063e	0.07520722
219	0xbdb2ff5a	-0.08740111
220	0xbd37101d	-0.0446931
221	0x3c74e885	0.014948015
222	0x3d51a59e	0.051183335
223	0x3dc0cdba	0.09414239
224	0xbdeceaf5	-0.11568252
225	0xbe14b5f7	-0.14522539
226	0xbde1dcfe	-0.11028479
227	0x3db3d2a6	0.087804124
228	0xbd9fa323	-0.07794788
229	0xbe07cb80	-0.13261223
230	0xbdb4aeed	-0.08822427
231	0xbda5988a	-0.08085735
232	0x3d509c96	0.050930582
233	0xbc073c8a	-0.00825418
234	0x3dfc081e	0.12306236
235	0x3d664789	0.056220565
236	0x3e494ebb	0.1965894
237	0x3d5841d3	0.05279715
238	0x3c0414cb	0.008061598
239	0x3d168304	0.03674604
240	0x3dcaa9ed	0.09895692
241	0x3dce7c96	0.10082357
242	0xbe1aa173	-0.1510065
243	0x3d334fd8	0.043777317
244	0x3d9a15bf	0.07523679
245	0x3a205160	0.00061156414
246	0xbe0477aa	-0.12936273
247	0x3d5296ff	0.051413532
248	0x3d921872	0.07133569
249	0x3d4e8a53	0.050424885
250	0xbdad2e50	-0.08456099
251	0xbe45d435	-0.19319232
252	0xbd118a45	-0.035532255
253	0xbd549512	-0.051899977
254	0xbe24cfa2	-0.1609483
255	0x3dcfbbd0	0.10143244

network.0.bias f4 [64]
0	0xbdd4ef26	-0.103971764
1	0xbd95d4ac	-0.073159546
2	0xbda6dc27	-0.081474595
3	0xbd58e267	-0.05295029
4	0x3c59154c	0.0132497065
5	0x3c1a3335	0.009411623
6	0xbde7dce9	-0.11321432
7	0xbd433e2b	-0.04766671
8	0xbd0a6879	-0.03379104
9	0xbd3bd62f	-0.04585856
10	0x3d9231a4	0.071383744
11	0xbe1e4915	-0.15457566
12	0x3daab91d	0.08336089
13	0xbda877ce	-0.08225976
14	0xbcf38188	-0.029724851
15	0x3d0ce869	0.03440133
16	0xbdb55e54	-0.08855882
17	0x3e8d6b92	0.27621132
18	0x3d4390bb	0.047745448
19	0xbe4373a8	-0.19087088
20	0x3d976b9e	0.07393573
21	0xbe300d77	-0.17192636
22	0x3d596878	0.053078145
23	0xbc041b6e	-0.00806318
24	0xbe4c6234	-0.19959337
25	0xbd97189b	-0.0737774
26	0xbe4b2b76	-0.19840798
27	0xbcc42d24	-0.023947306
28	0x3e0f3090	0.13983369
29	0x3c9e7db0	0.019347042
30	0xbe0b516c	-0.13605279
31	0xbe3f2b04	-0.18668753
32	0x3d9c14c7	0.076211505
33	0xbe22c016	-0.15893587
34	0x3d8e6821	0.06953455
35	0xbda298d8	-0.07939309
36	0x3e052882	0.13003734
37	0x3d58f26a	0.05296556
38	0x3fd65e64	1.6747556
39	0x3db416a3	0.0879338
40	0xbdf5d5e3	-0.12003686
41	0x3d3097c8	0.0431135
42	0xbe23bec8	-0.15990746
43	0xbd01bfa3	-0.0316769
44	0xbd35e2df	-0.044405814
45	0x3d8b5471	0.06803215
46	0x3d548f9c	0.05189477
47	0xbd408797	-0.04700431
48	0xbdd5094c	-0.10402164
49	0xbd5dfeb4	-0.054197982
50	0x3e74f8eb	0.2392308
51	0xbceae6de	-0.02867454
52	0x3d9a4b97	0.07533949
53	0x3e904f2f	0.28185412
54	0xbd35ed74	-0.044415906
55	0xbc402789	-0.011728176
56	0xbe1b190c	-0.15146273
57	0xbd7f5202	-0.062334068
58	0xbe33c50d	-0.17555638
59	0x3e5f83a6	0.21827564
60	0xbdb5861a	-0.088634685
61	0x3ebcddb7	0.36887905
62	0x3d79e98b	0.06101374
63	0xbdfa8d9e	-0.122340426

network.2.weight f4 [64, 64, 3]
0	0x3d8968ec	0.067094654
1	0x3d90f6c4	0.07078317
2	0xbd0056c4	-0.031332746
3	0xbb5136a0	-0.0031923428
4	0xbd550c54	-0.05201371
5	0xbd892c07	-0.06697851
6	0xbd3d5ca7	-0.04623094
7	0xbd64be16	-0.055845343
8	0x3cffe744	0.031238206
9	0xba9a183f	-0.0011756493
10	0xbd471077	-0.048599686
11	0xbd3f9f65	-0.04678287
12	0x3d4af84e	0.049553208
13	0x3d771d9b	0.06033097
14	0x3cb0aa2d	0.021565521
15	0x3bd3c5b0	0.006462775
16	0x3d36d3df	0.04463565
17	0xbca97c81	-0.02068925
18	0xbd81c81d	-0.06336997
19	0xbd9e4c41	-0.07729388
20	0xbd8a7189	-0.06759936
21	0x3d3f6ce3	0.0467347
22	0xbd860004	-0.06542972
23	0xbd19c4fd	-0.03754138
24	0xbd10f81e	-0.035392873
25	0xbcddb66a	-0.02706452
26	0x3d87df93	0.0663444
27	0xbdbd0fa8	-0.09231502
28	0xbce65f5c	-0.028121643
29	0xbde0c3b1	-0.10974825
30	0x3cde3275	0.02712367
31	0xbe43c1ed	-0.19116946
32	0x3b98c839	0.0046625403
33	0x3ddfcd4a	0.10927828
34	0xbdd1be42	-0.10241367
35	0xbd014475	-0.031559426
36	0x3d754eed	0.059889723
37	0x39ed94d6	0.00045315054
38	0xbd89ba28	-0.067249596
39	0xbd5aa2a4	-0.053377762
40	0xbd23a8bb	-0.039955836
41	0x3d8bf2e9	0.06833441
42	0xbe17067f	-0.14748572
43	0xbd0cde9f	-0.034391996
44	0xbbf4ad1b	-0.007466925
45	0xba7ea214	-0.00097134826
46	0x3c1776c9	0.009244629
47	0xbbe68ac4	-0.007035585
48	0x3e02715e	0.12738559
49	0xbe09e6d0	-0.13466954
50	0x3c9ecda3	0.019385165
51	0x3d5b0f7f	0.053481575
52	0x3b6d6deb	0.0036228846
53	0xbd490b4b	-0.049083035
54	0x3beab41f	0.0071625854
55	0xbd40e6f8	-0.04709527
56	0xbe651a96	-0.22373423
57	0xbd091456	-0.03346666
58	0x3da369be	0.07979153
59	0xbc2081ad	-0.009796542
60	0xbd2350f1	-0.039872114
61	0xbd0f54eb	-0.034993093
62	0x3ce11e49	0.027480261
63	0x3cbb642b	0.022874912
64	0xbce84946	-0.028355252
65	0x3d0921d6	0.033479534
66	0xbd1b142c	-0.037861034
67	0xbdbe8f3f	-0.09304666
68	0x3d2c337b	0.042041283
69	0xbe9223a1	-0.28542808
70	0xbe14de14	-0.14537841
71	0xbd34366d	-0.043997217
72	0x3d3c088d	0.045906592
73	0x3ced841c	0.028993659
74	0xbd26a163	-0.040681254
75	0xbe114cf7	-0.14189516
76	0x3c92f6b5	0.017939905
77	0x3d876723	0.06611469
78	0x3e037219	0.12836494
79	0xbcc83087	-0.024437202
80	0xbd97251a	-0.073801234
81	0xbd56e6be	-0.052466147
82	0x3c856370	0.016282767
83	0xbd881ee3	-0.06646516
84	0x3dc6fe9e	0.09716533
85	0xbd4a9ed4	-0.049467877
86	0x3d87d786	0.06632905
87	0x3ca365cc	0.019946001
88	0xbc7cabfc	-0.015421864
89	0xbd253a91	-0.040339056
90	0xbdaa0fb9	-0.0830378
91	0x3d402985	0.046914596
92	0xbd39c0e9	-0.04534999
93	0x3e8c56f9	0.27410105
94	0x3e0486cc	0.12942046
95	0x3e20baef	0.1569631
96	0xbd329a83	-0.043604385
97	0x3bdf7686	0.006819549
98	0xbc94f86e	-0.018184867
99	0xbd46f9cd	-0.048578072
100	0xbcd756db	-0.026286533
101	0xbd729499	-0.059223745
102	0xbe882e53	-0.26597843
103	0xbbcc4842	-0.0062341997
104	0x3d1403d1	0.036136452
105	0x3e2208b8	0.15823638
106	0xbe11e469	-0.14247288
107	0xbddfa0b8	-0.109193265
108	0xbefd0866	-0.4942047
109	0x3ea07380	0.3133812
110	0xbc2593b1	-0.010106013
111	0x3e1a45bc	0.15065664
112	0x3cb4da94	0.022076882
113	0x3d47e7bc	0.048804983
114	0xbe7914c2	-0.24324325
115	0xbe4f604b	-0.20251577
116	0xbd5a5107	-0.05329993
117	0xbd5d5c40	-0.054043055
118	0x3a5640b6	0.0008173095
119	0x3c933f51	0.017974528
120	0x3b1b3f48	0.0023688842
121	0x3cfef5c6	0.031123053
122	0x3e4ff9aa	0.20310083
123	0x3e12af17	0.14324604
124	0xbd0d7e7f	-0.034544464
125	0xbd89dde6	-0.06731777
126	0xbd7df6f5	-0.062003095
127	0xbcb5ff63	-0.022216504
128	0xbcc1e2c1	-0.023667695
129	0xbad58a2a	-0.0016291786
130	0xbc0c68c1	-0.008569897
131	0xbd82ca64	-0.06386259
132	0x3e94a67b	0.29033265
133	0xbe203461	-0.15644981
134	0x3cf8f1d5	0.030388752
135	0x3dfef339	0.12448735
136	0xbe16ddb5	-0.14733012
137	0xbd3766df	-0.04477584
138	0x3ba0df9f	0.00490947
139	0xbd2ab74e	-0.04167872
140	0xbd688af8	-0.056773156
141	0x3d487d08	0.048947364
142	0x3c95b8e8	0.018276647
143	0xbd2fcb57	-0.04291853
144	0x3c5c77fa	0.013456339
145	0xbc8df5cc	-0.01732912
146	0x3d7e1e54	0.062040642
147	0xbd4e5519	-0.050374124
148	0xbd75a98a	-0.05997614
149	0x3d83aa58	0.06428975
150	0xbcb3ee31	-0.021964164
151	0xbd9aa721	-0.075514086
152	0xbdf6bd3a	-0.12047811
153	0x3d95661d	0.07294867
154	0x3d93c380	0.07215023
155	0xbca941cd	-0.02066126
156	0x3e34b5d8	0.17647493
157	0xbe556c06	-0.20841989
158	0x3dca7b42	0.09886791
159	0xbe520543	-0.2050982
160	0xbe088df6	-0.13335404
161	0xbda83739	-0.08213658
162	0xbc655ed7	-0.013999662
163	0x3cc7d9a2	0.024395768
164	0x3cf5eeee	0.030021157
165	0x3e393b6f	0.18089078
166	0xbbb55db3	-0.0055348515
167	0xbc6e9d46	-0.014563864
168	0x3cd9470d	0.026523137
169	0x3d838414	0.06421676
170	0xbbfe1430	-0.0077538714
171	0x3dd0aee8	0.10189611
172	0xbbb70bec	-0.005586138
173	0xbd0860d7	-0.03329548
174	0x3cc6cd2f	0.024267761
175	0xbd5d7ff9	-0.054077122
176	0xbdec9cdf	-0.11553358
177	0xbb729752	-0.0037016463
178	0xbd905dda	-0.07049151
179	0xbd6a2779	-0.05716655
180	0xbdb341d8	-0.08752793
181	0xbd29a86e	-0.041420393
182	0x3c5d61d9	0.013512098
183	0x3d9cf8a6	0.076646134
184	0xbe18fe90	-0.14940858
185	0xbd300348	-0.04297188
186	0x3e6e63a4	0.23280197
187	0x3e1916ae	0.14950058
188	0x3dd394c7	0.103311114
189	0x3d1fae1a	0.038984396
190	0xbca391a7	-0.019966913
191	0xbd9448fa	-0.07240482
192	0x3d8f7782	0.07005216
193	0x3cd85bb8	0.026410922
194	0xbd82110b	-0.06350907
195	0x3d8495ce	0.064738855
196	0xbacfb940	-0.0015848055
197	0xbd23c7ed	-0.039985586
198	0x3d3a3e41	0.045469526
199	0xbd44f5ba	-0.048085906
200	0xbd881409	-0.066444464
201	0x3d311396	0.04323157
202	0xbc34a3fa	-0.011025423
203	0xbd43e7b2	-0.047828384
204	0xbd0b2d3b	-0.033978682
205	0x3d55be2d	0.05218332
206	0x3d838b84	0.06423095
207	0xbd7855e5	-0.06062879
208	0xbd88670f	-0.06660282
209	0xbe071294	-0.1319068
210	0x3cdad904	0.02671481
211	0xbdb6017d	-0.088870026
212	0xbc654007	-0.013992316
213	0xbd81e74c	-0.063429445
214	0xbce741a5	-0.028229544
215	0xbe0576c9	-0.13033594
216	0xbcb15697	-0.021647735
217	0xbd3fdde5	-0.046842474
218	0x3a5cd0d7	0.00084234535
219	0xbd8e0bce	-0.06935845
220	0xbd8620fa	-0.065492585
221	0x3cf32b5e	0.029683765
222	0x3a94c6a1	0.00113507
223	0xbcd27e05	-0.025694856
224	0xbdaf103a	-0.08548017
225	0xbdce14d8	-0.100625694
226	0x3c10cc27	0.008837736
227	0x3c9294ad	0.01789316
228	0xbcba2bf0	-0.02272603
229	0xbddc7770	-0.107649684
230	0x3cf2ebf4	0.029653527
231	0xbdab3fc8	-0.08361775
232	0xbd6d65c9	-0.057958398
233	0xbd171af1	-0.036890928
234	0x3bd501fe	0.0065004816
235	0x3ea8755f	0.32902047
236	0xbe7666c4	-0.2406264
237	0xbbd6fd85	-0.0065609836
238	0x3b2f0daa	0.0026711025
239	0xbb948475	-0.0045323917
240	0x3f17985b	0.5921685
241	0x3ec3a8d0	0.3821473
242	0x3cc0832b	0.023500046
243	0x3a5502e1	0.0008125734
244	0xbd0309f0	-0.0319919
245	0xbe0f52a8	-0.13996375
246	0xbcefd54d	-0.029276514
247	0xbd0ed359	-0.034869526
248	0x3d420eb1	0.047377292
249	0xbb22b5bd	-0.0024827563
250	0x3c8fbc27	0.017545773
251	0x3be9a43e	0.007130175
252	0x3b8a8a71	0.0042279293
253	0x3c6e3cad	0.014540833
254	0x3d9b00c3	0.07568505
255	0xbcb0a4d4	-0.021562971

network.2.bias f4 [64]
0	0x3c5fd3d7	0.013661346
1	0x3d76d109	0.060257945
2	0x3f87a570	1.0597363
3	0xbe2b9833	-0.16757278
4	0xbdc2bd19	-0.09508724
5	0xbd409a8d	-0.04702239
6	0xbdc11c40	-0.094292164
7	0xbca191c8	-0.019722834
8	0xbd6c6221	-0.05771077
9	0xbdc86410	-0.097847104
10	0xbe7a4492	-0.2444022
11	0xbde4bd5a	-0.111689284
12	0x3ef421c8	0.47682023
13	0x3e8183fb	0.25296006
14	0x3dc669e6	0.09688167
15	0x3e96d435	0.29458776
16	0x3e8b604c	0.27221906
17	0xbc80e042	-0.015731934
18	0xbdd0286c	-0.1016396
19	0xbe45e5fd	-0.19326015
20	0xbe126a8b	-0.14298455
21	0xbe5fd109	-0.21857084
22	0x3e17781c	0.14791912
23	0xbd779879	-0.060448144
24	0xbe1db691	-0.15401675
25	0xbe743955	-0.23849995
26	0xbeb79daf	-0.3586249
27	0xbcef14bd	-0.029184693
28	0xbd0cdc9c	-0.034390077
29	0xbe02620a	-0.12732711
30	0x3e52877e	0.20559499
31	0xbe433239	-0.19062127
32	0x3d39fc3b	0.04540656
33	0x3b81a000	0.003955841
34	0x3e8c2f33	0.2737976
35	0xbdbf7039	-0.09347577
36	0x3e23a1d3	0.159797
37	0xbd01afcc	-0.031661794
38	0xbdfe4215	-0.12414948
39	0x3e8ae3a9	0.27126816
40	0xbd6ecf61	-0.05830324
41	0xbd47fb2a	-0.048823513
42	0x3e36f5f0	0.17867255
43	0x3e0a9fe6	0.13537559
44	0xbdf56d46	-0.11983733
45	0xbdbc2cd3	-0.09188237
46	0xbd149649	-0.036276136
47	0xbe0bc15a	-0.13647977
48	0x3f466d8c	0.77510905
49	0x3e85249e	0.260045
50	0x3e8750a4	0.2642871
51	0xbda90bf2	-0.082542315
52	0x3dbccd13	0.09218802
53	0x3eab9401	0.33511356
54	0x3f48a689	0.7837911
55	0xbe031310	-0.1280024
56	0xbd2b3aba	-0.041804053
57	0xbe326a99	-0.17423476
58	0xbe43943f	-0.1909952
59	0xbd41f549	-0.047353063
60	0xbe555d1e	-0.20836303
61	0xbd03ce79	-0.03217933
62	0x3ec93278	0.39296317
63	0xbe10b3a5	-0.14131029

network.4.weight f4 [64, 64, 3]
0	0x3de39d27	0.11113959
1	0xbd3b3278	-0.045702428
2	0x3e16ed93	0.14739065
3	0x3d9b18a0	0.07573056
4	0x3e4f2db6	0.20232281
5	0xbcde212e	-0.02711543
6	0xbe5ab868	-0.21359408
7	0xbe5bee54	-0.21477634
8	0xbd879978	-0.06621069
9	0xbceefaf5	-0.0291724
10	0x3c565084	0.01308072
11	0xbe3b7877	-0.18307672
12	0xbd69382c	-0.056938335
13	0xbdacc3c5	-0.084357776
14	0xbdb9a5a6	-0.09064798
15	0x3e152fd6	0.14569029
16	0x3de1005c	0.10986397
17	0xbcfa3b0d	-0.030545736
18	0xbdbbcab4	-0.09169522
19	0xbd10b43e	-0.035328142
20	0x3ced40e1	0.0289616
21	0x3d58fc65	0.052975077
22	0x3d42c32a	0.047549404
23	0xbdb6f7b6	-0.08933966
24	0x3c99588b	0.018718978
25	0x3ced3bd1	0.028959187
26	0xbe594e76	-0.21221337
27	0x3c2d082d	0.010561031
28	0xbccac2f8	-0.024751171
29	0x3bad4715	0.0052880147
30	0xbb72c935	-0.0037046198
31	0x3dcb82c2	0.099370494
32	0xbd0d3091	-0.034470145
33	0x3c4e70ce	0.012600137
34	0x3b52bf02	0.0032157307
35	0xbc3415ed	-0.010991556
36	0x3eb184e7	0.3467171
37	0x3ddc7e55	0.107662834
38	0xbc4e104b	-0.012577127
39	0xbd107b1f	-0.035273667
40	0x3e045631	0.12923504
41	0x3dc9ff75	0.09863178
42	0x3cdcbf2e	0.02694663
43	0xbcb00be3	-0.021490043
44	0x3c5a48da	0.013323033
45	0xbe25d9c4	-0.16196352
46	0xbd47ef19	-0.048812006
47	0xbdc109e1	-0.094257124
48	0xbe836bf2	-0.25668293
49	0x3d42596e	0.047448568
50	0xbe130052	-0.14355591
51	0xbc7ebdf8	-0.015548222
52	0xbd397ab3	-0.04528303
53	0x3df834c2	0.12119438
54	0x3d29b1c6	0.041429304
55	0x3c4f9f16	0.012672206
56	0x3aaa3cec	0.0012988127
57	0xbb0305d7	-0.0019992494
58	0x3cc9c2f1	0.024629088
59	0xbda49596	-0.08036344
60	0xbd73f75a	-0.059562065
61	0xbcd0d15c	-0.025490455
62	0x3d4b10cb	0.049576562
63	0xbd7a9534	-0.061177447
64	0xbd64756f	-0.055776056
65	0x3d860351	0.06543601
66	0xbde527fc	-0.11189267
67	0xbd964474	-0.07337275
68	0x3d391cc5	0.045193452
69	0xbeb7a69f	-0.3586931
70	0x3d69e058	0.057098716
71	0xbe2ed03a	-0.1707162
72	0xbba69a48	-0.0050843097
73	0xbe824e0f	-0.2545018
74	0x3e4c66e3	0.19961123
75	0xbebf24c3	-0.37332734
76	0xbe45fdfa	-0.19335166
77	0xbd29a397	-0.041415777
78	0xbd42b1cf	-0.047532853
79	0x3db100d3	0.08642735
80	0x3c9e384d	0.019313956
81	0xbd22fc14	-0.03979118
82	0x3dda31d3	0.106540345
83	0xbd853812	-0.06504835
84	0x3c30bc5a	0.010787094
85	0x3ca74bd7	0.020421905
86	0xbd332ab5	-0.0437419
87	0xbe8d809e	-0.2763719
88	0x3c23538e	0.009968651
89	0x3eb3b389	0.35097912
90	0x3da6ac5e	0.08138345
91	0x3e556e6b	0.20842902
92	0x3d9ee8cf	0.077592485
93	0x3e41a130	0.18909144
94	0x3d55c0a6	0.052185677
95	0xbdfbb81e	-0.12290977
96	0xbd999a4c	-0.07500133
97	0x3e2d19a3	0.16904311
98	0xbe33a58d	-0.17543621
99	0x3d9f7971	0.07786835
100	0x3e392316	0.1807979
101	0x3e5dbe36	0.21654591
102	0xbdf36998	-0.11885375
103	0xbd02dfac	-0.03195159
104	0xbe03146d	-0.1280076
105	0xbe2199e0	-0.15781355
106	0x3d1a33a3	0.0376469
107	0xbe94d8b6	-0.29071587
108	0xbe5b8a05	-0.21439369
109	0xbac6950e	-0.0015150623
110	0x3b6b5618	0.003590947
111	0xbe042d2b	-0.12907855
112	0x3da3f4a4	0.08005646
113	0x3b9b2b93	0.004735419
114	0xbc2c9596	-0.010533711
115	0x3ca39183	0.019966846
116	0x3d9a6ec7	0.0754066
117	0x3e0ca3a8	0.13734305
118	0xbd425e51	-0.04745323
119	0x3e2267f9	0.15859975
120	0xbd3e42da	-0.046450473
121	0x3ea69899	0.32538298
122	0xbe8a684b	-0.27032694
123	0x3de72e66	0.11288147
124	0x3e0a47e8	0.13503993
125	0xbe117893	-0.14206152
126	0xbc291fe4	-0.010322545
127	0xbdefee9b	-0.11715432
128	0xbc81af21	-0.015830578
129	0x3d04e7d0	0.032447636
130	0x3d85080f	0.06495678
131	0xbe2caddf	-0.16863202
132	0x3c5cd217	0.013477824
133	0xbc22c162	-0.009933801
134	0x3d9fe338	0.078070104
135	0xbd7f4444	-0.062320963
136	0x3d57387c	0.052544102
137	0x3e06b41d	0.13154645
138	0xbe313c77	-0.17308222
139	0xbbe6fa6b	-0.007048895
140	0x3e305a81	0.17222025
141	0x3dbf0604	0.09327319
142	0xbc8efd73	-0.017454838
143	0x3d4ef6cc	0.050528333
144	0xbe01a410	-0.12660241
145	0xbe849c75	-0.25900617
146	0x3cddacdc	0.027059965
147	0xbd03a61b	-0.032140832
148	0x3d9586da	0.073011115
149	0xbd888aaf	-0.06667077
150	0xbe7391f1	-0.23786141
151	0xbdc5f08c	-0.09665021
152	0xbe85c5fe	-0.2612762
153	0x3dc11f0e	0.09429751
154	0x3dd56d3b	0.10421225
155	0x3ca0406e	0.019561972
156	0x3e0a2dad	0.13493986
157	0x3da9d0e5	0.082917966
158	0xbdb8839b	-0.09009477
159	0x3cb23616	0.021754306
160	0xbe033996	-0.12814936
161	0xbe611871	-0.2198198
162	0xbda0f799	-0.078597255
163	0xbce83f4b	-0.028350493
164	0xbe44876e	-0.19192287
165	0x3d85abe2	0.06526925
166	0xbbeee15d	-0.007290049
167	0x3af679aa	0.0018804569
168	0x3e65982a	0.22421327
169	0x3da61f8f	0.08111488
170	0x3d0feaf9	0.035136197
171	0x3e0585e9	0.13039364
172	0xbe44701e	-0.19183394
173	0xbe1d1ba4	-0.15342575
174	0xbad30c7a	-0.0016101741
175	0xbb7cffb0	-0.003860455
176	0xbd66c5a7	-0.05634084
177	0x3dd47a42	0.10374881
178	0x3e8020a7	0.25024912
179	0xbe42586f	-0.18979047
180	0xbea59866	-0.32342833
181	0x3c200412	0.009766595
182	0x3ba1c2d1	0.004936554
183	0x3d14d1cd	0.036332894
184	0x3abb227e	0.0014277247
185	0x3b0ea6ad	0.0021766827
186	0x3d93df39	0.07220311
187	0x3db16c35	0.08663217
188	0x3c69d75a	0.014272535
189	0x3d078d97	0.033094015
190	0x3d031798	0.032004923
191	0x3ce088ee	0.027409043
192	0x3e363882	0.17794994
193	0xbe89bc83	-0.26901636
194	0x3e038abe	0.12845895
195	0xbd355b08	-0.044276267
196	0x3e4cc61d	0.19997449
197	0xbc24cbfe	-0.010058401
198	0x3e07b79c	0.13253635
199	0xbee00ba7	-0.4375889
200	0xbd8c9030	-0.06863439
201	0xbd008e0a	-0.03138546
202	0x3da31a8c	0.07964048
203	0xbd8bb7d7	-0.06822174
204	0x3e173c59	0.14769115
205	0x3d798e70	0.060926855
206	0x3d7f9f31	0.062407676
207	0x3c8ce0d8	0.017197058
208	0xbdb9ada1	-0.0906632
209	0xbc0d2103	-0.008613828
210	0xbd3b98c7	-0.045799997
211	0x3daa4e55	0.08315722
212	0xbc746c5c	-0.014918413
213	0x3e54e716	0.20791277
214	0xbd11275c	-0.035437927
215	0x3c2dfe3a	0.010619694
216	0xbbfb9c6c	-0.007678559
217	0x3ca3447b	0.019930115
218	0x3d01ed4e	0.031720452
219	0xbcb31aea	-0.02186342
220	0xbc9f1d8b	-0.019423267
221	0xbd7010b3	-0.058609676
222	0x3a633a2f	0.0008668033
223	0x3d62c511	0.05536372
224	0x3d940ac8	0.07228619
225	0x3c9acb02	0.01889563
226	0x3e5db26d	0.21650095
227	0x3db1896a	0.08668788
228	0x3d20d76b	0.03926794
229	0x3ded2013	0.11578383
230	0x3d5061d4	0.050874546
231	0x3e830e59	0.25596884
232	0x3ef50285	0.47853485
233	0xbdcefb90	-0.101065755
234	0x3d0ce6ef	0.034399923
235	0xbc937281	-0.017998936
236	0xbc325f98	-0.010887049
237	0xbdc06d08	-0.09395796
238	0x3e35119a	0.17682496
239	0xbd85c94c	-0.06532535
240	0x3e131d72	0.14366701
241	0xbe70c8eb	-0.23514144
242	0x3ddfce94	0.109280735
243	0x3da19596	0.078898594
244	0x3e6e704e	0.23285028
245	0x3df71b5f	0.120657675
246	0xbd645aae	-0.05575054
247	0xbd681d5a	-0.056668617
248	0xbd78d048	-0.060745507
249	0x3e1e8f6b	0.15484397
250	0x3b2f650b	0.0026763107
251	0x3be6d57f	0.0070444937
252	0xbd289dac	-0.041165993
253	0xbc970364	-0.018434234
254	0xbd471f82	-0.048614033
255	0x3d22a31c	0.039706334

network.4.bias f4 [64]
0	0xbe61cae0	-0.22050047
1	0x3f9e611f	1.2373389
2	0x3ee41bcf	0.44552466
3	0xbeec746e	-0.4618258
4	0xbd6e9ed5	-0.058256943
5	0xbe022293	-0.12708502
6	0xbe8a3b82	-0.26998526
7	0x3f4782d1	0.77933985
8	0xbd923a0b	-0.07139977
9	0xbe8acc88	-0.2710917
10	0x3dbbcbf0	0.09169757
11	0xbe1ec5ad	-0.15505095
12	0xbda72137	-0.08160632
13	0x3d2aa98c	0.0416656
14	0xbe73e21d	-0.23816724
15	0x3ec56fc6	0.3856184
16	0xbc395883	-0.011312607
17	0xbec0c02f	-0.37646624
18	0xbe271131	-0.16315152
19	0xbdcfd2c2	-0.10147621
20	0xbc722fc2	-0.014781894
21	0xbe429fe5	-0.19006307
22	0xbdfc50ba	-0.12320085
23	0xbd618d1c	-0.055066213
24	0xbdd26f8d	-0.10275183
25	0xbe7407fc	-0.23831171
26	0x3f0ed9e3	0.5580122
27	0xbe3547ab	-0.1770312
28	0x3e8b8707	0.27251455
29	0xbe319d0c	-0.17345065
30	0xbe07cca1	-0.13261653
31	0x3e596bb8	0.21232498
32	0x3ec0d569	0.3766282
33	0x3f245a65	0.6420043
34	0xbd96b17d	-0.07358072
35	0xbe5b7ef9	-0.21435155
36	0x3e0ffe36	0.14061818
37	0x3dbbc085	0.091675796
38	0x3efecf81	0.49767688
39	0x3f4d3593	0.8015987
40	0xbdff82d3	-0.124761246
41	0x3e115691	0.14193179
42	0x3f065414	0.52472043
43	0xbef1cefa	-0.47228223
44	0xbe5a1494	-0.21296912
45	0x3e6a928d	0.22907467
46	0x3e71416e	0.23560116
47	0x3d115bb1	0.035487834
48	0xbe3d3450	-0.18476987
49	0xbf12fb33	-0.5741455
50	0xbd37448b	-0.044743102
51	0xbe55249b	-0.20814745
52	0x3d42033e	0.047366373
53	0xbe52b4ae	-0.20576736
54	0xbda4b53c	-0.0804238
55	0x3df27799	0.11839218
56	0x3bb5be87	0.0055463943
57	0x3e9cbf03	0.3061448
58	0x3f2b40b3	0.668956
59	0xbcb070a9	-0.021538096
60	0x3eb8b350	0.36074305
61	0x3d29c87a	0.041450955
62	0xbee6498d	-0.4497799
63	0xbe186bb4	-0.14884835

network.6.weight f4 [64, 64, 3]
0	0x3daa46e8	0.083143055
1	0xbe357e84	-0.17724043
2	0xbd2f3c8e	-0.04278236
3	0x3e240979	0.16019239
4	0x3e11f40a	0.1425325
5	0x3cde0184	0.027100332
6	0xbe2a8a9c	-0.16654438
7	0x3cf51792	0.029918466
8	0xbc6b96cc	-0.0143792145
9	0xbd78abc3	-0.06071068
10	0xbe9a12fd	-0.30092612
11	0x3d907edc	0.070554465
12	0x3c6c570e	0.014425052
13	0x3d5bfffe	0.05371093
14	0x3c4cd200	0.01250124
15	0xbd2f2104	-0.042756096
16	0x3dc527d2	0.09626736
17	0xbc61de18	-0.013785861
18	0x3d79fe58	0.061033577
19	0xbce3dbeb	-0.027814826
20	0x3c9aefb0	0.01891312
21	0xbeae7abd	-0.34078017
22	0xbe98f790	-0.29876375
23	0xbd80b41e	-0.062843546
24	0xbd73f9e1	-0.059564475
25	0xbd0ccc5d	-0.034374584
26	0x3d7ae7c0	0.06125617
27	0x3d3334ba	0.043751456
28	0x3e830592	0.25590187
29	0x3d7e2934	0.062051013
30	0xbc14552a	-0.009053508
31	0x3e089f52	0.13342026
32	0xbc002f28	-0.007823743
33	0x3e0c61bf	0.13709162
34	0x3d9b0d49	0.07570893
35	0xbd025848	-0.031822473
36	0x3e6dfee7	0.23241769
37	0x3d82a892	0.063798085
38	0x3d427c30	0.047481716
39	0xbc0415ba	-0.008061821
40	0x3df2ae23	0.1184962
41	0x3cba8760	0.02276963
42	0xbe698424	-0.22804314
43	0x3e8ad49c	0.27115333
44	0xbcfa4118	-0.030548617
45	0xbea978d7	-0.33100006
46	0xbccbf249	-0.024895804
47	0xbd75cc39	-0.060009215
48	0xbaee919c	-0.0018201354
49	0xbda66be3	-0.081260465
50	0x3d2f69ae	0.042825393
51	0x3ea61df6	0.32444733
52	0xbea1fb7c	-0.3163718
53	0xb9ad8100	-0.00033093244
54	0xbd95a9fd	-0.07307813
55	0xbd88fd63	-0.06688955
56	0xbd349eee	-0.04409688
57	0xbd57abdf	-0.052654143
58	0x3dcdc72e	0.10047756
59	0x3a096000	0.00052404404
60	0xbd543dc5	-0.05181672
61	0xbe23e8b9	-0.16006745
62	0xbd12c4d1	-0.03583223
63	0x3d349f66	0.044097327
64	0x3e7d4ea2	0.24737027
65	0x3d40c6b4	0.047064498
66	0x3d308bb9	0.043102
67	0x3d1ca0b1	0.038239185
68	0x3d816024	0.063171655
69	0xbd8eb4cd	-0.06968079
70	0x3e9acef5	0.3023602
71	0x3ba6ccc0	0.005090326
72	0xbe50434b	-0.2033817
73	0xbb8fc74d	-0.004387772
74	0x3d78082c	0.06055467
75	0xbe487ea0	-0.19579554
76	0x3e224400	0.15846252
77	0xbd8f9005	-0.070098914
78	0xbdcb9d55	-0.09942118
79	0xbdb9fdce	-0.090816125
80	0xbcf01728	-0.029307917
81	0x3de30435	0.11084787
82	0x3ef67247	0.48134062
83	0xbc77b334	-0.015118409
84	0xbe1e329e	-0.15448996
85	0x3e00446f	0.12526105
86	0xbc32acb0	-0.01090543
87	0x3e091712	0.13387707
88	0xbe71cf45	-0.23614223
89	0x3d70809c	0.0587164
90	0xbeb810d9	-0.35950354
91	0x3deda5c7	0.11603885
92	0xbd819e4d	-0.063290216
93	0xbd1faab2	-0.038981147
94	0xbd4d5999	-0.050134275
95	0xbd611f56	-0.054961525
96	0x3d8d55b0	0.06901109
97	0x3ef35154	0.47522986
98	0xbc0614d0	-0.008183673
99	0xbda27d0c	-0.07934007
100	0xbd8c55f9	-0.068523355
101	0xbd4c53aa	-0.049884476
102	0xbd389851	-0.045067135
103	0x3db42a77	0.08797162
104	0xbbf92e20	-0.0076043755
105	0xbd162c9b	-0.036663633
106	0xbe79ff99	-0.24413909
107	0x3d051298	0.032488436
108	0x3df3f9c1	0.11912871
109	0xbdc49279	-0.0959825
110	0x3d4bf192	0.049790926
111	0xbe27c3db	-0.16383307
112	0x3ea28236	0.31739968
113	0xbd3a61bc	-0.045503363
114	0xbe480770	-0.19534087
115	0xbe0371db	-0.12836401
116	0xbbbe1cd0	-0.0058017746
117	0xbf057bce	-0.52142036
118	0x3e6f014f	0.23340343
119	0xbd3ebe74	-0.04656835
120	0x3ec454ae	0.38345855
121	0x3e5a237c	0.21302599
122	0x3c17c380	0.009262919
123	0xbec71d60	-0.388896
124	0xbeaacf40	-0.33361244
125	0xbceca3cc	-0.028886698
126	0xbd9dcd49	-0.07705171
127	0xbe8988e3	-0.2686225
128	0xbd834a20	-0.064106226
129	0x3be74c81	0.0070586805
130	0x3e3c9cbe	0.18419167
131	0xbcbd6736	-0.023120504
132	0xbe2fd58b	-0.17171304
133	0x3e89eb1c	0.26937187
134	0x3d682e54	0.056684807
135	0xba0b12cc	-0.000530523
136	0x3ebc2e36	0.36754006
137	0xbcb81576	-0.02247117
138	0x3e9c55a5	0.30534092
139	0xbcb98d80	-0.02265048
140	0xbd105d76	-0.03524538
141	0xbd2b4a9e	-0.041819207
142	0xbbfaff0f	-0.0076598
143	0x3c18bf80	0.009323001
144	0x3e70d6a4	0.23519379
145	0x3ed61c87	0.4181864
146	0x3d1c9e40	0.038236856
147	0x3dc95f8e	0.09832679
148	0x3d3f143f	0.046650168
149	0xbd862345	-0.06549696
150	0x3eb1863d	0.34672728
151	0x3dd7457b	0.10511299
152	0xbd83b451	-0.06430877
153	0x3f09b06e	0.53784835
154	0x3c82914b	0.015938422
155	0x3d8369d2	0.06416668
156	0x3ef36c7c	0.47543705
157	0xbe8928fa	-0.26789075
158	0xbcc8bb8c	-0.024503492
159	0x3de64b30	0.1124481
160	0x3ec3bfd0	0.3823228
161	0x3d24dbc4	0.040248647
162	0x3e73275b	0.23745482
163	0x3e92c8c6	0.28668803
164	0x3cbea578	0.023272261
165	0xbe3adcb5	-0.18248256
166	0x3f188445	0.5957683
167	0xbbc82050	-0.0061073676
168	0xbd63643f	-0.055515524
169	0xbcd4abed	-0.025960887
170	0x3cbbbb08	0.022916332
171	0x3e7336c7	0.23751365
172	0x3e568d4f	0.20952342
173	0x3d509334	0.050921634
174	0x3e81c52c	0.25345743
175	0x3db6b9d0	0.0892216
176	0x3d8b5d98	0.06804961
177	0x3ee80af8	0.45320868
178	0xbe8dc97d	-0.27692786
179	0x3d24cb0a	0.040232696
180	0xbe86f23c	-0.26356685
181	0x3b36cc07	0.0027892606
182	0xbd12b798	-0.03581962
183	0x3efe8b93	0.49715862
184	0xbdbf6fbb	-0.09347483
185	0xbcccbe00	-0.024992943
186	0x3a18d755	0.0005830427
187	0xbcb11666	-0.021617126
188	0xbc53da28	-0.0129304305
189	0xbea0a00e	-0.31372112
190	0x3d900ce3	0.07033708
191	0x3b7136e0	0.003680639
192	0xbe021fda	-0.12707463
193	0x3ec268d9	0.37970617
194	0x3d905610	0.07047665
195	0x3eb5a91a	0.35480577
196	0x3dce53b5	0.100745596
197	0x3d8cfbaa	0.068839386
198	0xbe2dbc16	-0.1696628
199	0x3d9bad68	0.07601434
200	0x3b621a40	0.003450051
201	0xbeb4ffac	-0.35351312
202	0x3ec11422	0.37710673
203	0x3cddde48	0.027083531
204	0x3d67c851	0.05658752
205	0xbd87b1bf	-0.06625699
206	0xbc321f18	-0.010871671
207	0xbcfcc9f1	-0.030858012
208	0xbd8dfd23	-0.069330476
209	0x3d4ef35c	0.050525054
210	0xbd943761	-0.07237125
211	0x3bb6f6b1	0.005583607
212	0x3d7a0ba8	0.061046273
213	0x3f88fc1f	1.0701941
214	0x3ec63276	0.38710374
215	0x3cbff074	0.023430087
216	0x3da9d396	0.0829231
217	0xbc0811c3	-0.008305016
218	0x3801f800	3.0986965e-05
219	0xbea095bd	-0.3136424
220	0x3e0f2cb4	0.13981897
221	0x3ceb7a38	0.028744802
222	0x3ebe5d2d	0.37180462
223	0x3e7f93e5	0.24958761
224	0x3d3d0fa8	0.04615751
225	0x3cdb8614	0.026797332
226	0x3e2a90c6	0.16656789
227	0xbc439148	-0.011936493
228	0x3c54ea41	0.012995304
229	0xbe686e8f	-0.22698425
230	0xbc739138	-0.014866166
231	0xbf26b70b	-0.6512305
232	0x3ee934c6	0.45548075
233	0x3cbf33c0	0.023340106
234	0xbe3e95f1	-0.18611886
235	0x3d4f4570	0.05060333
236	0xbcb453ca	-0.02201261
237	0x3d0568c0	0.0325706
238	0x3a7f4787	0.00097381364
239	0x3d58e968	0.05295697
240	0xbd8118a0	-0.06303525
241	0xbcc39800	-0.02387619
242	0xbd8552d3	-0.06509938
243	0x3e504eb1	0.20342518
244	0xbd0c0ccd	-0.034191895
245	0x3bed2470	0.0072370097
246	0xbe03ff28	-0.12890303
247	0x3d9d135d	0.07669709
248	0x3c8e44ac	0.01736673
249	0x3e035579	0.12825574
250	0x3b808b21	0.0039228355
251	0x3d721a34	0.05910702
252	0xbdfc23f1	-0.12311543
253	0xbdc10295	-0.094243206
254	0xbd286026	-0.04110732
255	0x3dbb9f07	0.091611914

network.6.bias f4 [64]
0	0x3f03dbed	0.51507455
1	0x3f96f19e	1.1792486
2	0x40060148	2.0938282
3	0x3f3af9c7	0.7303738
4	0x3f919bca	1.1375668
5	0xbe83afad	-0.25719967
6	0x3dff5463	0.12467267
7	0x3efd6ac8	0.4949553
8	0xbd09eb57	-0.033671703
9	0x3f84e21f	1.0381507
10	0x3e7439f3	0.23850231
11	0x4002e3c8	2.0451527
12	0x3edf5aa4	0.4362384
13	0x3f9c74dd	1.2223164
14	0x3d1be494	0.038059786
15	0x401b0a9e	2.422523
16	0x3f270bdd	0.65252477
17	0x400a4776	2.1606116
18	0x3e90d933	0.2829071
19	0x3fc5173b	1.5397714
20	0x3f9c2848	1.2199793
21	0x3fbbbfdb	1.4667925
22	0x3f769c68	0.96332407
23	0xbd366472	-0.044529386
24	0xbe5db996	-0.21652827
25	0x3f774340	0.9658699
26	0xbcabcb00	-0.020970821
27	0x3e5e0e25	0.21685083
28	0x3fdd3ae0	1.7283592
29	0x3fc31317	1.5240201
30	0xbe1bb9c6	-0.15207586
31	0xbdd17636	-0.10227625
32	0x3f28f57e	0.6599959
33	0x3ee7a932	0.45246273
34	0x3f7322a5	0.9497474
35	0x3f190ba4	0.5978339
36	0x3e8f62a9	0.2800496
37	0x3ef3c5a7	0.47611734
38	0x3f120ed7	0.57053894
39	0x3fc06a18	1.5032377
40	0x40007e71	2.0077174
41	0x3e80ad46	0.25132197
42	0x3ec24b5b	0.37948117
43	0x3e516055	0.20446904
44	0x3de73076	0.1128854
45	0x400a4651	2.1605418
46	0x3efe41d1	0.4965959
47	0x3d0085ee	0.031377725
48	0x4016b0b0	2.3545341
49	0xbdc1dd13	-0.09465995
50	0x3eaf013f	0.34180638
51	0x3e9a8f4b	0.3018745
52	0xbd232745	-0.039832372
53	0x40099125	2.149484
54	0x3ff899c1	1.9421922
55	0x3e368ce4	0.17827183
56	0xbdbf4044	-0.093384296
57	0x3f08af9f	0.53392977
58	0x3f33f77b	0.702995
59	0x3fd6c343	1.6778339
60	0x3f99630f	1.1983355
61	0x3fa14cdd	1.2601582
62	0x401fca47	2.496721
63	0xbc758610	-0.014985576

final.weight f4 [64, 768]
0	0xbcd78ceb	-0.026312312
1	0x3d964d60	0.07338977
2	0xbd34ab0e	-0.044108443
3	0x3e561af2	0.20908716
4	0xbdc97f38	-0.09838718
5	0xbc9ee66e	-0.019396987
6	0x3d7e840e	0.062137656
7	0xbe20abf8	-0.15690601
8	0xbedf525f	-0.43617532
9	0xbeed21e8	-0.4631493
10	0x3ebdffa2	0.37109095
11	0xbe88a6ec	-0.2668985
12	0x3ec5d7d0	0.38641214
13	0xbeef9c35	-0.46798864
14	0xbd9acebe	-0.07558964
15	0xbe3cbea9	-0.18432106
16	0xbd9b7c16	-0.07592027
17	0xbe0b54d1	-0.13606574
18	0xbe1cff0e	-0.1533167
19	0x3f786d2f	0.970416
20	0x3e603a81	0.21897317
21	0x3ec0fd66	0.37693328
22	0xbfc09c7f	-1.5047759
23	0x3f11d739	0.5696903
24	0xbed9e28f	-0.42555663
25	0xbed030f8	-0.4066236
26	0x3ef10f07	0.47081777
27	0xbecd290d	-0.40070382
28	0x3f916361	1.1358453
29	0x3e913519	0.28360823
30	0xbf416246	-0.7554058
31	0x3ed951d2	0.42445236
32	0x3d080ad0	0.033213437
33	0x3d8696cd	0.06571732
34	0xbfa8c5b7	-1.3185338
35	0x3cafe674	0.021472193
36	0x3e09e044	0.13464457
37	0xbe8f56a9	-0.27995804
38	0x3e6d5331	0.23176266
39	0x3f047913	0.51747245
40	0x3da3467c	0.07972428
41	0xbe326367	-0.17420731
42	0x3e1d4874	0.1535967
43	0x3f26f056	0.65210474
44	0x3e602d0c	0.21892184
45	0x3d3c4bd0	0.045970738
46	0xbfd40bec	-1.6566138
47	0xbea816d6	-0.32829922
48	0x3e99f29d	0.30067912
49	0x3d960eb8	0.07327026
50	0x3e548bbf	0.20756434
51	0x3eb2a42c	0.34890878
52	0xbf362a43	-0.71158236
53	0xbe5276ee	-0.2055318
54	0xbf51127d	-0.81668836
55	0x3f7ebfa1	0.9951115
56	0xbf14bf1f	-0.5810413
57	0xbed51916	-0.41620702
58	0xbf44436b	-0.7666537
59	0xbf4ebb28	-0.8075433
60	0x3e144ba9	0.14481987
61	0x3db0a424	0.08625057
62	0x3d9a24fe	0.07526587
63	0xbd1f24bd	-0.038853396
64	0xbe63c75a	-0.22244015
65	0xbc6079d2	-0.013700919
66	0x3e0892ef	0.133373
67	0x3f8d020b	1.1016248
68	0xbc8558fe	-0.016277786
69	0xbc2be2aa	-0.010491053
70	0xbe15eabc	-0.14640325
71	0xbea252cf	-0.31703803
72	0x3e26591c	0.1624493
73	0xbec305d2	-0.38090378
74	0xbec1de2b	-0.37864813
75	0xbf1954eb	-0.598952
76	0xbea48219	-0.32130507
77	0xbea37f31	-0.31932977
78	0xbe91b743	-0.2846013
79	0xbe1bec65	-0.15226896
80	0x3ec9e8c3	0.39435396
81	0xbd2e3929	-0.04253498
82	0x3eb3f21e	0.35145658
83	0xbea9b7f7	-0.33148167
84	0xbe2ee19e	-0.17078254
85	0x3d8f6f25	0.07003621
86	0xbd37c0ab	-0.044861477
87	0xbe2645c6	-0.16237554
88	0x3f14f431	0.58185107
89	0x3ea135b4	0.31486285
90	0x3e809b48	0.2511847
91	0x3e6eb1d7	0.23310028
92	0x3ebdbf70	0.37060118
93	0x3eec24af	0.46121737
94	0x3cb373f1	0.021905871
95	0x3d04196a	0.0322508
96	0xbd8b33ef	-0.06797015
97	0x3d8f292d	0.069902755
98	0xbd09cf84	-0.033645168
99	0x3de957c0	0.1139369
100	0xbe8386db	-0.25688824
101	0x3e17bd3f	0.14818285
102	0x3e0008d4	0.12503368
103	0x3e030f0c	0.12798709
104	0xbd60a047	-0.054840352
105	0xbe1625d1	-0.14662863
106	0xbe57212d	-0.2100875
107	0xbdc568cf	-0.09639131
108	0x3e5dac0b	0.2164766
109	0x3c1ee06c	0.009697061
110	0xbd0205d1	-0.03174383
111	0xbe32ef57	-0.17474113
112	0x3e905826	0.28192252
113	0x3ea913b6	0.3302285
114	0xbf14f261	-0.5818234
115	0x3e6a5004	0.22882086
116	0xbe76103a	-0.24029627
117	0xbf3d59df	-0.7396526
118	0xbff3248e	-1.8995531
119	0x3e3bff8e	0.18359205
120	0xbca99c25	-0.020704338
121	0xbe4707a1	-0.19436504
122	0xbe8fedda	-0.28111154
123	0x3cb1fc22	0.021726672
124	0xbc9e117d	-0.019295448
125	0x3e42be2e	0.1901786
126	0xbd9f79db	-0.07786914
127	0xbcc0fcb1	-0.023557993
128	0xbe24516f	-0.1604669
129	0x3ca35bb6	0.019941192
130	0xbe6e0cf2	-0.23247126
131	0x3c4ccfe8	0.012500741
132	0x3e8199e6	0.25312728
133	0xbed9026b	-0.42384657
134	0x3ebbfdc3	0.36717042
135	0x3d6727be	0.056434385
136	0xbe22c2ee	-0.15894672
137	0xbe9b8a77	-0.30379078
138	0xbe8941c9	-0.26808003
139	0x3f5e4224	0.8681967
140	0xbef16150	-0.47144556
141	0xbf2040a7	-0.6259865
142	0xbf8a4d87	-1.080491
143	0xbdd53cab	-0.10411962
144	0x3db60f67	0.088896565
145	0xbdbb0246	-0.09131293
146	0xbe3c4974	-0.18387395
147	0xbe5c6e9e	-0.21526572
148	0x3cb594c7	0.02216567
149	0xbe34801b	-0.17626993
150	0xbeecca14	-0.46247923
151	0x3e3c1f82	0.18371394
152	0xbea9fba7	-0.33199808
153	0xbc37dd38	-0.011222176
154	0x3da8de43	0.08245518
155	0x3f0a43f1	0.5400992
156	0xbec4000e	-0.38281292
157	0xbdddd385	-0.1083136
158	0xbe8c4e76	-0.2740361
159	0xbe72ddcb	-0.2371742
160	0xbecce541	-0.40018657
161	0xbca11ba1	-0.019666495
162	0xbf0ded9a	-0.55440676
163	0x3e97e8e0	0.29669857
164	0xbe881700	-0.26580048
165	0x3f040bf4	0.5158074
166	0xbfcb0cd5	-1.5863291
167	0xbee7f03b	-0.4530047
168	0xbd0e1810	-0.034690917
169	0xbcc1c7c4	-0.023654826
170	0x3b414508	0.0029490609
171	0x3d2a38ff	0.041558262
172	0xbd82cd37	-0.06386798
173	0x3d941dbf	0.07232236
174	0x3df33baa	0.118766144
175	0xbdc1bbd2	-0.09459652
176	0xbdfb35bc	-0.122661084
177	0xbdf986fb	-0.121839486
178	0x3d06503f	0.032791372
179	0x3cec71c7	0.028862847
180	0xbf812d6b	-1.0091985
181	0xbeb7aa9f	-0.3587236
182	0xbda70cc2	-0.0815673
183	0x3eacd888	0.3375895
184	0xbed32bd2	-0.4124437
185	0xbe17f12b	-0.14838092
186	0xbe8c31c5	-0.2738172
187	0x3eef48d1	0.46735242
188	0x3f96a273	1.1768326
189	0xbe3fd465	-0.18733366
190	0xbfbbbbdc	-1.4666705
191	0x3eef9a76	0.46797532
192	0xbe18e8da	-0.14932576
193	0xbded574c	-0.11588916
194	0xbdda9da7	-0.10674601
195	0xbc850478	-0.016237482
196	0xbc664da0	-0.014056593
197	0xbe9984ce	-0.29984134
198	0xbf3f2ffb	-0.7468259
199	0x3f122dc9	0.5710111
200	0x3f33a387	0.701714
201	0xbe8080e1	-0.25098327
202	0xbf594b00	-0.84880066
203	0x3dc8cd6a	0.098048046
204	0xbb6ec1d5	-0.003643145
205	0x3ec71324	0.3888179
206	0xbe0cf6f3	-0.13766079
207	0x3e69554c	0.22786444
208	0x3dbffe4a	0.09374674
209	0x3f37c3a1	0.7178288
210	0x3f133a9d	0.5751131
211	0x3f46efe8	0.7770982
212	0x3f7b9240	0.98270035
213	0x3eac380b	0.33636507
214	0xbf9e5307	-1.2369088
215	0xbd0be9bc	-0.034158453
216	0x3e8477bf	0.2587261
217	0x3e340bc6	0.17582616
218	0x3dd9fc63	0.10643842
219	0xbc2746b3	-0.010209727
220	0xbe28dc2f	-0.16490243
221	0x3d3a8ae6	0.04554262
222	0xbdd0fda5	-0.10204629
223	0x3e17437a	0.14771834
224	0xbe102da4	-0.1407991
225	0xbe8fead9	-0.28108862
226	0xbe574bee	-0.21025059
227	0xbf011f88	-0.5043874
228	0x3c96074e	0.01831403
229	0xbe791142	-0.2432299
230	0x3f0bc185	0.5459216
231	0x3ea9bbaa	0.3315099
232	0x3e25b110	0.16180825
233	0xbede1cb2	-0.43381268
234	0x3e8b4709	0.27202633
235	0x3fafa7a9	1.3723041
236	0xbe9f2c84	-0.3108865
237	0x3dd019ec	0.10161194
238	0xbfb2d050	-1.3969822
239	0xbefb1b22	-0.49044138
240	0x3d882ed7	0.06649559
241	0x3e463317	0.19355427
242	0x3c9686d1	0.018374832
243	0x3db936eb	0.09043678
244	0x3e0477fd	0.12936397
245	0x3e676093	0.22595434
246	0x3ea4afe0	0.32165432
247	0x3fbba996	1.4661129
248	0x3f2cf9d6	0.6756872
249	0xbe850ddd	-0.2598714
250	0xbf40c2e3	-0.75297374
251	0xbe939ed0	-0.28832102
252	0x3f3cd1f3	0.7375786
253	0xbde569c2	-0.11201812
254	0x3f7b1695	0.9808133
255	0x3e726cc1	0.23674299

final.bias f4 [64]
0	0x3c0960a8	0.008384861
1	0xbc871d61	-0.016493501
2	0xbcfd44a2	-0.030916516
3	0x3c412670	0.011788949
4	0x3c9c0584	0.019045599
5	0xbc9c3cda	-0.019071985
6	0x3ce48acc	0.027898215
7	0xbd07f70b	-0.033194583
8	0xbc21945e	-0.009862034
9	0xbcc16378	-0.023607
10	0x3c457a74	0.012053121
11	0xbc2c8104	-0.010528807
12	0xbd064215	-0.032777864
13	0x3cc727da	0.024310995
14	0x3cc28794	0.02374629
15	0x3cf9367c	0.030421488
16	0x3ca81566	0.020518016
17	0x3cf55a4c	0.029950283
18	0xbc0f0c96	-0.008731028
19	0x3c14747c	0.009060975
20	0xbc82ddde	-0.015974935
21	0xbb809d20	-0.0039249808
22	0xbcd5b26e	-0.026086058
23	0xbc2533ca	-0.010083148
24	0x3cdf4284	0.027253397
25	0xbce9c6e4	-0.028537221
26	0xbc646156	-0.013939222
27	0x3c0ad52c	0.008473676
28	0x3c14fca4	0.009093437
29	0x3ca547d2	0.020175848
30	0xbb8f9688	-0.0043819584
31	0x3d064e5e	0.03278958
32	0x3c32ede4	0.010920975
33	0x3c746884	0.014917497
34	0x3c4c8c90	0.012484685
35	0xbcec75e7	-0.028864814
36	0x3c8bf6a8	0.017085388
37	0xbc813c6f	-0.015775887
38	0x3cf7a76c	0.0302312
39	0xbc221d9e	-0.009894757
40	0xbc9e660b	-0.019335767
41	0xbc772f28	-0.0150869265
42	0xbcdf5963	-0.027264303
43	0xbc97e44a	-0.018541474
44	0xbba3621c	-0.004986061
45	0xbc4f643a	-0.012658173
46	0xbd00acfe	-0.03141498
47	0x3bdeed90	0.006803222
48	0x3b9a2bc0	0.0047049224
49	0xbcfe9210	-0.031075507
50	0xbd0ce69a	-0.034399606
51	0xbc08f6d2	-0.008359628
52	0xbd0cd141	-0.034379248
53	0xbcfd495a	-0.030918766
54	0xbc21af12	-0.0098684
55	0xbd069dfa	-0.032865502
56	0xbb35d9e0	-0.0027748272
57	0xbcb4e4ea	-0.022081811
58	0xbcb5caae	-0.022191372
59	0x3d0aa0fc	0.033844933
60	0x3c6fde1c	0.014640357
61	0xbce18d94	-0.02753333
62	0x3c8a6d76	0.016897898
63	0xbd07f79f	-0.033195134
