ckpt/causalcnn_pretrain_epoch1.pt (torch, 363380 bytes, 10 tensors)

network.0.weight f4 [64, 18, 3]
000000 58 76 b4 bd c2 ae c7 bc 10 19 fa bd fb a8 92 bd
       -0.08811635 -0.024375323 -0.122118115 -0.07161137
000010 f5 94 a9 3d 29 9f aa bd b9 db 17 be c3 50 50 be
       0.082803644 -0.08331139 -0.14829911 -0.20343308
000020 51 83 31 3d 45 88 5c bd b5 cd 1c be 4f 2a 4f 3d
       0.043338124 -0.053840894 -0.15312846 0.050577458
000030 fb 41 11 3e 5d 35 63 be 79 72 8d be 81 49 1a 3d
       0.14185326 -0.22188325 -0.27626398 0.037667755
000040 53 3a 54 bd d3 bd c3 3d 5e 2d 96 be 36 ad 82 bd
       -0.051813435 0.095576905 -0.29331487 -0.063806936
000050 e8 7c 8b 3d 1e 8d c4 bd cc f4 51 be 2c 8a bd bd
       0.06810933 -0.095972285 -0.20503539 -0.0925487
000060 83 c8 c0 bd 1d 2c 5d be 22 ab 2b be 56 71 e9 bd
       -0.094132446 -0.21598859 -0.167645 -0.1139857
000070 2b c2 87 bd 62 99 98 bd a4 c4 08 be 99 43 0c be
       -0.066288315 -0.074511304 -0.13356262 -0.13697661
000080 1d bf 73 be 8a c6 fd 3c d3 e0 0f 3e 0a 3c c0 bb
       -0.23803373 0.03097846 0.14050607 -0.005866532
000090 09 69 ec bd 39 39 8a 3d 5b b4 fd 3d 24 b3 5d bd
       -0.11543471 0.067491956 0.12387916 -0.05412592
0000a0 0f d3 b5 3d b3 78 42 3e a4 cc 33 be 07 4f 1c be
       0.08878147 0.18991356 -0.17558533 -0.15264522
0000b0 36 0c cf 3d de 57 ad bd f9 1b 37 3e 7b 33 54 bd
       0.10109751 -0.08464025 0.17881764 -0.051806908
0000c0 0c ee 88 be e9 6a d1 bd 0f 21 23 bd cb 20 d7 bd
       -0.26744115 -0.102254696 -0.03982645 -0.10504302
0000d0 32 e9 4f 3d d8 c2 94 3e d8 b8 b7 3d e6 cf b8 bd
       0.0507595 0.29054904 0.08970803 -0.090240285
0000e0 cf 9d 86 bc 2d 10 9f 3d 9c 9c 85 bc f9 5f 18 3d
       -0.01643267 0.07766757 -0.016310029 0.0372009
0000f0 25 55 1e 3d 8c 1b d0 bd 73 4c e4 bd b1 e7 da bc
       0.03865542 -0.10161504 -0.11147394 -0.026721807
000100 ec 0d 4d be 49 ee fb bd 74 57 0c 3e 4e b4 8b be
       -0.20024842 -0.12301309 0.13705236 -0.27286
000110 d1 06 8e be 3a 16 bf bc 95 d5 38 be d4 35 a2 bd
       -0.27739576 -0.023326028 -0.18050225 -0.07920423
000120 ec 55 99 bd 36 19 4c 3c 56 94 b5 3c e2 52 84 3e
       -0.074870914 0.012457183 0.022165459 0.25844485
000130 b6 17 76 be 41 be e6 bd 84 5d bd bd 3b 30 0a bd
       -0.24032483 -0.11266757 -0.09246352 -0.033737402
000140 c0 d7 07 be f3 ab 69 3e f9 d0 16 be 3d f1 86 3c
       -0.13265896 0.228195 -0.14728154 0.016472453
000150 44 0d 8a 3e cd 79 28 be 25 f5 2d bd 71 16 c0 3d
       0.26963246 -0.16452713 -0.042470116 0.0937928
000160 63 f5 28 be 91 a1 8a bd 1c 6f 2b bd ab 47 5c 3c
       -0.16499858 -0.067690976 -0.04185401 0.013444821
000170 4f 94 0b 3d 8d b3 e1 bc f6 47 55 be f3 48 71 3d
       0.034076985 -0.027551437 -0.20828232 0.05890746
000180 4f c4 1f be f8 8c cb 3c a8 34 8d 3d 31 a3 ac 3d
       -0.1560223 0.024847493 0.06894809 0.08429564
000190 9e b6 da 3b d6 11 4d bd 8e 64 1b be 9c ee b2 3c
       0.0066746017 -0.050065838 -0.15175077 0.021842293
0001a0 45 a7 a1 bd 88 a5 0d 3e 52 94 7b be 4d 33 17 bd
       -0.07893232 0.13832676 -0.24568298 -0.03691416
0001b0 4e 7a 4d bd d5 98 90 bd 50 cf 1b bd 2d 03 a4 bc
       -0.050165467 -0.070604004 -0.038039505 -0.020021046
0001c0 76 1d 03 be 64 07 f0 bd 9e 5a 03 3d ce 8b fb 3d
       -0.12804207 -0.1172016 0.03206884 0.12282525
0001d0 15 8a 18 3d 54 78 fc 3c 1a af a3 bd 13 11 b0 3d
       0.03724106 0.030819096 -0.07992382 0.08597007
0001e0 2a a6 e2 bd aa aa 67 bd 5c 17 84 3c 9f 67 f8 bc
       -0.110668495 -0.056559242 0.01612442 -0.030322848
0001f0 cc 35 ce 3d 8c fe 67 bd 7a 39 67 3d c4 71 6c 3d
       0.10068855 -0.05663924 0.0564513 0.057725683
000200 bc 27 a1 3d 71 17 b3 bd d4 6a 09 be 7c d0 ad 3d
       0.07868907 -0.087447055 -0.13419658 0.08487031
000210 f7 84 ea bd 46 24 cd bd 41 1d c6 3d ce 1f da 3d
       -0.11451142 -0.10016684 0.096735485 0.106505975
000220 4e d5 c1 3d 34 c8 ca 3d 2d 39 12 3d 26 f6 15 be
       0.09464513 0.09901467 0.03569906 -0.1464468
000230 7e 72 7d 3d 92 a7 bb bd 4e d9 09 be d4 9f cf bd
       0.061876766 -0.09162821 -0.13461801 -0.10137907
000240 ce b9 a7 bc e3 9e 9d 3c f8 8a e2 3c fc 22 a5 3d
       -0.02047434 0.019240802 0.027654156 0.08063313
000250 43 61 e8 bd 9e 63 c0 bd 66 8d a7 bd 6e 53 be bd
       -0.11346676 -0.093940005 -0.081812665 -0.09293257
000260 88 f0 48 bd d0 aa 53 bd e4 fb 69 bd 14 5d 93 3d
       -0.049057513 -0.05167657 -0.057124987 0.071954876
000270 94 4a ca bd 78 1b d2 3d ee ec 99 3d 86 8a fe 3d
       -0.09877506 0.102591455 0.07515894 0.12428765
000280 22 01 03 3e 58 ef 65 3d dc e8 25 be b7 1d 66 bd
       0.12793401 0.05613646 -0.1620211 -0.056180682
000290 e7 5f 09 3d ae 9d 3d be 79 b7 45 be dc f1 3e 3d
       0.033538725 -0.18517181 -0.1930827 0.046617374
0002a0 8e 51 37 3d 4a 57 5c bd 00 bd f7 bd 0a 04 4e 3d
       0.04475551 -0.053794183 -0.12096596 0.05029682
0002b0 b9 f1 4a be cf f0 c2 3c 27 5e cc 3d b0 71 12 ba
       -0.19818772 0.023796467 0.09978896 -0.0005586399
0002c0 dc 64 3e bd c0 33 9b bd b8 1f 4d 3d 92 ad e1 3d
       -0.046482906 -0.0757823 0.050079077 0.11019434
0002d0 58 fe b5 bd ed 58 7f 3c 6d 42 71 3c 3d 50 de bd
       -0.08886403 0.015585166 0.01472531 -0.10855148
0002e0 45 b2 c9 bd 50 ac d9 bd 1c bd 08 be 5f 7c d8 bc
       -0.09848455 -0.10628569 -0.1335339 -0.026426492
0002f0 75 60 59 3d d8 38 1e be f7 f5 9c bd 3f 57 89 bd
       0.053070504 -0.15451372 -0.076641016 -0.06706094
000300 39 05 46 be f7 7a bc bd 21 d0 14 3d 68 49 f1 bd
       -0.1933793 -0.09203141 0.0363313 -0.11781579
000310 a2 7a 28 be 19 f4 88 3d 1b e6 b2 3c 05 a0 68 3d
       -0.1645303 0.06687183 0.021838238 0.05679323
000320 fa 60 c0 bd 05 d4 3b 3d 76 a4 0a bd e8 d6 3a bd
       -0.09393497 0.045856494 -0.03384825 -0.045615107
000330 c2 ed 68 bd 85 1f 5e 3d a6 4c 58 be 9c 01 9c bc
       -0.05686737 0.054229278 -0.21122989 -0.019043736
000340 50 83 e5 bc 95 35 80 bd f8 87 41 3d 3f ba 01 3e
       -0.028016716 -0.0626022 0.04724881 0.12668703
000350 26 19 c9 3d e3 4b 9e 3d 38 47 06 3e 79 89 f6 3d
       0.0981925 0.07729318 0.13113105 0.120379396
000360 16 02 b5 bd 06 00 07 be 03 84 a1 3a 92 01 18 bd
       -0.088382885 -0.13183603 0.0012322668 -0.037110873
000370 06 45 03 3d a8 d4 b0 3d 0a 30 96 bd 0b 81 c9 3d
       0.032048248 0.08634311 -0.073333815 0.09839066
000380 bd 2f 05 be 90 a5 94 3c 97 b2 9c 3d da 47 9b bd
       -0.13006492 0.018145353 0.07651251 -0.07582064
000390 91 44 1f 3c 95 8a a9 bd 71 ba d4 bc ac 14 02 be
       0.009720937 -0.082783855 -0.025967808 -0.12703198
0003a0 67 00 15 be df 73 b6 3d 99 06 0f 3e 19 13 07 3e
       -0.14550935 0.089088194 0.1396736 0.13190879
0003b0 39 5b 64 bd 1c 5f da 3c e2 2b 04 3e 38 eb 09 3d
       -0.05575106 0.02665668 0.12907365 0.033671588
0003c0 86 a1 c3 3d b8 02 f1 bd 23 2f 04 be 83 8c ef ba
       0.095522925 -0.11768097 -0.12908606 -0.0018276129
0003d0 49 a1 80 3c 15 9d b3 3a 12 f1 85 3d 08 cd ec bd
       0.015701907 0.001370343 0.06540121 -0.11562544
0003e0 c3 5d 19 bd d3 28 e7 bc f7 55 11 bb e0 03 4a bc
       -0.037442934 -0.028217709 -0.0022176483 -0.012330025
0003f0 df 15 4e 3d ae eb df bd e1 72 4a 3d 02 c1 e4 3d
       0.050313827 -0.10933624 0.049425963 0.11169626

network.0.bias f4 [64]
000000 11 3e 0b 3d 6c fe 82 3d 50 8f a3 bd 72 40 45 bc
       0.033994738 0.06396183 -0.07986319 -0.012039291
000010 f7 22 fc bc 7e a2 59 3c 3b fa 25 be 82 87 15 be
       -0.030778391 0.01328337 -0.16208737 -0.14602473
000020 78 2f 0d be 46 76 d8 bd 5e 30 98 3d 01 e7 ee 3d
       -0.13787639 -0.10569434 0.074311 0.11665154
000030 4a eb 38 be 81 b8 10 3f 23 9f 88 bd be 7a fa bd
       -0.18058506 0.5653153 -0.06670978 -0.122304425
000040 29 de e1 3d ec 3f ac bd 91 15 9c bd 55 eb d6 bc
       0.11028702 -0.0841063 -0.07621301 -0.026235262
000050 2b 2d 17 3c 3e 09 12 be 65 e9 01 3c 15 35 06 3e
       0.0092270775 -0.14261338 0.007929181 0.13106187
000060 91 4d 03 be f8 ff 71 bb 95 79 a2 bd 7d 2e 5d 3e
       -0.12822558 -0.003692625 -0.07933346 0.21599765
000070 66 83 62 bd 8f 80 7e bd 60 de ce 3c 68 4b 05 be
       -0.055301093 -0.06213432 0.025252521 -0.13017046
000080 11 63 b1 3d 81 f1 c1 39 b3 c8 09 be da e4 0d 3e
       0.086614735 0.00036991763 -0.13455467 0.13856831
000090 5c ed a1 bc 91 56 92 bc 7c 3b e2 3e 95 31 90 bd
       -0.019766502 -0.017863544 0.44186008 -0.07040707
0000a0 62 59 59 3c c6 55 e4 bc 9b e6 8d 3d 9b e2 2c be
       0.013265939 -0.027872931 0.0692875 -0.16883318
0000b0 a5 f8 f0 bd d3 73 d3 3d e0 b5 91 bc 8b a6 46 be
       -0.11766175 0.10324826 -0.01778692 -0.19399469
0000c0 67 1f 8d bd f3 33 0f bd a6 3f 13 bc 0e 8d 30 bd
       -0.06890755 -0.034961652 -0.008987343 -0.04310327
0000d0 45 5e 00 bc bc d0 05 be ff 1c e6 3d 3d d2 17 bd
       -0.007834976 -0.13067907 0.11235999 -0.037065733
0000e0 55 2f 87 be d0 a0 e5 bd 26 53 a8 bb 17 55 72 bd
       -0.264033 -0.11212313 -0.005136865 -0.05916318
0000f0 e8 1f b6 bd 1f c6 f2 bc f4 c6 39 3e ba 4a cb bd
       -0.088928044 -0.029635487 0.18142301 -0.09926362

network.2.weight f4 [64, 64, 3]
000000 de 66 5d bd fa 1e 8f bd 47 75 2b 3d c7 f9 ad 3d
       -0.05405318 -0.0698833 0.04185989 0.08494907
000010 0f 61 52 bd 50 16 b7 3c c6 10 47 3d a6 8c 03 bd
       -0.051362094 0.022349507 0.04859998 -0.032116555
000020 11 76 6f bd 88 30 bd bd a6 8b f5 bc ad 58 cd 3c
       -0.058462206 -0.09237772 -0.029973816 0.025066698
000030 a3 d5 df 3c e9 88 98 bd 04 64 81 bd 5d b0 a9 39
       0.02732355 -0.074479885 -0.063179046 0.00032365593
000040 32 98 cc bc 09 1e 07 3c 77 8d c4 bc 4d f5 1f 3d
       -0.024974916 0.008246907 -0.023993237 0.039052296
000050 a2 bb cf 3c b6 48 99 bb b4 72 16 bd b8 cf 42 bd
       0.025358025 -0.0046778573 -0.036730483 -0.047561377
000060 1c f2 ed bd ac d4 61 3c e7 58 d6 3c 67 e5 17 bc
       -0.11618444 0.013783615 0.026165439 -0.009271002
000070 cf c6 c2 bc be 36 2c bd 9c 39 2e 3c 12 82 7c 3d
       -0.02377644 -0.042044394 0.010633852 0.061647482
000080 ba d9 bc 3c b4 58 9c bd de 91 83 3d da ac be bd
       0.023053039 -0.07634106 0.06424306 -0.093103126
000090 c2 1b 67 3d af d8 d2 3d be b9 7e bd f1 cc 20 bd
       0.056422956 0.10295235 -0.062188856 -0.039257947
0000a0 cb 36 cf bd 04 5b ed bd f2 7f 7e 3d e0 b9 8e bc
       -0.10117873 -0.115896255 0.062133737 -0.017422616
0000b0 3c 10 3f 3d 24 b8 eb bc 70 81 e9 3b fe b3 f2 3c
       0.04664634 -0.028774329 0.007126026 0.029626843
0000c0 a8 97 a8 bb 22 9e 64 bd e1 c5 0f 3d e0 fe 58 bb
       -0.005145032 -0.05581487 0.03510082 -0.0033110902
0000d0 50 8d fd 3b 8a 40 27 bd 14 ec 95 bd c0 96 2f bd
       0.007737793 -0.040833034 -0.07320419 -0.042868376
0000e0 31 24 22 bd 72 af 5b 3c 23 1c c1 bd 3b 77 93 be
       -0.039585296 0.013408529 -0.09429195 -0.28801903
0000f0 59 e5 bc 3c 30 f9 65 ba 31 94 ea 3d 82 c5 cd 3d
       0.02305858 -0.00087727886 0.114540465 0.10047437
000100 09 eb 14 bd 9f 1e df bc 57 dc 19 bb f7 2a 3f be
       -0.03635696 -0.027236281 -0.002347728 -0.18668734
000110 61 7c 0f 3e 85 0f 80 3e ec cf 21 3d 17 50 d1 bd
       0.1401229 0.2501184 0.03950493 -0.10220354
000120 cc 67 78 3c 22 e7 37 bc 56 ec 30 bd 75 c0 35 3d
       0.015161466 -0.01122454 -0.043194138 0.044372994
000130 be b6 f8 3c f7 96 41 bd bc e5 08 3e d8 b1 bf bd
       0.030360576 -0.047263112 0.13368887 -0.09360093
000140 fa d8 c9 bc d2 c5 08 3e 6a fb 82 bd 1e 4e a0 bc
       -0.024639595 0.13356712 -0.0639561 -0.0195685
000150 67 49 7b bd 4f 81 f6 ba 88 bb 02 3d 4d 4f aa bd
       -0.0613493 -0.0018806848 0.031917125 -0.08315907
000160 3a cb 31 3e 2d b3 a1 bd 43 5e 4d bc ce aa 4f bd
       0.17362681 -0.07895503 -0.012534681 -0.0507
000170 30 61 5f bd d8 2f 9f 3d 5d 1a d5 bc d2 58 03 3d
       -0.054536045 0.07772797 -0.026013548 0.032067128
000180 4a 05 b2 bd d7 79 85 bd a7 ea 2e be ac c9 05 3d
       -0.08692415 -0.0651738 -0.170817 0.032663032
000190 fb cc ce bc d9 02 c5 bc c5 00 56 bb 66 5c 98 bc
       -0.025244227 -0.02404921 -0.0032654267 -0.018598747
0001a0 b5 7e 9d bd 6b 7f 37 3e 7c 0f 14 3e 56 9c 02 be
       -0.07690183 0.179197 0.14459032 -0.1275495
0001b0 1c 3f 83 bd 02 2f c9 bc ee ac dd bd 92 d2 0f bd
       -0.064085215 -0.024558548 -0.10823999 -0.035112925
0001c0 4a 25 db 3b 57 f2 56 bd b4 16 87 bd 25 e3 2d bc
       0.006687795 -0.052477207 -0.06596127 -0.0106132375
0001d0 78 23 be 3b 2e d4 73 3e 37 28 56 bd 22 e4 ba 3d
       0.005802568 0.23811409 -0.052284446 0.09125544
0001e0 9c ad 1d bc cd b9 69 3d e7 e9 3b bd 3a 44 0a 3e
       -0.009623911 0.05706196 -0.045877364 0.13502589
0001f0 7e 56 81 3c 38 2f ac 3c d2 b6 86 bd a1 5b a4 3d
       0.015788313 0.02101861 -0.06577839 0.08025289
000200 d6 24 50 3e c4 25 b5 bd 94 f7 d4 3b 48 3f af bd
       0.20326552 -0.08845094 0.00649924 -0.08556992
000210 1b da 9c 3c dd 13 d8 3c 92 85 71 bd 2d 7e 90 3d
       0.01914697 0.026376659 -0.058965273 0.07055316
000220 79 98 af 3c 2d a8 d9 bc dd 89 d0 3a b6 29 8d 3e
       0.02143501 -0.02656945 0.0015910227 0.27570885
000230 cc 97 b7 3e c6 30 35 bd 86 3f 22 bd 75 d7 ef bb
       0.35858 -0.044235967 -0.039611362 -0.0073193857
000240 07 cf 26 bd 12 aa 37 3d d8 20 81 bd 31 97 13 bc
       -0.04072478 0.044839926 -0.063050926 -0.009008215
000250 20 0c 6c 3c d8 e6 a4 3c dc d0 8a bd 4d 29 a9 bc
       0.014407188 0.020129606 -0.06778118 -0.020649577
000260 a9 69 c0 bd 67 7e df 3d ee 6d 6e 3d a1 fa 7f bd
       -0.09395153 0.10912781 0.058210306 -0.062494878
000270 44 a4 e0 3c dd 83 7d 3d 38 b8 97 3b 96 5a 7f 3e
       0.027422078 0.061893333 0.004630115 0.249369
000280 1a 94 3b 3e 0f e2 f4 3d d7 f3 4a 3e 17 f3 02 be
       0.18318215 0.1195718 0.1981958 -0.12788044
000290 70 3c 53 bd 41 dd e8 3c 4b 7b 1d bd 83 a4 89 bd
       -0.05157131 0.028425815 -0.03844766 -0.06720831
0002a0 51 0a 1f bd 46 b0 b9 bd 1a b1 10 bc 32 ff 17 3d
       -0.038828198 -0.090668246 -0.008831287 0.037108608
0002b0 e6 33 84 bd c0 0a ae bd 73 9b 57 39 68 5e 0e bd
       -0.06455211 -0.08498144 0.00020561907 -0.034758
0002c0 06 d4 29 3d 7a 36 18 bd e7 1d 59 bd c4 9a 75 3d
       0.041461967 -0.037161328 -0.053007033 0.05996205
0002d0 42 c4 aa bd 7d fb 16 bc e6 32 03 3d 90 30 1c bd
       -0.083382145 -0.009215233 0.032030962 -0.03813225
0002e0 9c 0d b2 bd ff 58 62 be 9c 8f e3 bd 10 18 c2 bc
       -0.08694002 -0.22104262 -0.11111376 -0.023693115
0002f0 63 d0 55 bd 21 36 b1 bd a0 58 cc bd 99 c2 a1 bd
       -0.052200686 -0.086529024 -0.099778414 -0.07898445
000300 34 c0 68 3d 24 c3 83 bd 67 61 77 3c 12 d8 97 be
       0.056823924 -0.064337045 0.015098906 -0.29657036
000310 f7 e1 bc bd 87 db b9 bd ad 16 57 3c ee 90 c1 3c
       -0.09222787 -0.09075075 0.013127965 0.023628678
000320 e0 fc d4 bc af b8 fb bc d2 c5 10 3d 37 7e 72 bd
       -0.025999486 -0.030727712 0.035344906 -0.0592024
000330 af b4 3e bc ec 9d 81 3d fa ce 13 3d 74 2e 76 bb
       -0.011639758 0.06328949 0.03608606 -0.003756431
000340 33 d4 1b bc 07 a7 fa 3b 69 f6 c3 bd 38 64 9a bd
       -0.009511041 0.0076493057 -0.095684834 -0.075386465
000350 81 3d 8d bd f3 41 31 3c 2c 70 3a 3c 1f ff 2d bd
       -0.068964966 0.010818946 0.011379283 -0.04247963
000360 37 3e 24 bd 72 ac 3c bd b9 49 f6 bd 76 15 81 3d
       -0.040098395 -0.046062894 -0.1202578 0.063029215
000370 8f 07 82 3c 8f 90 49 3d c3 b2 4f 3b d5 43 d6 3d
       0.015872745 0.049210127 0.0031692244 0.10462157
000380 8b ae 4d 3d 10 11 15 be f7 0c 9f bd b6 09 05 be
       0.050215285 -0.1455729 -0.07766145 -0.12991986
000390 b3 93 0e 3e 86 c7 81 3d a3 1f 78 bd 00 84 f5 bd
       0.1392353 0.06336884 -0.060577046 -0.119880676
0003a0 95 68 1e be a9 d7 2d bc 78 2c 2c 3e 68 da 4e bd
       -0.15469582 -0.010610499 0.16813838 -0.050501257
0003b0 15 22 bb bd 18 11 18 bb 9e 04 82 3d bb 3d 4c 3d
       -0.0913736 -0.0023203548 0.06348537 0.04986356
0003c0 03 32 f1 bd 5c 0c 4b bd e4 5c b4 bc d6 28 06 3d
       -0.11777117 -0.049572334 -0.02201695 0.032753788
0003d0 36 ae 3b 3d 34 3d d4 bc 03 6e 23 bd a4 81 af 3c
       0.045820437 -0.02590809 -0.039899837 0.021424122
0003e0 4b 00 e5 bb 13 da 99 bd 68 c3 b7 3d 54 4a 9f 3c
       -0.0069885603 -0.075122975 0.08972818 0.019444622
0003f0 28 29 9e 3d 7e 36 a7 bc 9d 0f 34 3d b6 2d 4e 3c
       0.07722694 -0.020411726 0.043960202 0.0125841405

network.2.bias f4 [64]
000000 c6 d7 8b 3e f4 17 9f bc fd 53 ea bd ae d4 cd bd
       0.2731306 -0.019420601 -0.11441801 -0.10050331
000010 04 18 50 bd 37 cd a9 3e 88 66 b5 bd e4 5f c6 bc
       -0.050804153 0.3316438 -0.08857447 -0.024215646
000020 c0 66 78 3d f2 35 3f 3e 77 78 02 3c ed 4b 33 3e
       0.060644865 0.18672922 0.007963291 0.17509432
000030 a9 12 82 bd dd 65 05 be 56 63 93 bd 6f 12 a6 bd
       -0.063512154 -0.13027139 -0.07196681 -0.08108985
000040 34 62 af 3d 1b 98 a1 bd 40 dc a0 be 4b bb 34 3e
       0.08563653 -0.0789034 -0.31418037 0.17649572
000050 f3 a2 98 3d d6 ca 15 bd 9c 13 6e 3d 22 67 6b bd
       0.07452955 -0.036570393 0.05812417 -0.057471402
000060 01 61 ff bd f2 10 b2 3e 0d 58 57 be 97 11 03 be
       -0.12469674 0.34778553 -0.21029682 -0.12799679
000070 fa 77 26 3d 10 bb e8 3c 4e 24 57 bd 40 79 87 bd
       0.040641762 0.02840951 -0.052524857 -0.066149235
000080 64 0f c3 3c 26 4d 9a bc df d0 e0 3c b9 f4 d3 bd
       0.02381105 -0.018835615 0.027443347 -0.103494115
000090 19 af 72 3e 1d a3 de bc e6 0d 1b 3d ec 0d a9 3e
       0.23699607 -0.027177388 0.03785505 0.33018434
0000a0 a3 1a ea 3d c1 2a 4b bd 17 54 d1 3d 02 88 34 bd
       0.11430862 -0.04960132 0.10221117 -0.04407502
0000b0 71 4f d0 bc 7a cd 16 bd b4 bf 89 bd d1 9c 52 bd
       -0.025428506 -0.03681705 -0.067260176 -0.051419083
0000c0 93 d0 ab 3c 69 fb 2b bd 23 a2 f5 bc ee 31 11 3e
       0.02097348 -0.04198781 -0.02998454 0.14179203
0000d0 f3 5c d1 bb 90 cd a3 bc 6a 42 06 3e 02 16 f5 bd
       -0.0063892542 -0.01999548 0.13111272 -0.11967088
0000e0 d8 61 82 3d 52 fe 86 bb 48 cc 1a 3f 5b 88 62 39
       0.063663185 -0.004119673 0.6046796 0.00021603836
0000f0 b0 2a 2e 3c 7e 50 4d 3e c0 41 0e bd 96 ff 3e 3f
       0.010630295 0.20050237 -0.034730673 0.74608743

network.4.weight f4 [64, 64, 3]
000000 9c dd 86 3d 82 81 e3 bb 85 dc 87 bd 45 8b 1a 3e
       0.065852374 -0.006942929 -0.06633858 0.1509219
000010 2c ea e8 bd c8 f0 8b bd 21 4a 77 bc 87 4b d8 3c
       -0.1137279 -0.06833035 -0.015093357 0.026403202
000020 24 78 17 3e b4 49 35 bd c0 95 93 be 46 d1 ce 3d
       0.14791924 -0.044259742 -0.28825188 0.100985095
000030 b8 3e 92 bb e6 eb cf 3b 50 78 25 3e 69 ed 20 3e
       -0.004463043 0.00634526 0.16159177 0.15715565
000040 2a b9 2d 3e ce f1 f3 3d 8b 80 a8 bd c1 7b eb bc
       0.16965166 0.11911355 -0.082276426 -0.028745534
000050 59 80 0f bc 96 89 0d 3e 7f f7 3d bd e8 c3 0d be
       -0.008758628 0.13822016 -0.04637861 -0.13844264
000060 9c 01 ba 3d ff d3 4a bd cc 43 84 3d 96 61 07 be
       0.09082338 -0.04951858 0.06458244 -0.1322082
000070 b5 08 f4 3d e9 9a 77 be 4c fd b4 3d 26 6b b7 3d
       0.11915723 -0.24180187 0.08837375 0.08955984
000080 6b 68 0a 3e 17 ae 12 bd 9a b2 53 bd 88 da 15 be
       0.13516395 -0.035810556 -0.051684 -0.14634144
000090 2c ea 0f 3c 7a f8 3a bd b4 4b e4 bc 1d 3a 8f 3e
       0.008783858 -0.045647122 -0.02786813 0.27974024
0000a0 60 8a 87 3e 00 4d a1 3e 58 8f 3d ba ef 3d 2b 3c
       0.2647276 0.3150406 -0.0007231138 0.010451778
0000b0 52 f4 f8 3d 63 3d 36 bd bd a6 95 bd c0 9e 82 bd
       0.121559754 -0.044492137 -0.073071934 -0.063779354
0000c0 b9 a9 92 3e 9a 70 1d bc 60 24 2d 3e 74 d7 07 3d
       0.28645113 -0.009609366 0.16908407 0.033164456
0000d0 24 48 61 bd 90 d8 82 bb 68 0d 28 3e 7f b7 60 bd
       -0.05500044 -0.0039931014 0.16411364 -0.054862496
0000e0 8d a0 bf 3d b7 74 7f be 6e 5a 88 be 07 4f af 3d
       0.093567945 -0.24946867 -0.26631492 0.08559995
0000f0 3a 8e 0b 3d 2c 08 29 3e 98 7a 75 be 11 f9 dd 3e
       0.034071185 0.16507024 -0.23972547 0.43354085
000100 aa bf 8f 3d 80 6d b5 bd 1f 55 15 bd 7f c2 6d be
       0.07018979 -0.08858776 -0.03645813 -0.23218726
000110 6e fb d9 3c d4 8b a9 3c a2 f7 4b be 41 5f 31 3e
       0.026609149 0.020696558 -0.19918683 0.17321493
000120 93 2c f7 3d 8e 2b af bb d0 7b 7f 3d 13 28 ed 3e
       0.12069049 -0.0053457683 0.062373936 0.46319637
000130 a5 aa 0e 3e 78 b1 01 3e cb a8 a8 3d d3 04 af be
       0.13932283 0.12665355 0.0823532 -0.34183368
000140 82 83 67 be 60 63 09 3d 30 d2 c6 3b 37 a0 9c 3d
       -0.2260876 0.033542037 0.006067537 0.07647746
000150 c7 6d 8b be 27 a5 49 3e c2 3e ab 3e 3e 36 2f 3d
       -0.2723219 0.19691907 0.33446318 0.04277634
000160 c4 62 01 bc 8f 30 c8 3d 9d 1b e8 3e f2 64 29 bd
       -0.007897083 0.09774887 0.45333567 -0.041356035
000170 78 41 92 3c 21 65 d7 3d 0b b8 14 3e 62 6c 2a bd
       0.017853484 0.10517336 0.14523332 -0.04160727
000180 1b fd 4b 3e c7 cc 38 be dd 95 85 3d b2 9a 90 bb
       0.19920771 -0.18046866 0.06522725 -0.0044129724
000190 65 86 26 bd ff 16 88 bd 9e 46 09 bd 5c ca 20 bd
       -0.040655512 -0.06645011 -0.03351461 -0.039255485
0001a0 5e 9c d9 bc 39 ed db 3c a0 6b a3 3b 74 1f 07 bd
       -0.02656382 0.026846515 0.004987195 -0.03298898
0001b0 34 01 84 bc fa 71 a5 bd b9 2b e8 bd e3 ad 3b 3e
       -0.016113855 -0.0807838 -0.113364644 0.18328051
0001c0 18 6e 4c be 7b ee d1 3d ac 54 26 bf 37 ec d6 bd
       -0.19963872 0.10250565 -0.6497295 -0.10494273
0001d0 44 f5 b9 bd f6 e6 87 bc 52 51 50 3d d4 2f c7 3d
       -0.09079984 -0.016589623 0.050858803 0.09725919
0001e0 1e a3 08 3e 67 05 dd 3c 2a 6f 43 bd 30 8f 5d 3e
       0.13343474 0.026980115 -0.047713436 0.21636653
0001f0 0c 79 29 3d 43 49 8f 3d de 06 7b be 88 46 04 3c
       0.041375205 0.069963954 -0.24514338 0.008073457
000200 fa ad 08 3e 94 83 82 3c 40 fc 76 3b 3e 71 8e bc
       0.13347617 0.015931882 0.0037686974 -0.017387982
000210 9d 65 09 3e dc 0e 01 3d 9f b0 7e bd da f0 31 3e
       0.13417669 0.03150831 -0.062180158 0.17377034
000220 68 7a ee bd e7 ca ee 3c d4 e1 b1 bd 4e d2 92 bd
       -0.11644441 0.029149486 -0.086856514 -0.07169019
000230 21 8e 19 3b 68 17 31 3c 1d 24 bb bd 3e 90 03 be
       0.0023430663 0.010808803 -0.091377474 -0.12847993
000240 07 81 da bd 0e 48 b1 bd 81 5b 00 bd 14 4f 8f 3e
       -0.10669141 -0.086563215 -0.031337265 0.2799002
000250 d1 43 40 3d c9 90 bd 3d d0 a9 74 ba c8 ff c8 be
       0.046939675 0.09256131 -0.00093331654 -0.39257646
000260 18 bc de bd a7 b9 c2 bd 89 61 5e 3e 75 60 27 be
       -0.1087572 -0.095080666 0.21716894 -0.16345389
000270 d9 6f a3 be 69 ba 61 bd de 13 a9 be 29 0f 10 3e
       -0.3192127 -0.055109415 -0.3302297 0.14068283
000280 b8 c0 74 bc 2a 93 24 be cd 66 47 be bb b3 e0 be
       -0.014938526 -0.16071764 -0.19472809 -0.43887123
000290 a0 0b c5 bd 5b a2 cb bc 74 a5 fe bd 91 66 3f bd
       -0.09621358 -0.02485769 -0.124339014 -0.046728674
0002a0 11 0d 40 3e 89 02 23 3e 04 01 97 3e fe 1e 2a bd
       0.18754984 0.15918936 0.29492962 -0.041533463
0002b0 2a d6 05 bd 35 92 20 bc 0c 64 59 3c 00 e6 3b 3e
       -0.032674946 -0.0098004835 0.013268482 0.18349457
0002c0 6b 90 24 3e ae 6e f3 3d 13 e2 41 bd 94 5b 27 3e
       0.16070716 0.11886345 -0.04733474 0.16343528
0002d0 a1 97 2a 3e 62 27 f9 3c 3e 28 fc 3c 62 50 cf 3c
       0.16659404 0.030414287 0.030780908 0.025306884
0002e0 5a 96 bc 3d 86 ac 4a 3d 6e ef 7a 3d d3 c1 4c be
       0.09208365 0.049480937 0.061263494 -0.19995813
0002f0 47 6a 71 be 4e 71 07 3d 9a 53 03 3e a1 2f 30 3e
       -0.23575698 0.03306704 0.1282486 0.17205669
000300 2b 44 95 bd 84 96 ff 3d 88 93 06 be f8 cc 26 3e
       -0.07288393 0.124798805 -0.13142216 0.16289127
000310 77 d0 12 be 1c 8d 68 be 85 aa 37 3d c2 65 3f 3d
       -0.14337336 -0.22710079 0.044840354 0.046727903
000320 06 2c c4 bc 4a 69 be 3e 2c 51 fa bc dd 81 43 bf
       -0.023946773 0.37189704 -0.030556284 -0.7637003
000330 df 48 6d ba 68 97 40 3e 48 22 fa 39 e8 93 89 be
       -0.0009051691 0.18807757 0.00047709257 -0.26870656
000340 87 ab 99 bd 59 4e d0 3d df 89 2c 3d e5 13 4d 3c
       -0.07503419 0.10171194 0.04212367 0.01251695
000350 0b a7 8f bd d2 db 37 bc d3 de 4b 3d 4a 50 71 3c
       -0.07014283 -0.011221843 0.04977305 0.014728615
000360 ce 49 78 3c c3 8b 71 bd 3c 46 d2 3a 0b 94 7d be
       0.015154315 -0.058971178 0.001604266 -0.24763505
000370 47 7c d4 3c 7c be 90 3d 1d f8 ec bb 55 e2 62 3d
       0.025938166 0.07067582 -0.007231726 0.05539163
000380 7d 87 83 bd 0d 22 00 be db d7 1b 3e 53 71 8d bd
       -0.06422327 -0.1251299 0.15219061 -0.069063805
000390 da 3c 9c 3c f4 d4 e4 bc 5c fe 02 3c 3d 4c 0b be
       0.019071985 -0.027933575 0.007995214 -0.13603301
0003a0 cc b4 b0 bd 7e 22 75 3d 0e 64 81 bc 28 76 80 3c
       -0.08628234 0.059847347 -0.01579478 0.015681341
0003b0 e4 c3 62 bb 74 13 76 bd 88 c5 93 bd 7a 82 ad 3a
       -0.0034601623 -0.060077146 -0.072154105 0.0013237738
0003c0 5f ae 55 3d a1 47 21 bd 75 2b 14 bd 8f 62 dc bc
       0.052168246 -0.03937495 -0.036174256 -0.026902465
0003d0 c5 30 df bc 15 78 fa 3c 17 68 eb bc 79 07 26 be
       -0.027244935 0.030574838 -0.028736157 -0.16213788
0003e0 12 d9 7c b8 0e 44 1e 3e 6a 6e 21 3e fe 09 70 3d
       -6.0283644e-05 0.15455648 0.15764776 0.05860328
0003f0 df 70 8a bb ae d8 70 3e a0 ff 03 3e c4 b5 42 3e
       -0.004224881 0.23520157 0.12890482 0.1901465

network.4.bias f4 [64]
000000 0d de 28 3e eb 5d 7f bd af bf 7c 3d 79 cf 04 bd
       0.16490956 -0.062345427 0.06170624 -0.032424424
000010 cc f6 0f 3e 7d 7e d2 bd 0a 82 2c 3d 34 22 1a be
       0.1405899 -0.10278032 0.042116202 -0.1505211
000020 4f b8 48 bd fc 14 3a 3e a2 21 2c bd 09 a4 5d 3d
       -0.049003895 0.18172067 -0.042024262 0.054111514
000030 3b b8 b2 bc 82 9b a0 3d 72 fa e8 3d eb 93 19 be
       -0.021816364 0.07842161 0.11375894 -0.14997832
000040 e6 fd a1 bd 29 fc 1a be 39 b9 98 bc e9 c7 e4 bd
       -0.079097554 -0.15135254 -0.018643009 -0.11170942
000050 df 08 7b 3e f0 a1 f8 3d 49 42 aa bc 0c 3b ad 3d
       0.24515103 0.12140262 -0.02078356 0.08458528
000060 ed 17 cd 3e 55 9c 3b 3e 90 4e 30 bd 12 ce da 3d
       0.40057316 0.18321355 -0.043043673 0.10683836
000070 e1 bc b4 3c 53 08 87 3e 36 80 67 3d bf c4 cd bc
       0.02206272 0.26373538 0.056518756 -0.02511823
000080 60 a8 ae bd d4 83 8b bd e5 fe 82 3d aa 06 66 3c
       -0.08528209 -0.068122536 0.063962735 0.014039675
000090 2b 87 a2 3d d0 67 65 be c1 e2 e0 3b 53 58 0f be
       0.079359375 -0.22402883 0.0068629687 -0.13998537
0000a0 54 0a 67 3e 19 ca 44 3e b4 f0 09 3f 0f c6 33 bc
       0.22562534 0.19217719 0.5388291 -0.010972514
0000b0 2e 70 89 bd eb 3f 64 bd 19 6a 85 bd e3 d6 a2 bd
       -0.0671085 -0.05572502 -0.06514377 -0.07951143
0000c0 69 5c 52 3e 61 ee bf 3b 54 cd 4c 3e 41 ed 66 3e
       0.20543064 0.0058572744 0.20000201 0.22551443
0000d0 63 ea 8a 3e 11 b7 cb 3c 06 45 b3 3c 3c 7f 9e 3e
       0.27131948 0.024867566 0.021883499 0.30956447
0000e0 4f 7d 8b 3e b0 85 50 3e eb 8b d8 bc f4 6d 71 3d
       0.2724404 0.20363498 -0.026433906 0.05894275
0000f0 0a 10 7b 3e 38 a6 42 3d eb 74 02 be 1b b8 21 3d
       0.24517837 0.0475218 -0.12739913 0.039482217

network.6.weight f4 [64, 64, 3]
000000 a9 77 31 be c5 da b1 3b ac 7d 51 bc 9f 2e 05 be
       -0.17330803 0.0054276907 -0.01278631 -0.13006066
000010 aa 8a b5 bd 70 bf 20 bc 44 7e 78 3c 6c 9a 34 3c
       -0.08864339 -0.009811267 0.015166823 0.011023145
000020 3e 56 81 3d 3a b6 9f bd 20 b9 68 3d 26 e9 81 bd
       0.063152775 -0.07798429 0.056817174 -0.06343298
000030 67 99 86 be 99 20 d5 3b 34 8e 91 bc 70 36 10 bc
       -0.26288912 0.00650413 -0.017768003 -0.008802041
000040 89 94 15 3d 8a ed 44 3d 1a a6 80 3e 1f f1 b6 3c
       0.036518607 0.048078097 0.25126725 0.022331772
000050 7a 49 49 bd c6 83 b9 3d d7 e3 9e bc 9c ea d8 3c
       -0.04914234 0.09058337 -0.019395752 0.026479058
000060 08 9d 58 3a 0c 05 b5 bd 98 78 06 3d 61 23 da 3d
       0.00082631456 -0.08838853 0.03282985 0.10651279
000070 0f ed 7b bd b1 cb 12 bd 06 4b eb bc c0 79 c7 bc
       -0.061505374 -0.035838787 -0.028722297 -0.024350047
000080 1c 4a f4 bc 8a 50 af 3c 6a 14 85 3d 48 be 5a 3c
       -0.029820494 0.021400709 0.06498034 0.013351031
000090 ed 1a dd 3c c1 c8 bb 3c 36 69 3b bd 3a 30 03 be
       0.026990378 0.022922875 -0.045754634 -0.12811366
0000a0 9c 99 f4 3c 3a 7e 2b bd 81 e3 1b 3d bb 61 5c 3c
       0.029858403 -0.041868426 0.03805876 0.013451035
0000b0 e2 06 ba bc 28 14 49 3d 9d 9f 3a bd d3 0d 2b bd
       -0.02270836 0.049091488 -0.045562375 -0.04176123
0000c0 87 78 03 bd 9c 7e 1c bd 01 57 02 bd da a0 ff bc
       -0.032097366 -0.03820668 -0.031821255 -0.03120463
0000d0 b5 d8 bc bd f8 d8 ca 3c f7 33 43 bd 4f df 30 bd
       -0.09221021 0.024761662 -0.04765698 -0.043181714
0000e0 04 6f 68 bc 8d 1c b6 bc a9 fb 0d bd 52 4e 8e 3d
       -0.014186624 -0.022230411 -0.03466383 0.06948532
0000f0 a0 61 f0 3c 89 ca 6a 3d 27 46 6a bd 06 0b 0e bd
       0.029343426 0.05732206 -0.05719581 -0.03467848
000100 c0 d4 34 bc ac a9 c7 3c 0c 53 44 bd 52 d3 1b bd
       -0.011037052 0.024372898 -0.047930762 -0.038043328
000110 a0 7f c0 3c 5b 61 58 bc fb f0 b0 bd 60 d3 b9 bb
       0.023498356 -0.013206805 -0.086397134 -0.00567095
000120 d2 d8 81 bd 15 27 4b 3d 7f 24 89 bd 84 2f 15 3d
       -0.06340183 0.04959782 -0.06696414 0.036422268
000130 0e 24 6a bd 50 54 cf bc 30 08 fb bc 80 08 38 3d
       -0.05716329 -0.025308758 -0.030643553 0.04492998
000140 ce af 4c bd c4 26 88 3c fd 0c d6 3c c8 f1 5d 3d
       -0.049972348 0.016620047 0.02612924 0.05418566
000150 5e e8 40 be 40 15 9f bd 68 da 16 bc 84 47 de 3c
       -0.18838641 -0.07767725 -0.009207346 0.02713371
000160 c7 2f ba bb fc 8a 75 bd 40 8a 32 3d 65 fe e9 bd
       -0.005681965 -0.059947 0.043588877 -0.11425475
000170 b6 d5 67 bd d7 bb ab bd d6 66 54 bd 8c d0 23 3d
       -0.056600295 -0.08385437 -0.051855884 0.039993808
000180 50 80 a1 bc 16 56 2e 3c 6c 47 43 bc 71 9e 0f 3d
       -0.019714504 0.010640642 -0.011918884 0.03506321
000190 e6 06 13 3d 00 38 dc b8 99 98 4f bd cf 8b 5d 3c
       0.03589525 -0.00010500848 -0.050682638 0.0135221025
0001a0 3c b5 2f 3d fe 36 4a bd 87 0a 4b 3d 3c 37 70 3d
       0.042897448 -0.04936885 0.049570587 0.058646426
0001b0 67 a4 dd 3a 2d 32 41 bd f2 f4 8f bd df 95 e4 3d
       0.0016909958 -0.047166992 -0.070291415 0.11161398
0001c0 fd 2c 1d bd b0 77 84 3d c0 ea f5 3c 89 27 49 3d
       -0.038372982 0.06468141 0.030019164 0.04910997
0001d0 3c 61 c0 3c e8 31 28 be d8 48 42 bd 66 99 42 3d
       0.023483865 -0.16425288 -0.04743275 0.047509573
0001e0 e7 dc 88 3e 26 18 a1 bd f9 57 7c bd 24 c5 87 be
       0.26731035 -0.07865934 -0.061607335 -0.26517594
0001f0 b9 81 10 bd 6a c0 5d bd 1a 28 9f be 54 b7 08 3d
       -0.035279963 -0.05413858 -0.31085283 0.03337796
000200 f8 96 91 bc 93 d1 4d 3e 49 09 99 bd 7e 84 4c bd
       -0.017772183 0.20099477 -0.07472474 -0.049931042
000210 2d a4 a3 3b 6e 43 43 3c 8a 58 31 3d d9 97 49 3e
       0.0049939365 0.011917932 0.043297328 0.19686832
000220 e9 00 a7 3c 05 fc 46 bd 7e 80 07 3e fd 1b 39 3d
       0.020386176 -0.04858019 0.1323261 0.045192707
000230 e2 36 cb bc ae 04 af bd 46 21 95 3c cc b7 c4 3c
       -0.024806444 -0.085458145 0.018204343 0.024013422
000240 b4 85 66 3d 35 6c 08 3d 68 bf 4f 3d 02 f1 b1 3d
       0.056279853 0.03330632 0.05071965 0.08688547
000250 2c 96 4f bc 20 af 20 3d 7c d9 31 3d 2d 2b 82 3c
       -0.012670081 0.039229512 0.0434203 0.015889728
000260 0a eb 81 3d 86 cf b9 3c 3d 00 fb 3d f4 9b af bc
       0.06343658 0.022681963 0.12255905 -0.021436669
000270 2a d1 0a 3e df dc 2d 3d cc f6 6b 3d 10 c6 65 3e
       0.13556352 0.042446967 0.05760841 0.22438836
000280 2a 63 8e 3c 90 76 2f 3c 3b 4c 07 bd 86 4b 51 3c
       0.01738127 0.01070942 -0.033031683 0.012774354
000290 1a b9 61 bd d4 29 41 bd bb a1 36 bd ec 6b 90 3d
       -0.055108167 -0.04715903 -0.044587832 0.070518345
0002a0 c5 ba 45 3e 30 ee 51 3d 88 0b c5 3c 05 19 f7 bc
       0.19309528 0.051252544 0.02405335 -0.030163297
0002b0 96 39 9c be 42 7d 06 3d 24 8d 6a 3d 98 4a 2f 3d
       -0.30512685 0.0328343 0.05726351 0.042795748
0002c0 2c 8a 87 3d 10 f5 01 be ae 21 5d bd 5c 02 dc 3c
       0.06618151 -0.1269114 -0.053987198 0.026856594
0002d0 f4 ee ee 3d d3 a0 17 bd 60 98 77 3d 1c 54 0b bd
       0.116666704 -0.03701861 0.06044805 -0.03401576
0002e0 a7 d6 21 bd 8e 56 ea bc ee 45 94 bd cb 36 3a 3d
       -0.03951135 -0.028605726 -0.072399005 0.04546241
0002f0 b4 2f 8b bd 1c f3 88 3a 06 1f 1c bc 2c e1 30 3d
       -0.06796208 0.0010448429 -0.009528881 0.04318349
000300 4b 77 8c be 17 07 31 be e0 3a 87 bb 6b 9c 6f bb
       -0.27434763 -0.17287861 -0.0041268915 -0.0036561738
000310 d5 8d a4 3d e8 6c 7c 3d ad 0f 25 bd 3e 1b 50 bc
       0.08034865 0.0616273 -0.040298153 -0.012701808
000320 98 10 f6 3c f4 2f 8c 3c 04 74 21 bc 88 c2 58 3c
       0.03003721 0.01711271 -0.00985432 0.013229974
000330 92 7a d0 bd a1 91 f9 bd 54 92 78 3d 07 c3 25 bd
       -0.101796284 -0.1218598 0.060686424 -0.040469196
000340 ed 5f 5f 3d 4c 60 ed 3c 91 8d ed bd 3d df 38 be
       0.05453484 0.028976582 -0.11599267 -0.18053909
000350 55 de 8e bd fc 18 5b 3d 12 7b a3 3d 4c 45 c5 bc
       -0.06976 0.053490624 0.07982458 -0.024080895
000360 6a f3 f6 ba ad 25 36 bb b4 17 e6 3c cf 9f b4 3d
       -0.0018840854 -0.0027793453 0.028087474 0.088195436
000370 e9 4c 8e 3d e4 f7 88 3c e5 3b 36 3e c3 d9 61 3d
       0.06948263 0.016719766 0.17796285 0.055139314
000380 c4 51 df bc 2e a0 93 bc 93 9b af 3d b0 c6 72 3d
       -0.027260669 -0.018020716 0.08574595 0.059271514
000390 72 ad c3 bc 86 a6 29 3d f4 d7 40 bc d8 50 16 be
       -0.023886416 0.041418575 -0.011770237 -0.14679277
0003a0 e8 cf 8c bd 28 b0 ee bc f8 da 09 3c 3f db 25 bc
       -0.068755925 -0.029136732 0.008414023 -0.010123073
0003b0 e0 23 5b bb 75 84 dd 3c 55 77 6c bc 2a 99 4b 3d
       -0.0033438131 0.0270407 -0.014432748 0.049706616
0003c0 e1 35 4e bd f2 6c 84 bd 66 70 89 3d d4 94 0e bd
       -0.05034435 -0.06466092 0.067108914 -0.034809902
0003d0 36 bd bd bc 94 4f 00 bd 73 93 1e bc f7 ee a5 bd
       -0.023161512 -0.03132589 -0.009678709 -0.081022196
0003e0 f5 d8 00 bd 9a 7d 98 bd ed 4b ae bd 36 4d 4d 3d
       -0.031456906 -0.074458316 -0.085105754 0.050122462
0003f0 2d 3a 83 be 48 30 a4 bd 78 6d 47 3c 53 4c 17 bc
       -0.25630322 -0.080170214 0.0121720955 -0.009234506

network.6.bias f4 [64]
000000 76 c5 3b 3e 1d b6 df 3b 08 b5 c2 3e eb 7b 1d 3e
       0.18337044 0.0068271295 0.3802874 0.15379302
000010 2f 66 a9 3d e3 0b f0 3d 18 a9 21 3f f8 c9 20 3e
       0.08271443 0.11721017 0.6314864 0.15702045
000020 9e ce 59 3d b3 a5 4b 3e c0 d1 2c 3e 28 61 8f bc
       0.05317556 0.19887428 0.16876888 -0.017502382
000030 cf c1 8d 3d 86 6b ce bd 00 05 b3 3e 07 35 86 bc
       0.06921732 -0.10079102 0.34964752 -0.016382707
000040 4e 31 e1 3c 97 17 b0 3e 21 70 1c 3e 6e 89 dd 3e
       0.02748933 0.34392998 0.15277149 0.43268913
000050 29 c5 26 3e 69 17 a6 3e d1 9f ac 3d 10 a3 b6 3e
       0.16286148 0.32439736 0.0842892 0.35671282
000060 59 0a a5 3e ed bf 1d 3e bb 04 c0 3d 0f ba 9a 3d
       0.32234457 0.15405245 0.09375902 0.07555019
000070 75 8b 95 3e 4d 0b fa 3d 52 28 e8 3d 33 b9 28 3e
       0.2920796 0.12209187 0.113358155 0.16476898
000080 01 87 4c bd e0 f4 ea 3e 2a 90 bb 3d 76 6a b6 3e
       -0.049933437 0.4588995 0.091583565 0.35628098
000090 92 6a 9e 3e 38 66 89 bd 63 30 12 3e 61 9a 13 3e
       0.30940682 -0.0670895 0.1427627 0.1441436
0000a0 7a bd 93 3e 0f f2 06 3f 4f f6 77 3e 0e a9 04 3e
       0.28855497 0.527131 0.24215053 0.12955114
0000b0 85 c2 49 3d e8 80 17 3f c9 78 b6 3e f2 34 97 3e
       0.049257774 0.5918107 0.35639027 0.29532582
0000c0 f3 2a 0a 3e b9 fa 09 3f 16 17 ed 3d 03 5f 49 bd
       0.13492946 0.538982 0.11576669 -0.049162876
0000d0 b5 b3 b7 3e 4b 55 99 3e 38 7e 4a bd 45 c3 8e 3e
       0.35879293 0.29947886 -0.049436778 0.27883354
0000e0 2d 29 1b 3f d3 f0 b4 3e 66 a3 f5 3e a5 3f 4b 3e
       0.60609704 0.35339984 0.47976226 0.19848497
0000f0 de 30 c3 3d 7c 7a 48 3e 35 90 b3 3e 68 b7 06 bd
       0.09530805 0.19577974 0.3507096 -0.032889754

final.weight f4 [64, 768]
000000 19 bd 3a 3d 0f 7b 48 3d 4a f1 36 3c ee 54 8d 3d
       0.045590494 0.048945483 0.011165926 0.06900965
000010 1d d0 b1 3c d0 ac 36 be 4d 24 54 3e 36 1b 0e be
       0.021705681 -0.1783936 0.20716973 -0.13877568
000020 fe b0 06 3e 29 7c c7 be 27 ed a6 3e 9a 9a 97 bc
       0.13153455 -0.38961914 0.32602808 -0.018506337
000030 b1 31 67 be ca 38 b1 bd f7 8a 97 bd 3d 4b 0b be
       -0.2257755 -0.0865341 -0.07399552 -0.1360292
000040 85 42 2f be fb cc 4f 3d 46 bf 61 3c eb 08 31 3e
       -0.17115219 0.050732594 0.013778513 0.17288558
000050 8c 61 68 be 75 e5 25 be 5d b2 73 bd bd 73 13 3e
       -0.22693461 -0.16200812 -0.059496272 0.1439962
000060 47 d9 06 be 70 59 1f 3e c0 47 32 be e8 3d 27 be
       -0.13168822 0.15561461 -0.17410183 -0.16332209
000070 29 95 b7 3a a4 b3 6d be 59 e1 d9 3d 53 7b c6 bd
       0.0014006245 -0.23213059 0.10638685 -0.09691491
000080 87 9e 07 bd 46 69 10 3d 6a b4 41 3c d6 98 39 3d
       -0.033110168 0.035256647 0.011822799 0.04531177
000090 73 30 2b be 20 07 42 be 28 41 f2 bd cc de 95 bd
       -0.167177 -0.1894803 -0.11828834 -0.07317886
0000a0 73 8a fb bd 8b e9 ba 3d 1a 1d 16 3e 0c 90 b1 be
       -0.122822665 0.09126576 0.14659539 -0.34680212
0000b0 f2 4e c3 bc 7b e0 87 be 30 dc 87 3d 66 ec 9b be
       -0.023841355 -0.26538453 0.06633794 -0.30453795
0000c0 62 46 2f 3d 7a d3 36 3d 92 32 af bd 73 ab 42 3c
       0.04279173 0.044635274 -0.085545674 0.011881697
0000d0 d0 b8 c5 3d 5f 59 e0 bc 2f 9c aa bd f6 ad a9 bd
       0.09654391 -0.027386365 -0.08330571 -0.082851335
0000e0 5e fb 4b 3e 7a a6 ab 3c 16 5b 1c be 2c 7d fe bd
       0.19920108 0.020953406 -0.15269122 -0.124262184
0000f0 af bd 6e be 19 d0 84 bb e7 bd a4 3d 7a 98 25 3e
       -0.23314546 -0.0040531275 0.080440335 0.16171446
000100 cf ba 2b bc 39 ac 1b bc 59 e4 19 bc 40 80 3c 3e
       -0.01048155 -0.00950151 -0.009392821 0.18408298
000110 dc 5b a7 3e 12 ea 98 be ca 6f 0d bb 29 37 3a 3d
       0.3268727 -0.2986608 -0.0021581524 0.04546276
000120 6b 4c 96 bd 74 7e e9 ba 92 bf 2d 3e bc 49 2b be
       -0.07338794 -0.0017814175 0.1696761 -0.16727346
000130 23 91 bf bc ae a8 55 bd e0 5c f1 3d 10 49 4f 3b
       -0.023384636 -0.05216282 0.117852926 0.0031629242
000140 04 07 d4 be a5 21 98 bd 20 fc 1e be fe 0e 00 bd
       -0.41411602 -0.07428292 -0.15525866 -0.031264298
000150 e3 5e d0 3d 00 32 c4 3d 1f 5c ec bd 5c 2f 75 3e
       0.10174348 0.09579849 -0.11541008 0.23943847
000160 c6 56 8a 3e 45 7b 21 3e ff 91 0d 3d cb 54 bb 3e
       0.27019328 0.1576968 0.03456306 0.3658813
000170 6b 60 19 bd 97 9e 63 3e 9d 80 39 bd 08 7a 80 3d
       -0.037445467 0.22228466 -0.04528867 0.062732756
000180 0a 5d 79 3d b7 83 11 bd 79 fd 0c 3d 6d 26 52 3b
       0.060879745 -0.035526004 0.034421418 0.003206636
000190 c6 14 18 bd 51 82 fd 3d c6 f3 a7 bd 58 e4 71 3d
       -0.037129186 0.123783715 -0.08200793 0.059055656
0001a0 d1 0c 7a 3d 21 36 da bd 72 67 a8 ba e3 0b cb be
       0.06104738 -0.106548555 -0.0012848212 -0.39657506
0001b0 3a e8 4c 3d 62 65 0c 3d c2 61 cb 3d 51 af 83 3c
       0.050026156 0.034276374 0.09930755 0.016074808
0001c0 73 54 c8 3c 59 97 2a be 2b 78 da bc c1 13 ef 3b
       0.024454331 -0.16659297 -0.026668629 0.007296056
0001d0 60 73 4c 3e 4e 2e 9f 3b 99 5e 86 be 8a 03 94 3d
       0.19965887 0.004857815 -0.26244047 0.072272375
0001e0 eb 31 0c be f5 ad 22 be bb 03 19 be d0 4b 81 3e
       -0.13690917 -0.15886672 -0.1494283 0.25253153
0001f0 e8 b5 7b 3e 59 b3 b5 3d 91 5f ac bd 46 a1 26 3e
       0.2458111 0.088720985 -0.08416665 0.16272458
000200 ca 69 b0 bd cb d8 67 bd c1 68 c3 bd e1 c0 ab 3e
       -0.08613928 -0.056603234 -0.095414646 0.33545592
000210 a0 ea 84 bd cc 43 b4 bc cc 0d e8 bc b9 67 66 3d
       -0.06490064 -0.022004984 -0.028326891 0.05625126
000220 7a 54 b1 3d eb 70 2e 3c 28 8d 1a bd 05 a4 99 3d
       0.08658691 0.010647039 -0.037732273 0.07501987
000230 03 7f 37 3c 23 da 28 3c 42 f6 18 bd a2 b7 b8 3c
       0.011199716 0.010305914 -0.037344225 0.0225485
000240 bc 43 07 3e 34 54 2d 3d c3 36 0c bd 44 e1 02 3c
       0.13209432 0.04231663 -0.034231912 0.007988278
000250 ab db 74 bc f5 61 a2 bd 5a 6d 6f bd b0 11 4a 3d
       -0.014944951 -0.0792884 -0.058453895 0.049333274
000260 e8 8b 55 3d 92 15 25 be ef f9 87 3e bd 8c 55 be
       0.052135378 -0.1612151 0.26557872 -0.20854469
000270 92 70 a5 3d d4 37 8c 3d 4c 18 80 3c 8a 45 1a bc
       0.08078112 0.06846586 0.015636586 -0.0094159935
000280 04 b9 9d bd 5a c5 e1 bd 01 c0 ee bc 2f 13 d3 bd
       -0.077013046 -0.1102397 -0.029144289 -0.10306393
000290 6e e0 fc bc 2b 54 06 3d bb 64 bf 3c a4 a9 14 bc
       -0.030868735 0.032795113 0.023363462 -0.009073649
0002a0 1f dd ca 39 2b 81 f8 3d 7c 79 18 be f7 a9 16 bd
       0.0003869319 0.12134012 -0.14890093 -0.036783185
0002b0 05 4b 6e be 04 e7 c0 be 35 14 9b bd f5 4c e2 bd
       -0.23270805 -0.3767625 -0.075722136 -0.11049835
0002c0 8d 69 93 3e 2b f6 51 3d 0e 15 05 3c 3b c2 1b 3d
       0.28791466 0.051260155 0.008122696 0.03802703
0002d0 57 9f 82 bd 61 85 a6 3d 81 8b 41 bc 57 3b 94 bd
       -0.06378048 0.08130909 -0.0118130455 -0.07237881
0002e0 2a 4f 7d be 45 e7 82 be 3e 41 6b 3e 12 5a a7 be
       -0.2473723 -0.2556707 0.22974107 -0.32685906
0002f0 46 bb 78 3e 79 0d 84 be c8 b6 45 3e 68 cd 5b bd
       0.24290189 -0.2579153 0.19308007 -0.053662688
000300 45 87 99 bd 5a 2b 16 bd b6 53 4c 3d e7 30 95 bb
       -0.07496504 -0.036662437 0.04988452 -0.0045529488
000310 a3 46 b3 3c 07 23 3d bd ae 00 29 3d de df 1d 3d
       0.021884268 -0.046175983 0.041260414 0.038543575
000320 ba be 7d 3c 8e 58 54 bc 9c 33 e5 3d c1 bf a0 3d
       0.015487367 -0.012960566 0.11191484 0.07849074
000330 e5 6f b1 be 92 d8 19 be 8c 75 8e 3d 09 25 bd 3d
       -0.3465568 -0.15024021 0.06956014 0.092355795
000340 9c c0 8c 3d af c9 3f be 41 51 04 be 3a 3e 0c bd
       0.06872675 -0.1872928 -0.12921621 -0.03423903
000350 d0 e8 69 3e 9b e0 c8 3d c3 eb 69 3c b2 5e 57 be
       0.22842717 0.09808465 0.014277401 -0.21032217
000360 81 eb 41 3e ef cd 5a bc 3c af be bc 0e 6a 73 bd
       0.18937494 -0.013354762 -0.023276918 -0.059427314
000370 72 61 c7 3d a5 66 7a be a6 6d 8f bd cf 75 78 be
       0.09735383 -0.24453218 -0.07003336 -0.2426369
000380 a2 f2 1c 3d 8c e2 47 bd 66 0a 98 3d ba 6d 01 bd
       0.03831733 -0.048800036 0.07423858 -0.031598784
000390 8e 10 83 bd 37 70 2e bc 25 1c 8a be cc cb 9e bd
       -0.06399642 -0.010646871 -0.26974598 -0.07753715
0003a0 7a ed cc bd f4 f0 95 be 28 f8 46 3d 62 88 fc be
       -0.100062326 -0.29285395 0.048576504 -0.49322802
0003b0 86 59 25 3e 78 2e 2d bf 37 a9 8e 3e 71 6b d8 be
       0.16147432 -0.6764903 0.27863476 -0.4226947
0003c0 58 77 1e bd c8 3d 5d bd 01 2a c0 3d f8 c8 ce 3c
       -0.038688034 -0.054013997 0.093830116 0.025242314
0003d0 fe 82 22 be 8c b0 2b be 30 ca 1c 3c 61 ac 73 be
       -0.15870282 -0.16766566 0.00956969 -0.23796226
0003e0 6d 5a 8d 3d de 9b 97 3d ef 1d de 3d 3c 17 90 3d
       0.06902013 0.07402776 0.10845553 0.070356816
0003f0 99 56 83 be bc 47 19 be 1b 4d b2 be 1a be 03 be
       -0.25652006 -0.1496877 -0.34824452 -0.12865487

final.bias f4 [64]
000000 e4 14 86 bc 84 b5 0c bc 80 c7 d0 39 a8 c0 66 3c
       -0.016367383 -0.008588199 0.0003982149 0.014084019
000010 c0 b7 66 ba 70 90 30 3c 60 a9 e0 bc 28 13 0d 3d
       -0.00088011846 0.010776624 -0.027424514 0.034442097
000020 8c ee 57 bc 60 e3 1d bc 03 31 a6 bc 74 2b 00 bd
       -0.013179433 -0.00963673 -0.020287042 -0.03129144
000030 00 17 67 3a d2 df 09 3d c0 b8 c5 3a 80 9f 8b 3b
       0.0008815378 0.033660717 0.0015084967 0.0042609572
000040 e0 f3 b2 bb 98 44 e5 3c 5c 55 99 bc 90 54 8e 3b
       -0.005461201 0.02798681 -0.01871746 0.0043435767
000050 88 6a dc bc 50 24 e2 3b d4 86 b0 3c 14 3b 00 3d
       -0.026906267 0.0069013014 0.021548666 0.03130634
000060 94 6f b6 bc 00 77 c4 3c 5e 91 9a 3c b4 ce ed bb
       -0.022270001 0.023982525 0.018868145 -0.007257307
000070 a4 96 e7 3c bc 22 60 3c 2c d6 2b 3c ee e9 02 3d
       0.028270073 0.013680156 0.010488074 0.031961374
000080 8e 45 a8 3c f8 94 e7 3b 28 d4 83 3b 78 da ae bb
       0.020540979 0.007067319 0.0040230937 -0.005336102
000090 aa 53 04 bd 0c 23 10 bd a0 35 c5 3a 44 e6 f3 3c
       -0.03230635 -0.035189673 0.0015045889 0.029772885
0000a0 d0 33 ba bb bb 4d 0b bd 7d af f1 bc f8 9d ba 3c
       -0.005682446 -0.034009676 -0.029502625 0.022780403
0000b0 0a b8 a4 3c 58 c6 c8 3b d8 ff 5b 3c 66 b4 80 3c
       0.020107288 0.00612716 0.013427697 0.01571102
0000c0 20 5d 03 bb 8c 8e bb 3c a8 aa 82 3c 54 b8 d4 3c
       -0.002004452 0.02289512 0.015950516 0.0259668
0000d0 2e eb 93 3c 4c 99 62 3c 0a d2 02 bd 1d b4 08 bd
       0.018056478 0.013830494 -0.03193859 -0.033374894
0000e0 e0 cd aa ba 08 85 9e 3c b0 a8 06 3d a0 65 70 3b
       -0.0013031326 0.019350544 0.032875717 0.0036681667
0000f0 18 9d 81 3c e0 7f e2 3c 03 8d 90 bc 38 8c e4 3c
       0.015821978 0.027648866 -0.017645365 0.027898893
